checkpoints/epoch=2-step=915.ckpt (torch, 292941 bytes, 508 tensors)

static_variable_selection.flattened_grn.fc1.weight f4 [2, 6]
000000 07 21 09 bf 4a 81 fc 3e b1 42 d0 be b2 e7 b4 be
       -0.5356602 0.4931739 -0.40675882 -0.3533302
000010 60 29 b6 3e 88 22 3a bd 21 d6 d7 be a8 e9 34 bf
       0.35578442 -0.045443088 -0.42155555 -0.7066903
000020 c3 54 c8 3d 14 fb 4f bf bf a5 05 bf b2 66 24 3f
       0.09781792 -0.8124249 -0.52206033 0.642192

static_variable_selection.flattened_grn.fc1.bias f4 [2]
000000 ad 03 a9 b1 a8 d1 84 31
       -4.9189652e-09 3.8655408e-09

static_variable_selection.flattened_grn.fc2.weight f4 [2, 2]
000000 b9 39 6d bf dd 9f f1 3d 4c 34 70 bd 84 7b 50 3f
       -0.926662 0.117980696 -0.058643624 0.8143847

static_variable_selection.flattened_grn.fc2.bias f4 [2]
000000 55 a9 ad 31 c0 ee 89 31
       5.0542135e-09 4.0143675e-09

static_variable_selection.flattened_grn.gate_norm.glu.fc.weight f4 [12, 2]
000000 91 d5 f8 3d 83 81 25 3d 5c 66 32 3e a0 74 04 be
       0.121501096 0.040406715 0.1742186 -0.12935114
000010 3c 5b cb be e2 7b 14 bf 62 e3 6f 3e 94 eb a7 3e
       -0.39718044 -0.5800153 0.23426583 0.3279692
000020 90 77 59 3e 38 ba b8 bd df 70 23 bf b5 5c c5 be
       0.21237016 -0.090198934 -0.638441 -0.38547292
000030 b3 0d 1e bf f8 af e7 be c3 1b e6 be de f5 a9 be
       -0.61739653 -0.4525144 -0.44943056 -0.33195394
000040 40 6c 30 be 8f 37 12 bf 75 7b a2 3e b9 e0 1b be
       -0.17228794 -0.57116026 0.31734815 -0.15222444
000050 9c 48 85 be dd 9f 6e bd 99 06 13 be 82 19 dc 3e
       -0.2603196 -0.058257926 -0.14357986 0.4298821

static_variable_selection.flattened_grn.gate_norm.glu.fc.bias f4 [12]
000000 68 69 f4 b1 80 f8 0f b1 c2 2e a3 b1 8c 2d aa 31
       -7.113318e-09 -2.0950495e-09 -4.74924e-09 4.9528293e-09
000010 3a c2 22 32 58 b8 93 b0 f7 4b 87 2f 3a 1d 88 2f
       9.473803e-09 -1.0748051e-09 2.4610333e-10 2.4759023e-10
000020 07 0f 88 2f bb 19 09 2f a3 61 98 b0 e9 e2 04 af
       2.4748933e-10 1.2469219e-10 -1.1087206e-09 -1.2085945e-10

static_variable_selection.flattened_grn.gate_norm.add_norm.norm.weight f4 [6]
000000 00 00 80 3f 00 00 80 3f 00 00 80 3f 00 00 80 3f
       1.0 1.0 1.0 1.0
000010 00 00 80 3f 00 00 80 3f
       1.0 1.0

static_variable_selection.flattened_grn.gate_norm.add_norm.norm.bias f4 [6]
000000 f4 66 3f b2 1b c4 e4 b1 e3 e0 2d b2 4a 92 86 b1
       -1.1141072e-08 -6.657968e-09 -1.0121059e-08 -3.9165444e-09
000010 99 64 02 33 7a 05 cb 30
       3.0359477e-08 1.477175e-09

static_variable_selection.single_variable_grns.router_id.mask f4 [2]
000000 4a 0c a3 34 49 0c a3 b4
       3.0370057e-07 -3.0370055e-07

static_variable_selection.single_variable_grns.router_id.norm.weight f4 [2]
000000 00 00 80 3f 00 00 80 3f
       1.0 1.0

static_variable_selection.single_variable_grns.router_id.norm.bias f4 [2]
000000 62 d4 23 32 48 4e 33 b2
       9.536139e-09 -1.043697e-08

static_variable_selection.single_variable_grns.location.mask f4 [2]
000000 b6 eb 63 b4 b7 eb 63 34
       -2.1226774e-07 2.1226775e-07

static_variable_selection.single_variable_grns.location.norm.weight f4 [2]
000000 00 00 80 3f 00 00 80 3f
       1.0 1.0

static_variable_selection.single_variable_grns.location.norm.bias f4 [2]
000000 1c f8 c2 31 d3 76 d5 b1
       5.67435e-09 -6.2126246e-09

static_variable_selection.single_variable_grns.application_type.mask f4 [2]
000000 18 2d 0f 34 18 2d 0f b4
       1.3334318e-07 -1.3334318e-07

static_variable_selection.single_variable_grns.application_type.norm.weight f4 [2]
000000 00 00 80 3f 00 00 80 3f
       1.0 1.0

static_variable_selection.single_variable_grns.application_type.norm.bias f4 [2]
000000 5e ef 13 32 8a 00 22 b2
       8.610952e-09 -9.429764e-09

static_variable_selection.single_variable_grns.encoder_length.resample_norm.mask f4 [2]
000000 d2 a7 a7 b5 d2 a7 a7 35
       -1.2491312e-06 1.2491312e-06

static_variable_selection.single_variable_grns.encoder_length.resample_norm.norm.weight f4 [2]
000000 00 00 80 3f 00 00 80 3f
       1.0 1.0

static_variable_selection.single_variable_grns.encoder_length.resample_norm.norm.bias f4 [2]
000000 b7 e7 8e 31 d3 e7 8e b1
       4.159087e-09 -4.1590993e-09

static_variable_selection.single_variable_grns.encoder_length.gate_norm.glu.fc.weight f4 [4, 1]
000000 54 f1 12 bf 1e 02 0a bf 51 02 cb be 87 5c 37 bf
       -0.5739949 -0.5390948 -0.39650205 -0.7162556

static_variable_selection.single_variable_grns.encoder_length.gate_norm.glu.fc.bias f4 [4]
000000 01 1b 07 31 b3 1b 01 b1 7a 43 31 af 12 45 1c 2f
       1.9660436e-09 -1.8787716e-09 -1.6122029e-10 1.4212656e-10

static_variable_selection.single_variable_grns.encoder_length.gate_norm.add_norm.norm.weight f4 [2]
000000 00 00 80 3f 00 00 80 3f
       1.0 1.0

static_variable_selection.single_variable_grns.encoder_length.gate_norm.add_norm.norm.bias f4 [2]
000000 55 38 a6 30 68 1e b6 b0
       1.20941e-09 -1.3250885e-09

static_variable_selection.single_variable_grns.bandwidth_mbps_scaled_center.resample_norm.mask f4 [2]
000000 91 bc 90 37 90 bc 90 b7
       1.7253946e-05 -1.7253944e-05

static_variable_selection.single_variable_grns.bandwidth_mbps_scaled_center.resample_norm.norm.weight f4 [2]
000000 00 00 80 3f 00 00 80 3f
       1.0 1.0

static_variable_selection.single_variable_grns.bandwidth_mbps_scaled_center.resample_norm.norm.bias f4 [2]
000000 ea 7e f3 33 e7 7e f3 b3
       1.1338655e-07 -1.1338653e-07

static_variable_selection.single_variable_grns.bandwidth_mbps_scaled_center.gate_norm.glu.fc.weight f4 [4, 1]
000000 a3 80 6d 3f 1c 15 a7 be ad 19 47 3f 84 47 e0 be
       0.9277441 -0.32633293 0.77773553 -0.43804562

static_variable_selection.single_variable_grns.bandwidth_mbps_scaled_center.gate_norm.glu.fc.bias f4 [4]
000000 8b b1 75 33 f7 41 72 b3 a4 b3 27 30 d5 08 6c 2f
       5.7204982e-08 -5.640501e-08 6.100953e-10 2.1467213e-10

static_variable_selection.single_variable_grns.bandwidth_mbps_scaled_center.gate_norm.add_norm.norm.weight f4 [2]
000000 00 00 80 3f 00 00 80 3f
       1.0 1.0

static_variable_selection.single_variable_grns.bandwidth_mbps_scaled_center.gate_norm.add_norm.norm.bias f4 [2]
000000 26 44 15 33 5c 91 23 b3
       3.4753747e-08 -3.80836e-08

static_variable_selection.single_variable_grns.bandwidth_mbps_scaled_scale.resample_norm.mask f4 [2]
000000 51 6f 34 38 52 6f 34 b8
       4.3019016e-05 -4.301902e-05

static_variable_selection.single_variable_grns.bandwidth_mbps_scaled_scale.resample_norm.norm.weight f4 [2]
000000 00 00 80 3f 00 00 80 3f
       1.0 1.0

static_variable_selection.single_variable_grns.bandwidth_mbps_scaled_scale.resample_norm.norm.bias f4 [2]
000000 7c 37 ea 35 79 37 ea b5
       1.7450507e-06 -1.7450503e-06

static_variable_selection.single_variable_grns.bandwidth_mbps_scaled_scale.gate_norm.glu.fc.weight f4 [4, 1]
000000 86 bf 00 bf c3 2e a8 3d 5b cf 9a 3e 2a fb 80 be
       -0.5029224 0.08212044 0.30236325 -0.25191623

static_variable_selection.single_variable_grns.bandwidth_mbps_scaled_scale.gate_norm.glu.fc.bias f4 [4]
000000 96 9f 69 35 94 b8 6a b5 f3 f3 7e 31 20 86 26 30
       8.703149e-07 -8.744039e-07 3.7100534e-09 6.058105e-10

static_variable_selection.single_variable_grns.bandwidth_mbps_scaled_scale.gate_norm.add_norm.norm.weight f4 [2]
000000 00 00 80 3f 00 00 80 3f
       1.0 1.0

static_variable_selection.single_variable_grns.bandwidth_mbps_scaled_scale.gate_norm.add_norm.norm.bias f4 [2]
000000 be 8b 41 32 9d ea 53 b2
       1.1265852e-08 -1.2335161e-08

encoder_variable_selection.flattened_grn.fc1.weight f4 [2, 3]
000000 c1 72 09 bf 35 f8 68 be f4 da 25 bf 84 7f f6 3e
       -0.53690726 -0.22750933 -0.6478722 0.48144162
000010 3b 0e 21 bf 69 37 a5 bd
       -0.6291234 -0.08067209

encoder_variable_selection.flattened_grn.fc1.bias f4 [2]
000000 fd b1 45 bb 6a ce 4d bb
       -0.0030165904 -0.003140355

encoder_variable_selection.flattened_grn.context.weight f4 [2, 2]
000000 52 b6 a3 3e 77 c5 66 3f 04 eb 7a 3f 65 8c 99 3f
       0.31975037 0.9014506 0.98014855 1.199597

encoder_variable_selection.flattened_grn.fc2.weight f4 [2, 2]
000000 8b f9 8a bf 0c 88 e0 bc 38 7a f7 bf 0e b8 95 bf
       -1.0857404 -0.027408622 -1.9334173 -1.1696794

encoder_variable_selection.flattened_grn.fc2.bias f4 [2]
000000 13 18 e1 ba 22 92 34 3b
       -0.0017173312 0.0027552922

encoder_variable_selection.flattened_grn.gate_norm.glu.fc.weight f4 [6, 2]
000000 f6 65 9d be 61 20 43 bf 56 90 03 bf f9 30 be 3e
       -0.30741853 -0.7622128 -0.51392114 0.37146738
000010 79 e5 0e bc 8b 4a 48 bf 2d 1d de bc 3f a3 1b bf
       -0.008721703 -0.78238744 -0.027113521 -0.6079597
000020 63 f8 6c 3e b9 3c 41 3c 13 ae 11 be 91 03 15 3f
       0.23141627 0.011794263 -0.1422656 0.58208567

encoder_variable_selection.flattened_grn.gate_norm.glu.fc.bias f4 [6]
000000 75 a3 38 3b dc d7 b4 3a 84 a8 90 bb 6a 3a f4 b9
       0.00281736 0.0013797241 -0.00441462 -0.00046582829
000010 52 c0 3e b7 7d 54 e2 39
       -1.1369661e-05 0.00043169028

encoder_variable_selection.flattened_grn.gate_norm.add_norm.norm.weight f4 [3]
000000 1c 5b 80 3f 1f 1e 80 3f ea 14 80 3f
       1.0027804 1.0009192 1.0006382

encoder_variable_selection.flattened_grn.gate_norm.add_norm.norm.bias f4 [3]
000000 8e b9 17 3b de 58 98 ba a9 57 a1 ba
       0.002315137 -0.0011623164 -0.001230945

encoder_variable_selection.single_variable_grns.time_idx.resample_norm.mask f4 [2]
000000 52 c2 f6 3c 52 c2 f6 bc
       0.030121956 -0.030121956

encoder_variable_selection.single_variable_grns.time_idx.resample_norm.norm.weight f4 [2]
000000 e7 fd 7f 3f e5 fd 7f 3f
       0.999968 0.9999679

encoder_variable_selection.single_variable_grns.time_idx.resample_norm.norm.bias f4 [2]
000000 6a 50 8e bc 6c 50 8e 3c
       -0.017372329 0.017372333

encoder_variable_selection.single_variable_grns.time_idx.gate_norm.glu.fc.weight f4 [4, 1]
000000 4d 27 4b bf 35 2e cc 3e 0d 0e 82 bf 72 a1 8a 3e
       -0.79356843 0.39879003 -1.0160538 0.27076298

encoder_variable_selection.single_variable_grns.time_idx.gate_norm.glu.fc.bias f4 [4]
000000 76 32 3f bc 14 0d 41 3c 04 b6 2a 39 53 53 ad 38
       -0.011669746 0.011782903 0.0001628027 8.264803e-05

encoder_variable_selection.single_variable_grns.time_idx.gate_norm.add_norm.norm.weight f4 [2]
000000 95 3c 80 3f 8d 53 80 3f
       1.0018488 1.0025498

encoder_variable_selection.single_variable_grns.time_idx.gate_norm.add_norm.norm.bias f4 [2]
000000 2a 53 23 bb 54 8e 20 3b
       -0.0024921396 0.0024498897

encoder_variable_selection.single_variable_grns.relative_time_idx.resample_norm.mask f4 [2]
000000 03 28 ed ba 03 28 ed 3a
       -0.001809359 0.001809359

encoder_variable_selection.single_variable_grns.relative_time_idx.resample_norm.norm.weight f4 [2]
000000 00 00 80 3f 00 00 80 3f
       1.0 1.0

encoder_variable_selection.single_variable_grns.relative_time_idx.resample_norm.norm.bias f4 [2]
000000 8a 3d b6 37 b0 3d b6 b7
       2.1724747e-05 -2.1724816e-05

encoder_variable_selection.single_variable_grns.relative_time_idx.gate_norm.glu.fc.weight f4 [4, 1]
000000 fe d2 6d be 6f db 6f bf 67 d2 18 3f 42 1f 73 bf
       -0.23225018 -0.93694204 0.5969605 -0.9496957

encoder_variable_selection.single_variable_grns.relative_time_idx.gate_norm.glu.fc.bias f4 [4]
000000 aa 50 36 37 d8 5b 36 b7 d5 a5 d2 2f 93 2a d6 b0
       1.0866826e-05 -1.0869429e-05 3.8316608e-10 -1.558265e-09

encoder_variable_selection.single_variable_grns.relative_time_idx.gate_norm.add_norm.norm.weight f4 [2]
000000 55 e6 7f 3f f1 e5 7f 3f
       0.99960834 0.9996024

encoder_variable_selection.single_variable_grns.relative_time_idx.gate_norm.add_norm.norm.bias f4 [2]
000000 60 fe cd b9 70 fe cf 39
       -0.0003929017 0.00039671687

encoder_variable_selection.single_variable_grns.bandwidth_mbps_scaled.resample_norm.mask f4 [2]
000000 35 30 db ba 2d 30 db 3a
       -0.0016722741 0.0016722732

encoder_variable_selection.single_variable_grns.bandwidth_mbps_scaled.resample_norm.norm.weight f4 [2]
000000 f6 ff 7f 3f f6 ff 7f 3f
       0.9999994 0.9999994

encoder_variable_selection.single_variable_grns.bandwidth_mbps_scaled.resample_norm.norm.bias f4 [2]
000000 c6 f2 dd 38 d2 f2 dd b8
       0.00010583321 -0.0001058333

encoder_variable_selection.single_variable_grns.bandwidth_mbps_scaled.gate_norm.glu.fc.weight f4 [4, 1]
000000 35 4f 3f bf aa b9 7e 3e e4 d4 91 be b3 95 c5 be
       -0.74730235 0.24875513 -0.28482735 -0.38590774

encoder_variable_selection.single_variable_grns.bandwidth_mbps_scaled.gate_norm.glu.fc.bias f4 [4]
000000 35 34 5e 38 f5 39 5e b8 41 ae fc 32 e6 86 5d 31
       5.2977546e-05 -5.29829e-05 2.9415903e-08 3.2236414e-09

encoder_variable_selection.single_variable_grns.bandwidth_mbps_scaled.gate_norm.add_norm.norm.weight f4 [2]
000000 5a 05 80 3f c9 0a 80 3f
       1.0001633 1.0003291

encoder_variable_selection.single_variable_grns.bandwidth_mbps_scaled.gate_norm.add_norm.norm.bias f4 [2]
000000 07 55 c2 ba 1c 48 bb 3a
       -0.0014826366 0.0014288458

decoder_variable_selection.flattened_grn.fc1.weight f4 [2, 2]
000000 b0 e9 0e 3d dc 3d 59 bf a4 41 9e bd 35 88 85 3f
       0.03489083 -0.84860015 -0.07727364 1.0432192

decoder_variable_selection.flattened_grn.fc1.bias f4 [2]
000000 a4 4c 37 b7 79 28 9d b6
       -1.0925494e-05 -4.6836763e-06

decoder_variable_selection.flattened_grn.context.weight f4 [2, 2]
000000 64 42 e2 be c8 02 df be 3e 85 86 3f 55 18 95 bd
       -0.44191277 -0.4355681 1.0509412 -0.072800316

decoder_variable_selection.flattened_grn.fc2.weight f4 [2, 2]
000000 83 dd 3c c0 a7 18 22 3d fd 8d 22 be d4 b4 ce 3f
       -2.95102 0.03957429 -0.15874477 1.6148934

decoder_variable_selection.flattened_grn.fc2.bias f4 [2]
000000 37 a8 81 36 a2 ff 48 b6
       3.8640824e-06 -2.995112e-06

decoder_variable_selection.flattened_grn.gate_norm.glu.fc.weight f4 [4, 2]
000000 2b 85 eb 3c 24 4c 4d 3f c1 f6 e6 3d a1 ce bc be
       0.028750023 0.80194306 0.11277533 -0.36876395
000010 5e 4e 0a bd 14 a6 47 bf b4 d7 75 bf 8a 2c 56 bf
       -0.033766143 -0.7798779 -0.9603226 -0.8366171

decoder_variable_selection.flattened_grn.gate_norm.glu.fc.bias f4 [4]
000000 c4 a8 65 b7 8b a3 ac 37 36 10 10 b6 e2 9c 03 b6
       -1.36887575e-05 2.0580153e-05 -2.1467108e-06 -1.961184e-06

decoder_variable_selection.flattened_grn.gate_norm.add_norm.norm.weight f4 [2]
000000 d5 2b 78 3f d5 2b 78 3f
       0.9694188 0.9694188

decoder_variable_selection.flattened_grn.gate_norm.add_norm.norm.bias f4 [2]
000000 a6 86 fa bc a6 86 fa 3c
       -0.030581784 0.030581784

decoder_variable_selection.single_variable_grns.time_idx.resample_norm.mask f4 [2]
000000 e0 d2 78 bd e0 d2 78 3d
       -0.06074798 0.06074798

decoder_variable_selection.single_variable_grns.time_idx.resample_norm.norm.weight f4 [2]
000000 0c bf 83 3f 0c bf 83 3f
       1.0292678 1.0292678

decoder_variable_selection.single_variable_grns.time_idx.resample_norm.norm.bias f4 [2]
000000 8f 11 f0 bb 94 11 f0 3b
       -0.007326312 0.007326314

decoder_variable_selection.single_variable_grns.time_idx.gate_norm.glu.fc.weight f4 [4, 1]
000000 af e1 76 be d5 eb 13 3f 6c 2f 78 bf 7d ad 2b bf
       -0.24109529 0.57781726 -0.9694736 -0.670616

decoder_variable_selection.single_variable_grns.time_idx.gate_norm.glu.fc.bias f4 [4]
000000 49 7f 0d bc f8 4d 0d 3c a1 1e 8f bc 3e 7f af bc
       -0.008636304 0.008624546 -0.01747066 -0.021422978

decoder_variable_selection.single_variable_grns.time_idx.gate_norm.add_norm.norm.weight f4 [2]
000000 43 4b 77 3f 88 d7 76 3f
       0.96599215 0.96422625

decoder_variable_selection.single_variable_grns.time_idx.gate_norm.add_norm.norm.bias f4 [2]
000000 fb ba 07 bd 3b ec 0c 3d
       -0.033137303 0.034404974

decoder_variable_selection.single_variable_grns.relative_time_idx.resample_norm.mask f4 [2]
000000 fc 90 df 3b fe 90 df bb
       0.0068227034 -0.0068227043

decoder_variable_selection.single_variable_grns.relative_time_idx.resample_norm.norm.weight f4 [2]
000000 50 00 80 3f 50 00 80 3f
       1.0000095 1.0000095

decoder_variable_selection.single_variable_grns.relative_time_idx.resample_norm.norm.bias f4 [2]
000000 62 05 e4 b8 e6 06 e4 38
       -0.0001087289 0.00010873172

decoder_variable_selection.single_variable_grns.relative_time_idx.gate_norm.glu.fc.weight f4 [4, 1]
000000 4d d2 7c bf d0 93 2b be 01 3f 8b 3d 43 01 68 be
       -0.98758394 -0.16755605 0.067991264 -0.22656731

decoder_variable_selection.single_variable_grns.relative_time_idx.gate_norm.glu.fc.bias f4 [4]
000000 d9 08 63 b8 d7 c1 68 38 e5 93 99 b6 33 3b 4f 35
       -5.4129257e-05 5.5493638e-05 -4.5769725e-06 7.7199655e-07

decoder_variable_selection.single_variable_grns.relative_time_idx.gate_norm.add_norm.norm.weight f4 [2]
000000 1f 3b 82 3f 4b 98 82 3f
       1.0174292 1.0202726

decoder_variable_selection.single_variable_grns.relative_time_idx.gate_norm.add_norm.norm.bias f4 [2]
000000 eb 11 8b bc 8b b8 a1 3c
       -0.016976317 0.019741317

static_context_variable_selection.fc1.weight f4 [2, 2]
000000 08 c9 60 bf c2 2a 1c 3f a8 66 b9 bd 82 54 b9 be
       -0.8780675 0.61002743 -0.09052783 -0.36197287

static_context_variable_selection.fc1.bias f4 [2]
000000 f5 46 e1 30 71 0d 55 32
       1.6391072e-09 1.2401288e-08

static_context_variable_selection.fc2.weight f4 [2, 2]
000000 88 c6 30 bf 25 6d 1d bf 3e 6e 29 be 3d 37 43 3f
       -0.69052935 -0.61494666 -0.1654596 0.7625616

static_context_variable_selection.fc2.bias f4 [2]
000000 74 b4 06 b2 f7 c2 2a 32
       -7.840857e-09 9.939632e-09

static_context_variable_selection.gate_norm.glu.fc.weight f4 [4, 2]
000000 1a d3 11 3f b4 dc c2 be 78 07 62 3f 76 22 25 bf
       0.5696274 -0.38059008 0.88292646 -0.6450571
000010 b4 a5 21 3f 58 18 f3 3e 78 33 11 3f 66 f8 00 bf
       0.6314347 0.4747951 0.5671916 -0.50379026

static_context_variable_selection.gate_norm.glu.fc.bias f4 [4]
000000 24 e8 31 33 a6 52 21 b3 bd 2d 71 30 74 ba a2 b0
       4.1422155e-08 -3.7560902e-08 8.774029e-10 -1.1840045e-09

static_context_variable_selection.gate_norm.add_norm.norm.weight f4 [2]
000000 e2 fc 7e 3f 20 c1 80 3f
       0.9960462 1.0058937

static_context_variable_selection.gate_norm.add_norm.norm.bias f4 [2]
000000 c2 8d 81 bb 62 1e c1 bb
       -0.0039536664 -0.0058935145

static_context_initial_hidden_lstm.fc1.weight f4 [2, 2]
000000 41 ab e2 bf 64 31 43 bf bf b5 fe 3e 59 5f 9c bf
       -1.7708513 -0.7624724 0.49748036 -1.2216598

static_context_initial_hidden_lstm.fc1.bias f4 [2]
000000 83 b8 c8 27 73 41 c9 26
       5.57112e-15 1.3964917e-15

static_context_initial_hidden_lstm.fc2.weight f4 [2, 2]
000000 4b da a8 3f 1e bf 02 3f f3 36 cd 3e a1 3d 29 bf
       1.3191618 0.5107287 0.40080985 -0.66109663

static_context_initial_hidden_lstm.fc2.bias f4 [2]
000000 5b 48 a5 27 eb 53 ce 26
       4.5875148e-15 1.4316867e-15

static_context_initial_hidden_lstm.gate_norm.glu.fc.weight f4 [4, 2]
000000 aa b6 5a 3f 50 30 9f 3d 1a a2 60 bf e4 1a 00 bf
       0.85434973 0.07772887 -0.8774735 -0.5004103
000010 e0 3b e6 3e e8 5a a0 be f0 92 17 3f 34 16 f3 3e
       0.44967556 -0.31319356 0.59208584 0.47477877

static_context_initial_hidden_lstm.gate_norm.glu.fc.bias f4 [4]
000000 e9 c2 3e 27 db f0 28 a7 00 20 e8 a4 48 28 94 a5
       2.6473458e-15 -2.3445252e-15 -1.0066817e-16 -2.5701203e-16

static_context_initial_hidden_lstm.gate_norm.add_norm.norm.weight f4 [2]
000000 00 00 80 3f 00 00 80 3f
       1.0 1.0

static_context_initial_hidden_lstm.gate_norm.add_norm.norm.bias f4 [2]
000000 05 4c 3d ac 89 f6 8a ac
       -2.6900715e-12 -3.949567e-12

static_context_initial_cell_lstm.fc1.weight f4 [2, 2]
000000 e8 b0 7e be 49 d6 66 be ea d9 23 bf 83 d7 26 3f
       -0.24872172 -0.22542681 -0.64004385 0.65172595

static_context_initial_cell_lstm.fc1.bias f4 [2]
000000 61 df 46 26 a5 13 19 a7
       6.8997785e-16 -2.1243665e-15

static_context_initial_cell_lstm.fc2.weight f4 [2, 2]
000000 79 4e a5 3f 98 03 09 3f 23 67 2f be d2 f5 e0 bf
       1.2914573 0.5352111 -0.17129187 -1.7575018

static_context_initial_cell_lstm.fc2.bias f4 [2]
000000 3e 40 5d 26 76 32 fb 26
       7.676184e-16 1.7430301e-15

static_context_initial_cell_lstm.gate_norm.glu.fc.weight f4 [4, 2]
000000 48 3d b2 be 98 29 24 3f a4 e9 3e bf ac f1 9b be
       -0.3481238 0.6412597 -0.7457526 -0.30457819
000010 d8 31 07 3e b4 b6 80 be 64 55 29 bf 72 b2 1d bf
       0.13202608 -0.2513939 -0.6614592 -0.6160041

static_context_initial_cell_lstm.gate_norm.glu.fc.bias f4 [4]
000000 55 ec fd 26 a2 f8 f7 a6 bd 80 9d 25 19 43 db 23
       1.761946e-15 -1.720646e-15 2.7322395e-16 2.3772445e-17

static_context_initial_cell_lstm.gate_norm.add_norm.norm.weight f4 [2]
000000 00 00 80 3f 00 00 80 3f
       1.0 1.0

static_context_initial_cell_lstm.gate_norm.add_norm.norm.bias f4 [2]
000000 af 2e 2e 2a 38 b0 4b ad
       1.5470501e-13 -1.15783425e-11

static_context_enrichment.fc1.weight f4 [2, 2]
000000 ee 59 5a bf c2 75 13 3e 7f 84 31 be 7f a6 69 bf
       -0.8529347 0.1440039 -0.173357 -0.9126968

static_context_enrichment.fc1.bias f4 [2]
000000 39 ad 42 23 7b 9a d1 23
       1.0553442e-17 2.272525e-17

static_context_enrichment.fc2.weight f4 [2, 2]
000000 eb 64 be be fd 2d c4 3b a2 f9 fa 3f 08 a3 f5 3f
       -0.3718637 0.0059869275 1.9607432 1.9190378

static_context_enrichment.fc2.bias f4 [2]
000000 5b 8b 1c 23 41 f5 59 23
       8.486287e-18 1.1815528e-17

static_context_enrichment.gate_norm.glu.fc.weight f4 [4, 2]
000000 ae 6c 11 bf c0 b3 d0 bc 70 c1 4a bf 98 6e ec be
       -0.5680646 -0.025476336 -0.7920141 -0.46178126
000010 66 b9 76 bf 7e 51 66 3f 84 66 ee be 28 82 73 3f
       -0.96376646 0.899681 -0.46562588 0.9512048

static_context_enrichment.gate_norm.glu.fc.bias f4 [4]
000000 db fa 0a 24 a3 e1 0f a4 ab 7e f0 a1 78 82 1a 22
       3.0136463e-17 -3.1199304e-17 -1.6296561e-18 2.0939961e-18

static_context_enrichment.gate_norm.add_norm.norm.weight f4 [2]
000000 00 00 80 3f 00 00 80 3f
       1.0 1.0

static_context_enrichment.gate_norm.add_norm.norm.bias f4 [2]
000000 65 1d fd 2b 61 97 b2 ab
       1.798489e-12 -1.2689677e-12

lstm_encoder.weight_ih_l0 f4 [8, 2]
000000 0c 98 cf 3d c9 31 0e bf 2a 02 b8 3e f8 e4 18 3f
       0.101364225 -0.55544716 0.3593915 0.5972438
000010 6d 62 d5 be d1 e0 86 3e d7 2e 1d 3f b2 2c 0c 3f
       -0.41676655 0.26343396 0.61399597 0.547557
000020 90 e0 4f 3e ce 4a 9d bd 67 61 60 3e 34 ec fb be
       0.20300508 -0.076802835 0.21912156 -0.49203646
000030 64 a5 1b 3f 86 c7 aa 3d 25 42 8d be 19 32 21 be
       0.6079924 0.08338837 -0.27589527 -0.15741767

lstm_encoder.weight_hh_l0 f4 [8, 2]
000000 cf ce c8 bd 72 0e 9b bd 93 dc 27 bd 63 e7 b0 3e
       -0.098050706 -0.075711146 -0.04098184 0.34551534
000010 4e 77 40 3e 0d 6c 33 3f 6d cb 87 be 6f dd cb be
       0.18795511 0.7008675 -0.2652239 -0.39817378
000020 7a 8d cb 3c b6 94 09 3f d7 c3 ae 3d f4 7a ef be
       0.024847735 0.5374254 0.08533447 -0.46773493
000030 7e e8 1a bf 7d a0 97 3d cc ad fe be 16 dc 22 bf
       -0.60511005 0.074036576 -0.49741971 -0.63617074

lstm_encoder.bias_ih_l0 f4 [8]
000000 38 84 00 3f a0 e5 91 be 9c d2 04 bf ef 71 08 bf
       0.5020175 -0.28495502 -0.51883864 -0.5329885
000010 10 8c 2f bf fd 86 14 3f c8 81 2e bf 68 a8 5e bd
       -0.68573093 0.58018476 -0.6816678 -0.054359823

lstm_encoder.bias_hh_l0 f4 [8]
000000 c2 89 2a 3f 7e 5d a5 be 2f df eb bd 22 61 e1 3e
       0.6661645 -0.3229789 -0.11517178 0.4401942
000010 bf e4 b0 3e 9b 27 6c bd a8 29 9f be 62 cf f3 3e
       0.3454952 -0.05765496 -0.3108647 0.47619158

lstm_decoder.weight_ih_l0 f4 [8, 2]
000000 82 e4 28 bf 6f 78 04 bf 80 c7 bd 3d 4e 3d 01 bf
       -0.65973675 -0.5174627 0.09266567 -0.5048417
000010 a4 53 20 be fa a9 d0 bd 66 25 bc 3e 26 a0 39 be
       -0.15656906 -0.101886705 0.36747283 -0.18127498
000020 72 f2 98 be b9 76 2c bf 5e 18 1a bf b7 63 12 bf
       -0.2987247 -0.67368656 -0.6019343 -0.571834
000030 ba 49 8a bd 2f 83 16 3e 54 71 32 3f ce b5 ad bd
       -0.067523435 0.1469848 0.69704175 -0.08481942

lstm_decoder.weight_hh_l0 f4 [8, 2]
000000 bc bb b5 bd f6 3a de be 61 57 e1 3e 87 8d be 3d
       -0.08873698 -0.4340436 0.44011977 0.09304338
000010 1d 30 b3 be 49 f5 ab 3b 7a 9b 83 be b5 92 0c 3e
       -0.34997645 0.005247746 -0.25704557 0.1372784
000020 9c 13 46 3e 81 93 60 3e 4d db 2c 3f 3c 77 0d be
       0.19343418 0.21931268 0.67522126 -0.13815016
000030 4e d8 90 3e 4a 48 c8 3e a3 e6 21 bf 5e f7 f0 be
       0.28290027 0.39117652 -0.6324255 -0.47063726

lstm_decoder.bias_ih_l0 f4 [8]
000000 b0 d4 ab be 91 94 cb be fd f9 af 3e b3 b1 86 bd
       -0.33560705 -0.39761785 0.34370413 -0.06576862
000010 5c 32 fe 3e 3f 23 5f be f6 38 aa 3e ae e2 03 bf
       0.49647796 -0.21790789 0.33246583 -0.5151776

lstm_decoder.bias_hh_l0 f4 [8]
000000 84 b5 86 be 02 46 b5 3d dc 16 e0 be 7f 30 42 bc
       -0.2631036 0.088512436 -0.4376744 -0.011852383
000010 95 50 09 3f 4e ac f1 3e ae fc 4b 3e 79 b4 a1 3e
       0.53638583 0.4720177 0.19920608 0.31583002

post_lstm_gate_encoder.fc.weight f4 [4, 2]
000000 a5 94 43 3f 6e 5b 4a 3e 6b b8 61 3f 89 1f 5e bf
       0.7639869 0.1976144 0.88172024 -0.8676687
000010 6f 92 10 3c 84 a4 43 3f 8c 63 16 bf 42 53 73 3d
       0.008823975 0.76422906 -0.58745646 0.059405573

post_lstm_gate_encoder.fc.bias f4 [4]
000000 d6 b1 fe bc 3c 5a f5 3c da 0b 3b bc 2c 20 b8 b8
       -0.031090658 0.029950254 -0.0114164 -8.779796e-05

post_lstm_gate_decoder.fc.weight f4 [4, 2]
000000 a5 94 43 3f 6e 5b 4a 3e 6b b8 61 3f 89 1f 5e bf
       0.7639869 0.1976144 0.88172024 -0.8676687
000010 6f 92 10 3c 84 a4 43 3f 8c 63 16 bf 42 53 73 3d
       0.008823975 0.76422906 -0.58745646 0.059405573

post_lstm_gate_decoder.fc.bias f4 [4]
000000 d6 b1 fe bc 3c 5a f5 3c da 0b 3b bc 2c 20 b8 b8
       -0.031090658 0.029950254 -0.0114164 -8.779796e-05

post_lstm_add_norm_encoder.norm.weight f4 [2]
000000 d2 9c 50 3f ae 9c 50 3f
       0.8148929 0.81489074

post_lstm_add_norm_encoder.norm.bias f4 [2]
000000 31 62 fa bd 77 78 fa 3d
       -0.1222576 0.12230008

post_lstm_add_norm_decoder.norm.weight f4 [2]
000000 d2 9c 50 3f ae 9c 50 3f
       0.8148929 0.81489074

post_lstm_add_norm_decoder.norm.bias f4 [2]
000000 31 62 fa bd 77 78 fa 3d
       -0.1222576 0.12230008

static_enrichment.fc1.weight f4 [2, 2]
000000 6a 8c 24 bd 82 cc a2 bf 28 3d fe 3e 98 e4 da bd
       -0.04017297 -1.2718661 0.49656034 -0.10688132

static_enrichment.fc1.bias f4 [2]
000000 a6 ac 13 ab 66 d8 76 ac
       -5.246449e-13 -3.5078828e-12

static_enrichment.context.weight f4 [2, 2]
000000 fe 49 95 3e 62 f3 99 3f 2b 6a 0e bf 1d 3a 3a 3e
       0.29158014 1.20274 -0.5563075 0.18186231

static_enrichment.fc2.weight f4 [2, 2]
000000 fd 50 cc bf 50 68 c3 3f cc fb a2 3e 3f 42 69 3f
       -1.5962216 1.5266209 0.3183273 0.9111671

static_enrichment.fc2.bias f4 [2]
000000 5a df 35 2d 72 77 27 ad
       1.0338253e-11 -9.519373e-12

static_enrichment.gate_norm.glu.fc.weight f4 [4, 2]
000000 d4 18 24 bf fc 00 a3 3e 8e e1 28 bf 10 89 eb 3e
       -0.64100385 0.3183669 -0.6596917 0.46003008
000010 74 ab 93 3e 60 cb 9d bd 7a 6f 12 3f f8 1f 63 3e
       0.28841746 -0.07704806 0.5720135 0.22180164

static_enrichment.gate_norm.glu.fc.bias f4 [4]
000000 fe b5 ee 2f 52 04 ec af d2 c9 22 ad 12 fe 58 2d
       4.342126e-10 -4.293122e-10 -9.253447e-12 1.2334593e-11

static_enrichment.gate_norm.add_norm.norm.weight f4 [2]
000000 6d 00 80 3f c8 ff 7f 3f
       1.000013 0.99999666

static_enrichment.gate_norm.add_norm.norm.bias f4 [2]
000000 83 b8 9d 36 9d d3 d4 b7
       4.7004446e-06 -2.537091e-05

multihead_attn.v_layer.weight f4 [2, 2]
000000 3a 04 4a 3f c6 fe 8a 3f 60 a9 fe 3e 46 5d 39 bf
       0.789127 1.0859001 0.49738598 -0.7240795

multihead_attn.v_layer.bias f4 [2]
000000 cc 45 30 b7 a2 ae c1 36
       -1.0506668e-05 5.772178e-06

multihead_attn.q_layers.0.weight f4 [2, 2]
000000 ef c9 68 bf 4d 78 42 3f aa f2 12 3f a8 4e 65 bf
       -0.90933126 0.75964814 0.57401526 -0.89573145

multihead_attn.q_layers.0.bias f4 [2]
000000 ca 2d 2b 33 bf 38 8a b5
       3.9855685e-08 -1.0298317e-06

multihead_attn.k_layers.0.weight f4 [2, 2]
000000 af a9 ae ba fd 7e 99 bc f8 e0 ae be b9 ec dd 3d
       -0.0013325716 -0.01873731 -0.34156013 0.10836167

multihead_attn.k_layers.0.bias f4 [2]
000000 5e f8 8f 28 76 6b 6a a9
       1.5983901e-14 -5.2051645e-14

multihead_attn.w_h.weight f4 [2, 2]
000000 3a 3f ed be 06 61 65 3f 74 d9 5d bf 60 31 38 be
       -0.463373 0.8960117 -0.8665993 -0.17987585

post_attn_gate_norm.glu.fc.weight f4 [4, 2]
000000 2f eb 1a bf 00 1c 1d 3f 04 0d 1c bf 14 70 18 bf
       -0.6051511 0.6137085 -0.6095736 -0.5954602
000010 d6 d0 56 3f 80 a6 30 be 97 6c 7f bf fe 15 5a bf
       0.8391241 -0.17251015 -0.9977507 -0.8518981

post_attn_gate_norm.glu.fc.bias f4 [4]
000000 54 b4 3d 36 a6 cd 0b b7 59 92 c3 35 e0 5a b2 b5
       2.826816e-06 -8.332927e-06 1.4571225e-06 -1.3288482e-06

post_attn_gate_norm.add_norm.norm.weight f4 [2]
000000 d2 bb 84 3f 81 e4 84 3f
       1.0369818 1.0382234

post_attn_gate_norm.add_norm.norm.bias f4 [2]
000000 87 53 15 3d a9 a4 1f bd
       0.03645661 -0.03897539

pos_wise_ff.fc1.weight f4 [2, 2]
000000 60 a3 97 bf ae 99 76 be 34 13 d5 3e bd 54 0c bf
       -1.1846733 -0.24082062 0.41616213 -0.548168

pos_wise_ff.fc1.bias f4 [2]
000000 e9 9d 05 3d 47 85 10 bd
       0.032621298 -0.035283353

pos_wise_ff.fc2.weight f4 [2, 2]
000000 95 08 3e bd 37 70 db 3f 16 a6 01 c0 52 43 42 bf
       -0.046394903 1.714362 -2.025762 -0.7588397

pos_wise_ff.fc2.bias f4 [2]
000000 98 12 0e bd e7 b6 0a bd
       -0.0346857 -0.033865836

pos_wise_ff.gate_norm.glu.fc.weight f4 [4, 2]
000000 f3 8e 3e be ad 86 a5 be 59 29 bb 3e b3 8a f8 3e
       -0.18609218 -0.32329312 0.36554983 0.4854332
000010 d6 45 45 3f 90 5d 12 be 3b 6a 7b be 2f 99 1c bf
       0.77059686 -0.14293504 -0.24552242 -0.6117124

pos_wise_ff.gate_norm.glu.fc.bias f4 [4]
000000 05 94 1e 3d 32 97 0c bd 9d df c8 bc 93 8e 02 bd
       0.03871538 -0.03432388 -0.02452069 -0.03187425

pos_wise_ff.gate_norm.add_norm.norm.weight f4 [2]
000000 4e e8 93 3f 0e 71 91 3f
       1.1555269 1.1362627

pos_wise_ff.gate_norm.add_norm.norm.bias f4 [2]
000000 09 50 27 3e 9f 96 39 be
       0.16339125 -0.18123864

pre_output_gate_norm.glu.fc.weight f4 [4, 2]
000000 8d 85 2f 3d 50 72 20 bf 7e 34 0e 3f ef 3a 8a bf
       0.042851973 -0.6267443 0.55548847 -1.0799235
000010 6b 33 14 3e d2 b3 66 3f f6 47 d8 3e 2d e9 78 bf
       0.1447274 0.90118134 0.42242402 -0.972308

pre_output_gate_norm.glu.fc.bias f4 [4]
000000 ac aa 92 bd f4 f5 22 3e 48 e1 33 be 09 2f 35 3e
       -0.07161459 0.15914136 -0.17566407 0.17693724

pre_output_gate_norm.add_norm.norm.weight f4 [2]
000000 60 9e 34 3f 77 93 31 3f
       0.7055416 0.6936564

pre_output_gate_norm.add_norm.norm.bias f4 [2]
000000 d6 96 90 3e a9 4f 98 be
       0.2824008 -0.29748276

output_layer.weight f4 [1, 2]
000000 81 84 29 3e cf a3 b8 bd
       0.16554452 -0.09015619

exp_avg f4 [2, 6]
000000 c9 eb b0 1f 29 c6 cf 9f 9a ff 2b 1f 08 4a 59 a1
       7.492897e-20 -8.799574e-20 3.6422087e-20 -7.362044e-19
000010 10 99 3f 21 26 2b 90 1f 4c b1 a1 9f d3 e3 bd 1f
       6.4915894e-19 6.1057755e-20 -6.8479465e-20 8.042152e-20
000020 94 31 1d 9f 1a 91 48 21 9d 76 2f a1 a1 4d 82 9f
       -3.3287053e-20 6.7954676e-19 -5.944929e-19 -5.518557e-20

exp_avg_sq f4 [2, 6]
000000 6d c3 d3 08 d5 07 12 09 8f 24 c8 07 d7 2a 24 0c
       1.2745045e-33 1.7577793e-33 3.0114143e-34 1.2646992e-31
000010 6c 5a e1 0b d8 9c 8a 08 75 2b 83 08 55 e8 b4 08
       8.68029e-32 8.342447e-34 7.894492e-34 1.0887977e-33
000020 9d f1 77 07 8d 67 cb 0b 6e ee 8b 0b 4e d9 2b 08
       1.8653218e-34 7.834856e-32 5.38996e-32 5.171388e-34

exp_avg f4 [2]
000000 47 f6 e5 20 03 2b d2 a0
       3.8957082e-19 -3.5603847e-19

exp_avg_sq f4 [2]
000000 74 e2 32 0b bd 9b dd 0a
       3.4451917e-32 2.1340108e-32

exp_avg f4 [2, 2]
000000 f5 13 ea a0 20 8b c7 a0 ce 77 e2 a0 10 9e c2 a0
       -3.9654348e-19 -3.3803977e-19 -3.836517e-19 -3.2969475e-19

exp_avg_sq f4 [2, 2]
000000 14 23 36 0b 91 4a 1e 0b 36 1d e7 0a 78 ff c7 0a
       3.5078315e-32 3.048579e-32 2.2255479e-32 1.92591e-32

exp_avg f4 [2]
000000 92 f9 e9 a0 6f 2c e0 a0
       -3.9636887e-19 -3.797648e-19

exp_avg_sq f4 [2]
000000 08 d3 3c 0b 87 25 ef 0a
       3.6366245e-32 2.3028979e-32

exp_avg f4 [12, 2]
000000 e9 96 58 a1 4a ad 22 21 c4 f4 7a a0 5f 08 3c 20
       -7.3383375e-19 5.511708e-19 -2.125681e-19 1.5926989e-19
000010 d8 49 18 a1 5f 5e e1 20 88 38 0e 21 7b d4 d3 a0
       -5.1597335e-19 3.8178932e-19 4.818629e-19 -3.5885398e-19
000020 03 1b 7c 21 d7 91 3d a1 1b 3c 9b 1f d8 81 68 9f
       8.541667e-19 -6.422871e-19 6.574449e-20 -4.9235315e-20
000030 1c be fd 1e 6d af be 9e 8c cf e4 1e db ee ad 9e
       2.6866044e-20 -2.0189587e-20 2.4226278e-20 -1.8415876e-20
000040 01 e5 39 1e 4f 35 40 9e 5a 40 79 1d e9 35 8d 9d
       9.841175e-21 -1.0175419e-20 3.2988145e-21 -3.737813e-21
000050 3e a6 ea 9f 9a 36 b2 1f f1 f8 1f 1e 90 51 eb 9d
       -9.937788e-20 7.547626e-20 8.46887e-21 -6.2288316e-21

exp_avg_sq f4 [12, 2]
000000 eb 5f 9b 0b 89 c3 66 0b 61 f9 db 09 f0 23 a4 09
       5.984815e-32 4.4443493e-32 5.2956847e-33 3.951536e-33
000010 0a 44 0b 0b 56 86 cd 0a 6d 87 14 0b ce 7e db 0a
       2.6821613e-32 1.9791313e-32 2.8605646e-32 2.1136632e-32
000020 62 3d 08 0c 7c be ca 0b 4c 52 b1 08 64 be 7b 08
       1.0495531e-31 7.809418e-32 1.0672148e-33 7.575637e-34
000030 b2 7c bf 06 f2 6e 8c 06 8d 59 c3 06 68 13 92 06
       7.202944e-35 5.2825166e-35 7.348243e-35 5.494761e-35
000040 83 c1 b6 06 fa 41 93 06 05 9a ba 05 87 0d 99 05
       6.874513e-35 5.53922e-35 1.7547934e-35 1.439302e-35
000050 4a ce ee 08 47 45 b1 08 00 d9 89 05 20 48 3e 05
       1.4372602e-33 1.0669087e-33 1.2963131e-35 8.947004e-36

exp_avg f4 [12]
000000 06 41 79 21 1b f6 8c 20 02 f8 30 21 07 13 29 a1
       8.445054e-19 2.3879781e-19 5.9959355e-19 -5.728461e-19
000010 9c 6b 8f a1 6e f5 a8 9f 21 c3 09 9f 32 5b f7 9e
       -9.718541e-19 -7.15568e-20 -2.9172285e-20 -2.618986e-20
000020 55 ed 3e 9e 1a 12 67 9d f1 7e fe 1f 6c 01 2b 9e
       -1.0107595e-20 -3.0581954e-21 1.0778319e-19 -9.052959e-21

exp_avg_sq f4 [12]
000000 5e 69 c4 0b 5a 57 0b 0a 0f 8b 2f 0b 9c 55 3b 0b
       7.565499e-32 6.7090356e-33 3.380839e-32 3.6079295e-32
000010 61 63 2c 0c 62 e7 db 08 1b af f0 06 82 b7 f7 06
       1.3280304e-31 1.3234981e-33 9.053526e-35 9.3180714e-35
000020 62 04 f0 06 7b 19 f7 05 19 eb 16 09 d0 e2 a8 05
       9.0284406e-35 2.3237128e-35 1.8166136e-33 1.5881962e-35

exp_avg f4 [6]
000000 ad cd 81 20 fb 55 a0 a0 7e c6 0f 20 17 0e 9e a1
       2.1989555e-19 -2.7161951e-19 1.2178247e-19 -1.0710226e-18
000010 5c 90 c6 a2 72 27 56 a0
       -5.3820854e-18 -1.8139556e-19

exp_avg_sq f4 [6]
000000 72 a8 19 0a 2e ce 08 0a 9e d2 08 09 ec 36 cb 0b
       7.398363e-33 6.58694e-33 1.6469436e-33 7.8275393e-32
000010 19 2b 77 0e 43 af 4b 08
       3.0465851e-30 6.129411e-34

exp_avg f4 [6]
000000 05 0d c5 21 23 1f 6f 21 12 45 b8 21 84 36 2d 21
       1.3352685e-18 8.101756e-19 1.2486608e-18 5.868683e-19
000010 1d 64 80 a2 f2 d8 13 a1
       -3.480047e-18 -5.009266e-19

exp_avg_sq f4 [6]
000000 e7 a6 70 0c 4f df ab 0b 5e bd 46 0c 47 05 eb 0a
       1.8539153e-31 6.62028e-32 1.5310351e-31 2.2631662e-32
000010 b6 d0 db 0d 3f b5 b5 09
       1.3547162e-30 4.3744608e-33

exp_avg f4 [2]
000000 fa 0e 3a a4 fb 0e 3a 24
       -4.0345006e-17 4.034501e-17

exp_avg_sq f4 [2]
000000 07 5c 28 11 07 5c 28 11
       1.3281221e-28 1.3281221e-28

exp_avg f4 [2]
000000 29 cb 6c 99 88 28 bb 99
       -1.2241942e-23 -1.9351717e-23

exp_avg_sq f4 [2]
000000 34 00 00 00 3c 00 00 00
       7.3e-44 8.4e-44

exp_avg f4 [2]
000000 e7 9d b6 a1 ef f0 d0 21
       -1.2374596e-18 1.4158403e-18

exp_avg_sq f4 [2]
000000 55 10 29 0c 8b 9b 4c 0c
       1.3024201e-31 1.5762395e-31

exp_avg f4 [2]
000000 0e 84 04 24 0e 84 04 a4
       2.8734792e-17 -2.8734792e-17

exp_avg_sq f4 [2]
000000 18 bd a5 10 18 bd a5 10
       6.537237e-29 6.537237e-29

exp_avg f4 [2]
000000 de 25 28 99 93 5e f1 98
       -8.693044e-24 -6.2392535e-24

exp_avg_sq f4 [2]
000000 74 01 00 00 c4 01 00 00
       5.21e-43 6.33e-43

exp_avg f4 [2]
000000 29 8b 5d a1 bb 63 7d 21
       -7.506189e-19 8.5851726e-19

exp_avg_sq f4 [2]
000000 de 37 71 0b 73 1d 92 0b
       4.645694e-32 5.6281465e-32

exp_avg f4 [2]
000000 46 fe a8 a3 46 fe a8 23
       -1.8322285e-17 1.8322285e-17

exp_avg_sq f4 [2]
000000 7f 4c 03 10 7f 4c 03 10
       2.5894125e-29 2.5894125e-29

exp_avg f4 [2]
000000 c0 57 9c 17 53 39 a5 98
       1.0103415e-24 -4.2709383e-24

exp_avg_sq f4 [2]
000000 3f 00 00 00 4c 00 00 00
       8.8e-44 1.06e-43

exp_avg f4 [2]
000000 dc ab aa a1 d2 26 c3 21
       -1.1565139e-18 1.322399e-18

exp_avg_sq f4 [2]
000000 ce 63 0b 0c d4 f4 28 0c
       1.0738204e-31 1.3015925e-31

exp_avg f4 [2]
000000 75 e2 01 a7 75 e2 01 27
       -1.8025109e-15 1.8025109e-15

exp_avg_sq f4 [2]
000000 c3 1e da 12 c3 1e da 12
       1.3765318e-27 1.3765318e-27

exp_avg f4 [2]
000000 09 65 38 1d 4a ae 3c 1d
       2.4404431e-21 2.4971698e-21

exp_avg_sq f4 [2]
000000 bf 4b 03 00 f8 b3 02 00
       3.02679e-40 2.48232e-40

exp_avg f4 [2]
000000 54 10 dc 22 47 10 dc a2
       5.9648408e-18 -5.9648354e-18

exp_avg_sq f4 [2]
000000 0f 2d 9d 0a 28 2d 9d 0a
       1.5135499e-32 1.5135536e-32

exp_avg f4 [4, 1]
000000 88 74 dd 9f 52 9b bd 1f d0 d2 ea 1e 91 0b d0 9e
       -9.3789925e-20 8.030157e-20 2.4862904e-20 -2.202764e-20

exp_avg_sq f4 [4, 1]
000000 60 b4 dc 07 9b 78 9d 07 59 68 11 06 f2 c2 e1 05
       3.3207936e-34 2.369362e-34 2.7348131e-35 2.123051e-35

exp_avg f4 [4]
000000 7e ad 5d 22 c9 ec 5e a2 46 04 13 1f 08 7c 02 9f
       3.004293e-18 -3.0211963e-18 3.1131996e-20 -2.7631167e-20

exp_avg_sq f4 [4]
000000 70 cc 94 09 80 67 8f 09 f3 6e 46 06 96 0b 1a 06
       3.5821956e-33 3.452333e-33 3.7321174e-35 2.8972693e-35

exp_avg f4 [2]
000000 b5 9a 5e 20 f3 76 7d 20
       1.885532e-19 2.146929e-19

exp_avg_sq f4 [2]
000000 6a 91 2b 09 10 44 50 09
       2.065175e-33 2.5069092e-33

exp_avg f4 [2]
000000 41 0b 48 a0 82 42 64 20
       -1.6944383e-19 1.9334357e-19

exp_avg_sq f4 [2]
000000 cc 81 2f 09 40 0c 55 09
       2.1125889e-33 2.5644702e-33

exp_avg f4 [2]
000000 07 36 aa a9 03 36 aa 29
       -7.558889e-14 7.558886e-14

exp_avg_sq f4 [2]
000000 d9 66 95 16 d9 66 95 16
       2.4137154e-25 2.4137154e-25

exp_avg f4 [2]
000000 e1 e5 ba a1 17 8b ba a1
       -1.2664699e-18 -1.2640667e-18

exp_avg_sq f4 [2]
000000 65 44 86 05 c2 95 86 05
       1.2626424e-35 1.2656312e-35

exp_avg f4 [2]
000000 f4 39 a4 a5 f3 39 a4 25
       -2.8488736e-16 2.8488733e-16

exp_avg_sq f4 [2]
000000 35 e5 1c 0f 31 e5 1c 0f
       7.7355375e-30 7.7355345e-30

exp_avg f4 [4, 1]
000000 21 5e 9e 9e 3a 10 99 1e d7 78 01 9c 55 3a 36 9b
       -1.6767832e-20 1.6206216e-20 -4.28387e-22 -1.5073535e-22

exp_avg_sq f4 [4, 1]
000000 29 b9 5c 09 9e 0d 4e 09 c8 46 16 04 8c d8 94 02
       2.6568599e-33 2.480275e-33 1.7664916e-36 2.1870937e-37

exp_avg f4 [4]
000000 d6 3b 24 a5 e8 38 24 25 54 c8 0f 9e 1a 8f 4a 9d
       -1.4245006e-16 1.4244013e-16 -7.611784e-21 -2.680846e-21

exp_avg_sq f4 [4]
000000 77 be 1f 0e 73 51 1b 0e 92 ac 35 08 d1 f1 b3 06
       1.9689969e-30 1.9144441e-30 5.467056e-34 6.7687634e-35

exp_avg f4 [2]
000000 d5 b1 97 a2 44 97 ad a2
       -4.111692e-18 -4.7051903e-18

exp_avg_sq f4 [2]
000000 96 58 0a 0e f0 07 28 0e
       1.7052466e-30 2.071142e-30

exp_avg f4 [2]
000000 d5 9e b5 a2 a0 2a cf 22
       -4.922832e-18 5.6152593e-18

exp_avg_sq f4 [2]
000000 e2 f2 0d 0e 16 66 2c 0e
       1.7496536e-30 2.124979e-30

exp_avg f4 [2]
000000 01 f4 b6 a7 01 f4 b6 27
       -5.0779697e-15 5.0779697e-15

exp_avg_sq f4 [2]
000000 90 f5 41 18 90 f5 41 18
       2.5068643e-24 2.5068643e-24

exp_avg f4 [2]
000000 6a 6d 80 a0 13 81 80 a0
       -2.1756448e-19 -2.1769458e-19

exp_avg_sq f4 [2]
000000 6b bf dd 04 39 5c e9 04
       5.213264e-36 5.486273e-36

exp_avg f4 [2]
000000 59 2e 6f a5 59 2e 6f 25
       -2.0745649e-16 2.0745649e-16

exp_avg_sq f4 [2]
000000 27 33 a4 13 24 33 a4 13
       4.144986e-27 4.144985e-27

exp_avg f4 [4, 1]
000000 ab f7 93 21 41 b0 94 a1 22 81 a7 1d db eb 5a 1c
       1.0026665e-18 -1.0075524e-18 4.4338052e-21 7.2434985e-22

exp_avg_sq f4 [4, 1]
000000 d5 3c d5 0c 4d 5d d7 0c 87 59 0e 05 ba e9 72 02
       3.2854458e-31 3.3182148e-31 6.6932515e-36 1.7846428e-37

exp_avg f4 [4]
000000 a2 d4 ee a4 1d 79 ef 24 e4 40 95 a0 f6 25 43 9f
       -1.0357626e-16 1.038549e-16 -2.5284523e-19 -4.1324257e-20

exp_avg_sq f4 [4]
000000 c8 50 a3 12 3f f0 a4 12 7f e8 d8 0a 4b 12 39 08
       1.030666e-27 1.040908e-27 2.0887499e-32 5.5692916e-34

exp_avg f4 [2]
000000 44 21 92 a1 35 b8 a5 a1
       -9.90215e-19 -1.1229594e-18

exp_avg_sq f4 [2]
000000 34 9d c4 0b b6 17 ee 0b
       7.5732987e-32 9.170994e-32

exp_avg f4 [2]
000000 11 d7 dc a1 f8 c9 fc 21
       -1.4964707e-18 1.7129645e-18

exp_avg_sq f4 [2]
000000 a3 eb 6e 0c 1b c7 90 0c
       1.8405762e-31 2.2306545e-31

exp_avg f4 [2, 3]
000000 7c 29 14 a9 b2 76 33 aa e7 09 12 a9 87 32 35 a9
       -3.2898583e-14 -1.5939574e-13 -3.24271e-14 -4.02339e-14
000010 84 11 52 aa e4 7c f9 a8
       -1.8657824e-13 -2.7698716e-14

exp_avg_sq f4 [2, 3]
000000 3a bf d6 1b a5 b5 c2 1d cc 4e e6 1c d0 b7 e6 1b
       3.5526907e-22 5.153919e-21 1.5240492e-21 3.8169094e-22
000010 14 44 d7 1d fe 69 31 1d
       5.6980417e-21 2.3480552e-21

exp_avg f4 [2]
000000 7d e5 a2 2a 66 b6 be 2a
       2.893622e-13 3.3877344e-13

exp_avg_sq f4 [2]
000000 46 20 98 1e b3 43 a8 1e
       1.6106974e-20 1.7815692e-20

exp_avg f4 [2, 2]
000000 16 9b a1 2a d7 cf a4 aa 98 33 bd 2a 82 f4 c0 aa
       2.8706958e-13 -2.927647e-13 3.3608945e-13 -3.4275713e-13

exp_avg_sq f4 [2, 2]
000000 4d 18 98 1e 3d 2a 98 1e ce 3a a8 1e bc 4e a8 1e
       1.6103677e-20 1.6111095e-20 1.7812013e-20 1.7820256e-20

exp_avg f4 [2, 2]
000000 41 76 58 a9 e7 e3 f8 27 f0 4e c4 29 e1 a8 87 a8
       -4.8064204e-14 6.908092e-15 8.717842e-14 -1.506125e-14

exp_avg_sq f4 [2, 2]
000000 e3 78 dd 1a e8 f3 80 1a 93 c0 9e 1b 7b 84 2a 1b
       9.159876e-23 5.333361e-23 2.6263356e-22 1.4104877e-22

exp_avg f4 [2]
000000 bb 58 2a 2a f4 55 a5 aa
       1.5129818e-13 -2.936953e-13

exp_avg_sq f4 [2]
000000 80 cd c4 1d 99 b5 7c 1e
       5.209325e-21 1.33783224e-20

exp_avg f4 [6, 2]
000000 f1 91 70 a9 4f 03 c9 a9 35 a1 94 a9 5d 0c d8 a9
       -5.341729e-14 -8.926767e-14 -6.600485e-14 -9.5944716e-14
000010 27 bb 11 2a f1 50 65 2a fe 4c 4f 27 81 9d 07 28
       1.2943519e-13 2.0367368e-13 2.8768758e-15 7.528159e-15
000020 e8 d8 23 a7 9d 4d 00 24 5f ef c5 a8 95 6b 1c a9
       -2.273838e-15 2.7821317e-17 -2.1975204e-14 -3.473227e-14

exp_avg_sq f4 [6, 2]
000000 57 9d 3f 1c b1 c2 9d 1c 9b fc dd 19 64 d1 1e 19
       6.3399956e-22 1.0439715e-21 2.2952891e-23 8.210695e-24
000010 d9 aa cd 1c d8 37 0d 1d c8 cf 82 1a 31 c9 28 1b
       1.3609925e-21 1.8690065e-21 5.410243e-23 1.3961643e-22
000020 37 67 49 17 c2 53 3d 18 27 86 b6 18 ef 0a 65 18
       6.507688e-25 2.4469964e-24 4.7181357e-24 2.9603076e-24

exp_avg f4 [6]
000000 32 8f 78 aa d4 47 06 aa a8 db e4 2a b3 c3 4c 29
       -2.2076506e-13 -1.1926511e-13 4.0653353e-13 4.546684e-14
000010 70 44 3b a6 8a f2 a0 a9
       -6.497141e-16 -7.147501e-14

exp_avg_sq f4 [6]
000000 80 24 81 1e 74 62 67 1d 73 5c 31 1f f8 ea da 1b
       1.3673502e-20 3.0623495e-21 3.755768e-20 3.621692e-22
000010 c4 9c c9 17 7a 85 a6 1b
       1.3028894e-24 2.7548654e-22

exp_avg f4 [3]
000000 35 a6 eb a9 60 a3 0d 29 95 ef e3 29
       -1.0464929e-13 3.1449995e-14 1.0122386e-13

exp_avg_sq f4 [3]
000000 7b 05 77 1e d9 65 d1 1c 17 66 58 1c
       1.30772045e-20 1.3856787e-21 7.1600353e-22

exp_avg f4 [3]
000000 75 5f d8 a9 f9 6d 30 a9 39 4b 18 2a
       -9.608886e-14 -3.9175237e-14 1.352641e-13

exp_avg_sq f4 [3]
000000 a9 3a 2a 1e 79 b2 2a 1d 40 5e 2a 1d
       9.011856e-21 2.259158e-21 2.2548039e-21

exp_avg f4 [2]
000000 3c d2 b7 a5 3b d2 b7 25
       -3.18879e-16 3.1887897e-16

exp_avg_sq f4 [2]
000000 31 7b 47 25 31 7b 47 25
       1.7302237e-16 1.7302237e-16

exp_avg f4 [2]
000000 fa 0a 35 a3 35 4b 35 a3
       -9.814354e-18 -9.827955e-18

exp_avg_sq f4 [2]
000000 78 5f 8a 18 4f 53 8a 18
       3.5768563e-24 3.5756284e-24

exp_avg f4 [2]
000000 61 d4 62 25 14 e2 62 a5
       1.9674332e-16 -1.9678974e-16

exp_avg_sq f4 [2]
000000 bc be 16 22 bc be 16 22
       2.0429765e-18 2.0429765e-18

exp_avg f4 [4, 1]
000000 17 1d 00 23 07 99 06 a3 bb d8 97 a0 30 24 32 a0
       6.945054e-18 -7.296559e-18 -2.5723815e-19 -1.508916e-19

exp_avg_sq f4 [4, 1]
000000 9d f5 8f 1b ba 30 95 1b c0 6c 0f 15 9f 40 0f 14
       2.381609e-22 2.468147e-22 2.896441e-26 7.232399e-27

exp_avg f4 [4]
000000 ef 64 da 24 ad 25 e5 a4 bd 5e 7d a2 04 06 15 a2
       9.471342e-17 -9.9376744e-17 -3.4338048e-18 -2.019645e-18

exp_avg_sq f4 [4]
000000 15 69 13 21 d2 a3 17 21 cd 67 37 1a cb 7c 36 19
       4.994461e-19 5.1377604e-19 3.7927363e-23 9.434381e-24

exp_avg f4 [2]
000000 92 e7 31 a9 69 27 7c a9
       -3.950275e-14 -5.5989423e-14

exp_avg_sq f4 [2]
000000 3b 47 0e 1e af 69 3d 1e
       7.5321475e-21 1.00274315e-20

exp_avg f4 [2]
000000 6d a4 33 29 da 0c 7a a9
       3.98886e-14 -5.5522298e-14

exp_avg_sq f4 [2]
000000 ae 18 20 1e 58 e7 54 1e
       8.475433e-21 1.1271027e-20

exp_avg f4 [2]
000000 68 38 f4 26 63 38 f4 a6
       1.694619e-15 -1.6946185e-15

exp_avg_sq f4 [2]
000000 78 cc 62 1c 7c cc 62 1c
       7.5041397e-22 7.5041417e-22

exp_avg f4 [2]
000000 f2 23 68 a2 b1 4d 68 a2
       -3.1460892e-18 -3.1482992e-18

exp_avg_sq f4 [2]
000000 12 7a 1d 10 77 7a 1d 10
       3.105683e-29 3.1057134e-29

exp_avg f4 [2]
000000 45 f5 b4 a3 fa 10 b5 23
       -1.9619515e-17 1.963125e-17

exp_avg_sq f4 [2]
000000 64 37 e3 15 42 37 e3 15
       9.177196e-26 9.177175e-26

exp_avg f4 [4, 1]
000000 95 00 fb 1e 92 7f fb 9e 60 5c 00 19 75 f8 fb 99
       2.65759e-20 -2.662842e-20 6.6361e-24 -2.6053143e-23

exp_avg_sq f4 [4, 1]
000000 8d e4 b1 09 17 86 b2 09 72 6e 03 00 10 21 37 00
       4.2826128e-33 4.297804e-33 3.15127e-40 5.062813e-39

exp_avg f4 [4]
000000 cb cf 34 a3 a2 4c 35 23 b2 5a 6d 9d 88 65 6a 1e
       -9.8018214e-18 9.828257e-18 -3.1413577e-21 1.2408853e-20

exp_avg_sq f4 [4]
000000 c3 29 e3 14 05 4d e3 14 4a bc 9b 06 d8 e0 9b 08
       2.2937615e-26 2.2951521e-26 5.8581186e-35 9.381584e-34

exp_avg f4 [2]
000000 92 96 0e a7 f7 dd 7e a8
       -1.9788083e-15 -1.4147963e-14

exp_avg_sq f4 [2]
000000 ce c3 65 1b e3 42 aa 1b
       1.9005704e-22 2.8167365e-22

exp_avg f4 [2]
000000 b2 9b 0e a7 2c eb 7e 28
       -1.9790861e-15 1.4150827e-14

exp_avg_sq f4 [2]
000000 42 d9 65 1b ec 52 aa 1b
       1.9012636e-22 2.8177728e-22

exp_avg f4 [2]
000000 e5 62 73 2b e5 62 73 ab
       8.6468186e-13 -8.6468186e-13

exp_avg_sq f4 [2]
000000 b0 07 bb 1c b0 07 bb 1c
       1.2376609e-21 1.2376609e-21

exp_avg f4 [2]
000000 dc 82 cb a6 bf 73 cb a6
       -1.4121424e-15 -1.4117328e-15

exp_avg_sq f4 [2]
000000 fe 46 f5 12 e1 4c f5 12
       1.5479175e-27 1.5480626e-27

exp_avg f4 [2]
000000 e7 c4 b7 ab e3 c4 b7 2b
       -1.3057583e-12 1.3057579e-12

exp_avg_sq f4 [2]
000000 a9 c8 df 1b ab c8 df 1b
       3.702193e-22 3.7021934e-22

exp_avg f4 [4, 1]
000000 92 ad 2c a6 13 9a 2c 26 2f 6c 0f 22 55 ba 3b 21
       -5.990972e-16 5.9883297e-16 1.9437386e-18 6.3604673e-19

exp_avg_sq f4 [4, 1]
000000 f8 88 39 12 44 92 39 12 e2 73 99 0c 49 d7 07 0b
       5.8544534e-28 5.8555993e-28 2.3643127e-31 2.6162017e-32

exp_avg f4 [4]
000000 bc be 37 ab 8c bc 37 2b 7d 12 73 25 6b 5d 8d 24
       -6.527936e-13 6.527632e-13 2.1083154e-16 6.130726e-17

exp_avg_sq f4 [4]
000000 a5 ca df 1a 56 cb df 1a a5 30 cd 10 fc 49 35 0f
       9.255803e-23 9.2559145e-23 8.093319e-29 8.938238e-30

exp_avg f4 [2]
000000 e9 ac 09 2a 8a 95 97 2a
       1.2228035e-13 2.6926752e-13

exp_avg_sq f4 [2]
000000 12 b5 e3 1a 31 69 ff 1b
       9.4177534e-23 4.225419e-22

exp_avg f4 [2]
000000 0d aa be a8 a5 1c 71 2a
       -2.1167985e-14 2.1415038e-13

exp_avg_sq f4 [2]
000000 31 67 72 1d 54 9d a3 1d
       3.2081782e-21 4.3308414e-21

exp_avg f4 [2, 2]
000000 09 31 66 23 91 c6 96 a2 4c 5c 0e a3 a5 c9 38 a4
       1.24787086e-17 -4.086782e-18 -7.71738e-18 -4.006944e-17

exp_avg_sq f4 [2, 2]
000000 c9 ea a3 13 19 a3 30 15 2d 6f 60 12 56 d9 00 14
       4.13785e-27 3.5671578e-26 7.081897e-28 6.5052105e-27

exp_avg f4 [2]
000000 83 38 0d 24 df 9d 04 25
       3.062237e-17 1.1502664e-16

exp_avg_sq f4 [2]
000000 7f 9a 3b 16 76 50 04 15
       1.515449e-25 2.672066e-26

exp_avg f4 [2, 2]
000000 e2 16 0c 24 fb de 0e a4 a7 90 03 25 d5 2c 06 a5
       3.0377043e-17 -3.0980214e-17 1.1411449e-16 -1.1637837e-16

exp_avg_sq f4 [2, 2]
000000 ae 90 3b 16 80 a6 3b 16 4e 49 04 15 5b 59 04 15
       1.5151393e-25 1.5158278e-25 2.6715015e-26 2.6727677e-26

exp_avg f4 [2, 2]
000000 41 23 37 a2 e4 dd 6a a3 e7 b7 c2 23 40 71 7a 24
       -2.4819788e-18 -1.27321526e-17 2.1111408e-17 5.4306035e-17

exp_avg_sq f4 [2, 2]
000000 66 ce 6f 13 6d b1 14 14 10 48 0f 13 b9 8d a7 13
       3.0267803e-27 7.5070816e-27 1.8084667e-27 4.2296476e-27

exp_avg f4 [2]
000000 1c 39 83 a3 c1 0b a5 24
       -1.4227235e-17 7.1577255e-17

exp_avg_sq f4 [2]
000000 04 58 bb 14 c7 ac 58 14
       1.891689e-26 1.09392875e-26

exp_avg f4 [4, 2]
000000 f7 c7 a1 25 57 63 54 25 92 29 df a5 db e6 a4 a5
       2.806455e-16 1.8421726e-16 -3.8712503e-16 -2.86059e-16
000010 fc a3 cb a4 3d 9e 13 25 9d 57 3d a4 eb 39 be 24
       -8.831502e-17 1.2803831e-16 -4.1057053e-17 8.249748e-17

exp_avg_sq f4 [4, 2]
000000 f6 58 b1 16 bc ab db 14 75 15 66 17 22 ce 98 15
       2.8652035e-25 2.2181086e-26 7.434409e-25 6.171753e-26
000010 13 9d cb 13 35 0e 0b 14 58 6b ef 13 15 dc 7e 13
       5.139929e-27 7.0205085e-27 6.043793e-27 3.2167816e-27

exp_avg f4 [4]
000000 04 7d 66 a5 a1 8d 9f 25 0b 51 fc 24 2c 1b 70 24
       -1.9991677e-16 2.7678075e-16 1.0942487e-16 5.206472e-17

exp_avg_sq f4 [4]
000000 0c 7e a6 16 6f 07 38 17 45 b8 d7 13 49 e6 ba 13
       2.6898293e-25 5.946299e-25 5.4455334e-27 4.718008e-27

exp_avg f4 [2]
000000 7b e4 67 2c 79 e4 67 2c
       3.2953907e-12 3.2953902e-12

exp_avg_sq f4 [2]
000000 b4 3d a8 23 b4 3d a8 23
       1.8240729e-17 1.8240729e-17

exp_avg f4 [2]
000000 38 e5 67 2c 38 e5 67 ac
       3.2954316e-12 -3.2954316e-12

exp_avg_sq f4 [2]
000000 48 41 a8 23 48 41 a8 23
       1.8242244e-17 1.8242244e-17

exp_avg f4 [2]
000000 f3 fd b5 28 e1 fd b5 a8
       2.020517e-14 -2.020514e-14

exp_avg_sq f4 [2]
000000 ef 4d a1 29 ef 4d a1 29
       7.1633556e-14 7.1633556e-14

exp_avg f4 [2]
000000 6b 99 a1 a6 53 b6 a1 a6
       -1.1213203e-15 -1.1221038e-15

exp_avg_sq f4 [2]
000000 ed c9 56 24 c2 c9 56 24
       4.657489e-17 4.657475e-17

exp_avg f4 [2]
000000 6e 80 1e aa 6d 81 1e 2a
       -1.4077777e-13 1.4078123e-13

exp_avg_sq f4 [2]
000000 f5 ea 84 28 f4 ea 84 28
       1.475684e-14 1.4756839e-14

exp_avg f4 [4, 1]
000000 34 d3 95 24 4b 6a 97 a4 55 69 97 a1 2e 0c 17 a2
       6.497624e-17 -6.566588e-17 -1.0260039e-18 -2.0470764e-18

exp_avg_sq f4 [4, 1]
000000 ab 9f c4 23 28 77 c0 23 36 23 43 1e 19 5d e8 1e
       2.1317985e-17 2.0867146e-17 1.03304955e-20 2.460246e-20

exp_avg f4 [4]
000000 1d 31 9d a9 03 dc 9c 29 68 79 aa 25 b5 99 a3 25
       -6.9807204e-14 6.9659576e-14 2.9572567e-16 2.8380149e-16

exp_avg_sq f4 [4]
000000 9a 87 8e 27 93 86 8b 27 5a ff 0c 22 7e e5 a7 22
       3.9559937e-15 3.8726156e-15 1.910872e-18 4.5508425e-18

exp_avg f4 [2]
000000 08 58 ae 2c 0a 01 07 2d
       4.955151e-12 7.674092e-12

exp_avg_sq f4 [2]
000000 1b a2 85 24 6e 1e f0 24
       5.795417e-17 1.0413496e-16

exp_avg f4 [2]
000000 89 f5 ad 2c fe d2 06 ad
       4.9442156e-12 -7.663868e-12

exp_avg_sq f4 [2]
000000 37 08 86 24 10 a0 f0 24
       5.812715e-17 1.04354565e-16

exp_avg f4 [2]
000000 46 19 6a a8 28 19 6a 28
       -1.299509e-14 1.2995064e-14

exp_avg_sq f4 [2]
000000 9d 65 57 1e a9 65 57 1e
       1.1403018e-20 1.1403028e-20

exp_avg f4 [2]
000000 36 09 e8 a4 ad 56 e7 a4
       -1.00629566e-16 -1.00327115e-16

exp_avg_sq f4 [2]
000000 75 74 14 16 a1 76 14 16
       1.1992092e-25 1.1992777e-25

exp_avg f4 [2]
000000 db 8a 9c 25 d0 24 9c a5
       2.7155778e-16 -2.7086631e-16

exp_avg_sq f4 [2]
000000 33 3f 1e 18 b8 40 1e 18
       2.0452929e-24 2.0453696e-24

exp_avg f4 [4, 1]
000000 9b 3b 35 a4 3c 60 3f 24 2c 87 19 a3 fb c2 ce 21
       -3.9298606e-17 4.1498037e-17 -8.32277e-18 1.4010714e-18

exp_avg_sq f4 [4, 1]
000000 28 01 05 16 a7 7c 24 16 cf 7c 96 14 4c ed 08 12
       1.0744019e-25 1.3287148e-25 1.5195358e-26 4.3206524e-28

exp_avg f4 [4]
000000 bb fa 1a 25 9b 50 21 a5 e8 89 b5 23 9f d3 74 a2
       1.3442322e-16 -1.3991834e-16 1.9682465e-17 -3.3180198e-18

exp_avg_sq f4 [4]
000000 f0 1a 1b 17 19 48 29 17 7f 57 08 15 8c 21 78 12
       5.01172e-25 5.4697845e-25 2.7534004e-26 7.829635e-28

exp_avg f4 [2]
000000 45 d2 54 ab 3d f2 a4 ab
       -7.560934e-13 -1.1720135e-12

exp_avg_sq f4 [2]
000000 6a 56 9f 21 e9 02 0f 22
       1.0797133e-18 1.9381654e-18

exp_avg f4 [2]
000000 9c d4 54 2b 0e f4 a4 ab
       7.5612585e-13 -1.172064e-12

exp_avg_sq f4 [2]
000000 a8 5d 9f 21 57 09 0f 22
       1.079905e-18 1.9385058e-18

exp_avg f4 [2, 2]
000000 b0 81 8e a0 c2 81 8e 20 e5 f4 c0 a1 fe f4 c0 21
       -2.4141556e-19 2.4141602e-19 -1.3075249e-18 1.3075275e-18

exp_avg_sq f4 [2, 2]
000000 e7 0c e7 08 e7 0c e7 08 9b a7 d5 0b 9b a7 d5 0b
       1.390584e-33 1.390584e-33 8.22968e-32 8.22968e-32

exp_avg f4 [2]
000000 d2 33 0c a1 97 63 3e a2
       -4.750243e-19 -2.5802524e-18

exp_avg_sq f4 [2]
000000 10 12 af 09 e4 84 a3 0c
       4.2146703e-33 2.5194107e-31

exp_avg f4 [2, 2]
000000 76 3b 95 a1 63 19 9b 20 64 20 90 21 16 ab 95 a0
       -1.0112372e-18 2.627482e-19 9.766393e-19 -2.5354797e-19

exp_avg_sq f4 [2, 2]
000000 e6 4c 2c 0b 88 b8 4a 09 ac 79 89 0b b2 22 a1 09
       3.3183847e-32 2.4401632e-33 5.295355e-32 3.8791967e-33

exp_avg f4 [2]
000000 cf bc 0c 22 2c 2d 08 a2
       1.9073492e-18 -1.845535e-18

exp_avg_sq f4 [2]
000000 ef c3 02 0c 4f 13 52 0c
       1.0073797e-31 1.6183622e-31

exp_avg f4 [4, 2]
000000 0d 49 27 a2 a8 93 be a1 e7 38 17 22 77 ea ac 21
       -2.2671393e-18 -1.2913985e-18 2.049444e-18 1.1717236e-18
000010 25 9e dc 9f fe b6 ae 9f 3f 94 21 20 0d ff 01 20
       -9.343525e-20 -7.39946e-20 1.3686281e-19 1.1011114e-19

exp_avg_sq f4 [4, 2]
000000 cb 2d 5c 0c c4 5e 36 0c ba 94 31 0c e4 25 14 0c
       1.6961964e-31 1.4049287e-31 1.368034e-31 1.1412908e-31
000010 99 62 c6 07 c6 9b d1 06 b1 da 54 08 f5 ae 42 07
       2.984968e-34 7.884595e-35 6.40535e-34 1.4646353e-34

exp_avg f4 [4]
000000 db f4 df a2 25 99 cb 22 0f e0 cb a0 18 fe 17 21
       -6.070352e-18 5.518541e-18 -3.4537807e-19 5.149708e-19

exp_avg_sq f4 [4]
000000 62 49 4d 0e 82 de 26 0e 86 15 e3 08 11 9b 51 09
       2.5303533e-30 2.0568213e-30 1.3667126e-33 2.5230372e-33

exp_avg f4 [2]
000000 ab 11 ef 2a e4 cc 3b ab
       4.2467188e-13 -6.672009e-13

exp_avg_sq f4 [2]
000000 6e 05 0c 1f eb ab b0 1f
       2.9650644e-20 7.4823314e-20

exp_avg f4 [2]
000000 eb 12 ef 2a e2 cd 3b 2b
       4.2468055e-13 6.6721466e-13

exp_avg_sq f4 [2]
000000 9b 06 0c 1f 4b ad b0 1f
       2.9651617e-20 7.482559e-20

exp_avg f4 [2, 2]
000000 62 3e 35 0e 95 3e 35 8e a5 27 75 0d e4 27 75 8d
       2.2340009e-30 -2.2340105e-30 7.5544174e-31 -7.554447e-31

exp_avg_sq f4 [2, 2]
000000 02 00 00 00 02 00 00 00 00 00 00 00 00 00 00 00
       3e-45 3e-45 0.0 0.0

exp_avg f4 [2]
000000 05 db 07 0f 3b 10 2c 0e
       6.6981955e-30 2.1208452e-30

exp_avg_sq f4 [2]
000000 3e 00 00 00 04 00 00 00
       8.7e-44 6e-45

exp_avg f4 [2, 2]
000000 17 67 1c 8e 36 9b a1 0e 66 56 2f 8d 76 a3 b4 0d
       -1.927812e-30 3.9839027e-30 -5.4030037e-31 1.1132708e-30

exp_avg_sq f4 [2, 2]
000000 01 00 00 00 03 00 00 00 00 00 00 00 00 00 00 00
       1e-45 4e-45 0.0 0.0

exp_avg f4 [2]
000000 9b c8 05 0f b1 25 19 0e
       6.5960415e-30 1.8876854e-30

exp_avg_sq f4 [2]
000000 29 00 00 00 04 00 00 00
       5.7e-44 6e-45

exp_avg f4 [4, 2]
000000 9d e7 ea 8c 38 bc 46 8e 02 11 b5 0c 2f 2d 16 0e
       -3.6192806e-31 -2.4496008e-30 2.7897702e-31 1.8510683e-30
000010 f6 76 d3 0a 2e 74 3a 0c cb d1 9f 0b a2 f4 0e 0d
       2.0363309e-32 1.436388e-31 6.1560234e-32 4.4051594e-31

exp_avg_sq f4 [4, 2]
000000 00 00 00 00 01 00 00 00 00 00 00 00 01 00 00 00
       0.0 1e-45 0.0 1e-45
000010 00 00 00 00 00 00 00 00 00 00 00 00 00 00 00 00
       0.0 0.0 0.0 0.0

exp_avg f4 [4]
000000 c9 bc a9 0e 5b 6e 84 8e 26 6d 95 8c 7c 2f 5f 8d
       4.184351e-30 -3.264678e-30 -2.3022776e-31 -6.877434e-31

exp_avg_sq f4 [4]
000000 0d 00 00 00 0b 00 00 00 00 00 00 00 00 00 00 00
       1.8e-44 1.5e-44 0.0 0.0

exp_avg f4 [2]
000000 e8 3f 83 95 37 1b da 15
       -5.3011305e-26 8.8092436e-26

exp_avg_sq f4 [2]
000000 c7 6f 4a 00 69 9a a1 00
       6.835925e-39 1.4840907e-38

exp_avg f4 [2]
000000 f8 41 83 95 81 1e da 95
       -5.301456e-26 -8.8097625e-26

exp_avg_sq f4 [2]
000000 3c 81 4a 00 38 c0 a1 00
       6.842187e-39 1.485447e-38

exp_avg f4 [2, 2]
000000 57 b3 89 0d 7a b3 89 8d 5c 0a 23 8e 88 0a 23 0e
       8.486451e-31 -8.486484e-31 -2.0096289e-30 2.0096372e-30

exp_avg_sq f4 [2, 2]
000000 00 00 00 00 00 00 00 00 00 00 00 00 00 00 00 00
       0.0 0.0 0.0 0.0

exp_avg f4 [2]
000000 1e c4 33 0e ec ea e5 8e
       2.215788e-30 -5.667908e-30

exp_avg_sq f4 [2]
000000 01 00 00 00 08 00 00 00
       1e-45 1.1e-44

exp_avg f4 [2, 2]
000000 f7 61 e6 8a 21 69 9b 8d 88 27 85 8b 58 86 34 8e
       -2.2185045e-32 -9.577921e-31 -5.1289217e-32 -2.2251397e-30

exp_avg_sq f4 [2, 2]
000000 00 00 00 00 00 00 00 00 00 00 00 00 00 00 00 00
       0.0 0.0 0.0 0.0

exp_avg f4 [2]
000000 36 33 4c 0e 03 58 f0 0e
       2.5169599e-30 5.924932e-30

exp_avg_sq f4 [2]
000000 01 00 00 00 06 00 00 00
       1e-45 8e-45

exp_avg f4 [4, 2]
000000 61 7d e8 8d 32 ec bf 0e 4b f4 da 0d 9f ec b5 8e
       -1.4328288e-30 4.7312583e-30 1.3494099e-30 -4.4847803e-30
000010 84 0a 22 8d b5 63 ff 0d cd 93 7c 8b 06 a4 32 0c
       -4.993276e-31 1.5739592e-30 -4.8644628e-32 1.376198e-31

exp_avg_sq f4 [4, 2]
000000 00 00 00 00 01 00 00 00 00 00 00 00 01 00 00 00
       0.0 1e-45 0.0 1e-45
000010 00 00 00 00 00 00 00 00 00 00 00 00 00 00 00 00
       0.0 0.0 0.0 0.0

exp_avg f4 [4]
000000 5b f0 f4 0e 62 3c e7 8e cd f0 1f 0e 9f e9 82 0c
       6.0382098e-30 -5.7004043e-30 1.9714204e-30 2.0170277e-31

exp_avg_sq f4 [4]
000000 06 00 00 00 05 00 00 00 00 00 00 00 00 00 00 00
       8e-45 7e-45 0.0 0.0

exp_avg f4 [2]
000000 61 b6 14 14 bf 31 0f 17
       7.5080584e-27 4.626858e-25

exp_avg_sq f4 [2]
000000 1a 3a 00 00 6d 04 2e 02
       2.0843e-41 1.2784771e-37
