checkpoints/epoch=0-step=184.ckpt (torch, 292877 bytes, 508 tensors)

static_variable_selection.flattened_grn.fc1.weight f4 [2, 6]
0.50721234 -0.8243041 -0.29261208 0.042075012 -0.28222346 0.67044544 0.68722177 0.45593542
-0.09115213 -0.20033231 0.6948769 0.13825035
00000000: abd8 013f 9805 53bf 40d1 95be d956 2c3d
00000010: 987f 90be 50a2 2b3f c4ed 2f3f 5e70 e93e
00000020: f8ad babd ea23 4dbe 74e3 313f 8091 0d3e

static_variable_selection.flattened_grn.fc1.bias f4 [2]
-4.452031e-05 1.1566281e-06
00000000: 52bb 3ab8 703d 9b35

static_variable_selection.flattened_grn.fc2.weight f4 [2, 2]
1.7412204 -0.18835583 0.322039 0.51050234
00000000: 4fe0 de3f 5ae0 40be 4ce2 a43e 48b0 023f

static_variable_selection.flattened_grn.fc2.bias f4 [2]
-2.4350069e-05 -6.671532e-06
00000000: 6043 ccb7 06dc dfb6

static_variable_selection.flattened_grn.gate_norm.glu.fc.weight f4 [12, 2]
-0.43480602 0.18539967 -0.40876654 0.27452296 0.33352077 0.45859292 0.23519531 -0.14041844
0.07239457 -0.61696124 -0.5854327 -0.51828057 -0.5122307 0.6183231 -0.56072986 0.21179204
0.09566073 -0.50865567 0.5909543 0.57273084 0.5894254 0.31456897 -0.2222555 -0.027603475
00000000: e59e debe 69d9 3d3e d949 d1be 468e 8c3e
00000010: 3cc3 aa3e b1cc ea3e 0ad7 703e dac9 0fbe
00000020: 9b43 943d 2cf1 1dbf ebde 15bf 09ae 04bf
00000030: 8d21 03bf 6c4a 1e3f fe8b 0fbf 03e0 583e
00000040: c6e9 c33d 4237 02bf c848 173f 7d9e 123f
00000050: 95e4 163f 2f0f a13e f296 63be af20 e2bc

static_variable_selection.flattened_grn.gate_norm.glu.fc.bias f4 [12]
1.2287317e-07 5.2485017e-08 -1.2080039e-06 -3.7026843e-05 -4.416168e-06 2.3244367e-05 5.623195e-08 6.6480226e-08
-3.8363e-07 -3.5831608e-06 5.7152374e-08 -1.5262032e-05
00000000: 1fef 0334 e36b 6133 b322 a2b5 454d 1bb8
00000010: 982e 94b6 e6fc c237 af83 7133 e4c3 8e33
00000020: b5f5 cdb4 3c76 70b6 b377 7533 f706 80b7

static_variable_selection.flattened_grn.gate_norm.add_norm.norm.weight f4 [6]
0.99999917 0.9999993 1.0 0.9999769 0.99999475 1.0000142
00000000: f2ff 7f3f f4ff 7f3f 0000 803f 7cfe 7f3f
00000010: a8ff 7f3f 7700 803f

static_variable_selection.flattened_grn.gate_norm.add_norm.norm.bias f4 [6]
-1.8503065e-06 -1.7582423e-06 -8.50646e-07 -3.12401e-05 2.4725978e-06 3.3222906e-05
00000000: 0c58 f8b5 bffc ebb5 f357 64b5 cd07 03b8
00000010: e8ee 2536 d358 0b38

static_variable_selection.single_variable_grns.router_id.mask f4 [2]
-0.0016576586 0.00165766
00000000: cb45 d9ba d745 d93a

static_variable_selection.single_variable_grns.router_id.norm.weight f4 [2]
1.0 1.0
00000000: 0000 803f 0000 803f

static_variable_selection.single_variable_grns.router_id.norm.bias f4 [2]
3.3282235e-05 7.4191856e-05
00000000: 8798 0b38 7397 9b38

static_variable_selection.single_variable_grns.location.mask f4 [2]
-0.0013687499 0.0013687499
00000000: a067 b3ba a067 b33a

static_variable_selection.single_variable_grns.location.norm.weight f4 [2]
1.0 1.0
00000000: 0000 803f 0000 803f

static_variable_selection.single_variable_grns.location.norm.bias f4 [2]
3.1192576e-05 7.001217e-05
00000000: c6d4 0238 7fd3 9238

static_variable_selection.single_variable_grns.application_type.mask f4 [2]
0.00070267165 -0.00070267165
00000000: 7f33 383a 7f33 38ba

static_variable_selection.single_variable_grns.application_type.norm.weight f4 [2]
1.0 1.0
00000000: 0000 803f 0000 803f

static_variable_selection.single_variable_grns.application_type.norm.bias f4 [2]
1.0728857e-05 2.8548866e-05
00000000: 1700 3437 397c ef37

static_variable_selection.single_variable_grns.encoder_length.resample_norm.mask f4 [2]
-0.021765504 0.021765504
00000000: 924d b2bc 924d b23c

static_variable_selection.single_variable_grns.encoder_length.resample_norm.norm.weight f4 [2]
0.99999136 0.99999136
00000000: 6fff 7f3f 6fff 7f3f

static_variable_selection.single_variable_grns.encoder_length.resample_norm.norm.bias f4 [2]
-0.0032867996 0.0032867996
00000000: 5967 57bb 5967 573b

static_variable_selection.single_variable_grns.encoder_length.gate_norm.glu.fc.weight f4 [4, 1]
-0.72143805 -0.8136233 -0.7595868 0.9184869
00000000: 2ab0 38bf 9e49 50bf 4874 42bf f521 6b3f

static_variable_selection.single_variable_grns.encoder_length.gate_norm.glu.fc.bias f4 [4]
-0.0017250811 0.0017300528 2.3702382e-06 -2.681187e-06
00000000: 1e1c e2ba f0c2 e23a 6210 1f36 71ee 33b6

static_variable_selection.single_variable_grns.encoder_length.gate_norm.add_norm.norm.weight f4 [2]
1.0000212 0.9999498
00000000: b200 803f b6fc 7f3f

static_variable_selection.single_variable_grns.encoder_length.gate_norm.add_norm.norm.bias f4 [2]
3.2796703e-05 7.977848e-05
00000000: 318f 0938 bf4e a738

static_variable_selection.single_variable_grns.bandwidth_mbps_scaled_center.resample_norm.mask f4 [2]
-0.0011754751 0.0011754748
00000000: 6612 9aba 6412 9a3a

static_variable_selection.single_variable_grns.bandwidth_mbps_scaled_center.resample_norm.norm.weight f4 [2]
1.0 1.0
00000000: 0000 803f 0000 803f

static_variable_selection.single_variable_grns.bandwidth_mbps_scaled_center.resample_norm.norm.bias f4 [2]
1.1539884e-05 -1.1539863e-05
00000000: 6d9b 4137 569b 41b7

static_variable_selection.single_variable_grns.bandwidth_mbps_scaled_center.gate_norm.glu.fc.weight f4 [4, 1]
0.28276774 0.615992 0.95103776 -0.004117927
00000000: efc6 903e a7b1 1d3f 3677 733f adef 86bb

static_variable_selection.single_variable_grns.bandwidth_mbps_scaled_center.gate_norm.glu.fc.bias f4 [4]
5.755324e-06 -5.770984e-06 -4.1908135e-09 1.0604672e-08
00000000: db1d c136 60a4 c1b6 c9fe 8fb1 d72f 3632

static_variable_selection.single_variable_grns.bandwidth_mbps_scaled_center.gate_norm.add_norm.norm.weight f4 [2]
0.99999803 1.0000044
00000000: dfff 7f3f 2500 803f

static_variable_selection.single_variable_grns.bandwidth_mbps_scaled_center.gate_norm.add_norm.norm.bias f4 [2]
2.1768194e-06 4.695745e-06
00000000: 7915 1236 2490 9d36

static_variable_selection.single_variable_grns.bandwidth_mbps_scaled_scale.resample_norm.mask f4 [2]
-0.00043301852 0.00043301872
00000000: c306 e3b9 ca06 e339

static_variable_selection.single_variable_grns.bandwidth_mbps_scaled_scale.resample_norm.norm.weight f4 [2]
1.0 1.0
00000000: 0000 803f 0000 803f

static_variable_selection.single_variable_grns.bandwidth_mbps_scaled_scale.resample_norm.norm.bias f4 [2]
-4.3032114e-06 4.303001e-06
00000000: 4e64 90b6 7f62 9036

static_variable_selection.single_variable_grns.bandwidth_mbps_scaled_scale.gate_norm.glu.fc.weight f4 [4, 1]
0.44057465 -0.52497375 -0.16311626 0.02662816
00000000: 0093 e13e ae64 06bf f307 27be 4d23 da3c

static_variable_selection.single_variable_grns.bandwidth_mbps_scaled_scale.gate_norm.glu.fc.bias f4 [4]
-2.1869562e-06 2.1459475e-06 9.4974894e-08 1.13184946e-07
00000000: 9fc3 12b6 1903 1036 00f5 cb33 1510 f333

static_variable_selection.single_variable_grns.bandwidth_mbps_scaled_scale.gate_norm.add_norm.norm.weight f4 [2]
0.999974 1.0000606
00000000: 4cfe 7f3f fc01 803f

static_variable_selection.single_variable_grns.bandwidth_mbps_scaled_scale.gate_norm.add_norm.norm.bias f4 [2]
2.6358526e-05 6.128771e-05
00000000: 811c dd37 9787 8038

encoder_variable_selection.flattened_grn.fc1.weight f4 [2, 3]
-0.1675695 1.4940215 0.56148964 -0.24380466 -0.87225425 1.1106075
00000000: 5797 2bbe 193c bf3f c9bd 0f3f eea7 79be
00000010: 0e4c 5fbf 6328 8e3f

encoder_variable_selection.flattened_grn.fc1.bias f4 [2]
0.00027261715 -0.0011220174
00000000: 0eee 8e39 a810 93ba

encoder_variable_selection.flattened_grn.context.weight f4 [2, 2]
0.8320529 0.61644554 -0.06901997 0.9605614
00000000: 6b01 553f 60cf 1d3f 585a 8dbd 5ae7 753f

encoder_variable_selection.flattened_grn.fc2.weight f4 [2, 2]
0.29465675 -0.8975345 0.2703405 -0.4519113
00000000: 40dd 963e d2c4 65bf 126a 8a3e eb60 e7be

encoder_variable_selection.flattened_grn.fc2.bias f4 [2]
3.211126e-05 0.0023388283
00000000: 34af 0638 0747 193b

encoder_variable_selection.flattened_grn.gate_norm.glu.fc.weight f4 [6, 2]
-0.51966196 -0.010426973 0.5082203 0.5876538 -0.07375538 0.3200012 0.083960414 0.06442808
0.75052345 -0.80244654 -0.34123912 0.16547526
00000000: 9108 05bf e5d5 2abc ba1a 023f 7b70 163f
00000010: 100d 97bd 33d7 a33e 70f3 ab3d dff2 833d
00000020: 4e22 403f 236d 4dbf e5b6 aebe 5972 293e

encoder_variable_selection.flattened_grn.gate_norm.glu.fc.bias f4 [6]
-0.0022720695 0.0034068243 -0.0008653506 6.483894e-05 -0.0005903511 8.991865e-06
00000000: 00e7 14bb 0745 5f3b b2d8 62ba 24fa 8738
00000010: cbc1 1aba c4db 1637

encoder_variable_selection.flattened_grn.gate_norm.add_norm.norm.weight f4 [3]
0.9987098 1.0000559 0.99968266
00000000: 72ab 7f3f d501 803f 34eb 7f3f

encoder_variable_selection.flattened_grn.gate_norm.add_norm.norm.bias f4 [3]
-0.0011506008 0.000804959 0.00036726904
00000000: c2cf 96ba e203 533a 048e c039

encoder_variable_selection.single_variable_grns.time_idx.resample_norm.mask f4 [2]
-0.0033011823 0.0033011823
00000000: a658 58bb a658 583b

encoder_variable_selection.single_variable_grns.time_idx.resample_norm.norm.weight f4 [2]
0.99999887 0.99999887
00000000: edff 7f3f edff 7f3f

encoder_variable_selection.single_variable_grns.time_idx.resample_norm.norm.bias f4 [2]
-0.0041478733 0.004147875
00000000: e2ea 87bb e6ea 873b

encoder_variable_selection.single_variable_grns.time_idx.gate_norm.glu.fc.weight f4 [4, 1]
1.0230094 0.04479875 -0.753574 0.48659718
00000000: f9f1 823f e57e 373d 3aea 40bf 4423 f93e

encoder_variable_selection.single_variable_grns.time_idx.gate_norm.glu.fc.bias f4 [4]
-0.0021908528 0.002191867 -7.2242875e-07 2.0226257e-07
00000000: 6994 0fbb 6da5 0f3b edec 41b5 832d 5934

encoder_variable_selection.single_variable_grns.time_idx.gate_norm.add_norm.norm.weight f4 [2]
0.9994827 0.99772376
00000000: 19de 7f3f d36a 7f3f

encoder_variable_selection.single_variable_grns.time_idx.gate_norm.add_norm.norm.bias f4 [2]
-0.00059987605 0.0009109589
00000000: 0041 1dba 6bcd 6e3a

encoder_variable_selection.single_variable_grns.relative_time_idx.resample_norm.mask f4 [2]
0.009857228 -0.009857228
00000000: 3680 213c 3680 21bc

encoder_variable_selection.single_variable_grns.relative_time_idx.resample_norm.norm.weight f4 [2]
0.99999446 0.99999446
00000000: a3ff 7f3f a3ff 7f3f

encoder_variable_selection.single_variable_grns.relative_time_idx.resample_norm.norm.bias f4 [2]
-0.00026957766 0.00026957932
00000000: 1a56 8db9 5356 8d39

encoder_variable_selection.single_variable_grns.relative_time_idx.gate_norm.glu.fc.weight f4 [4, 1]
-0.5714731 -0.028864427 0.96735984 -0.06787393
00000000: 104c 12bf 1775 ecbc e5a4 773f 7d01 8bbd

encoder_variable_selection.single_variable_grns.relative_time_idx.gate_norm.glu.fc.bias f4 [4]
-0.00015592383 0.00013394085 1.2048349e-05 -6.2384356e-07
00000000: 7c7f 23b9 7972 0c39 4423 4a37 3476 27b5

encoder_variable_selection.single_variable_grns.relative_time_idx.gate_norm.add_norm.norm.weight f4 [2]
1.0002339 1.0003759
00000000: aa07 803f 510c 803f

encoder_variable_selection.single_variable_grns.relative_time_idx.gate_norm.add_norm.norm.bias f4 [2]
-0.00022438435 0.0003695164
00000000: b748 6bb9 a7bb c139

encoder_variable_selection.single_variable_grns.bandwidth_mbps_scaled.resample_norm.mask f4 [2]
0.0024744316 -0.0024744316
00000000: 132a 223b 132a 22bb

encoder_variable_selection.single_variable_grns.bandwidth_mbps_scaled.resample_norm.norm.weight f4 [2]
1.0 1.0
00000000: 0000 803f 0000 803f

encoder_variable_selection.single_variable_grns.bandwidth_mbps_scaled.resample_norm.norm.bias f4 [2]
-3.0274325e-05 3.0274306e-05
00000000: 9ef5 fdb7 94f5 fd37

encoder_variable_selection.single_variable_grns.bandwidth_mbps_scaled.gate_norm.glu.fc.weight f4 [4, 1]
-0.25656894 -0.7485598 -0.91425395 0.47121713
00000000: 015d 83be 9da1 3fbf 8c0c 6abf 5f43 f13e

encoder_variable_selection.single_variable_grns.bandwidth_mbps_scaled.gate_norm.glu.fc.bias f4 [4]
-1.5128804e-05 1.5156406e-05 5.111909e-09 -1.4930645e-08
00000000: b8d1 7db7 4548 7e37 d4a4 af31 d640 80b2

encoder_variable_selection.single_variable_grns.bandwidth_mbps_scaled.gate_norm.add_norm.norm.weight f4 [2]
1.0000347 1.0001396
00000000: 2301 803f 9304 803f

encoder_variable_selection.single_variable_grns.bandwidth_mbps_scaled.gate_norm.add_norm.norm.bias f4 [2]
-3.3934328e-05 0.0001401824
00000000: b554 0eb8 edfd 1239

decoder_variable_selection.flattened_grn.fc1.weight f4 [2, 2]
-0.6761308 1.0244923 -0.9222672 -0.68624294
00000000: e816 2dbf 9022 833f b419 6cbf 9ead 2fbf

decoder_variable_selection.flattened_grn.fc1.bias f4 [2]
0.0070006503 -0.010445469
00000000: b665 e53b 7923 2bbc

decoder_variable_selection.flattened_grn.context.weight f4 [2, 2]
-0.55092204 0.7512739 -0.35239577 0.06501993
00000000: 3a09 0dbf 7c53 403f 386d b4be 2b29 853d

decoder_variable_selection.flattened_grn.fc2.weight f4 [2, 2]
-0.596661 1.2407231 1.2103783 -0.70245105
00000000: c6be 18bf 04d0 9e3f aded 9a3f d5d3 33bf

decoder_variable_selection.flattened_grn.fc2.bias f4 [2]
-0.007353838 0.0020291375
00000000: 77f8 f0bb 47fb 043b

decoder_variable_selection.flattened_grn.gate_norm.glu.fc.weight f4 [4, 2]
-0.59674525 -0.6551831 0.7086639 0.9929861 -0.5011229 0.76513374 -0.79858434 0.70975715
00000000: 4cc4 18bf 14ba 27bf ff6a 353f 5634 7e3f
00000010: 9749 00bf cedf 433f 0670 4cbf a5b2 353f

decoder_variable_selection.flattened_grn.gate_norm.glu.fc.bias f4 [4]
0.0057665417 -0.0055477098 -0.00036987482 -0.00037190143
00000000: 42f5 bc3b 90c9 b5bb c2eb c1b9 c4fb c2b9

decoder_variable_selection.flattened_grn.gate_norm.add_norm.norm.weight f4 [2]
1.0394398 1.0394397
00000000: 5d0c 853f 5c0c 853f

decoder_variable_selection.flattened_grn.gate_norm.add_norm.norm.bias f4 [2]
-0.039318744 0.039318744
00000000: b10c 21bd b10c 213d

decoder_variable_selection.single_variable_grns.time_idx.resample_norm.mask f4 [2]
0.032038946 -0.032038946
00000000: 453b 033d 453b 03bd

decoder_variable_selection.single_variable_grns.time_idx.resample_norm.norm.weight f4 [2]
1.0045395 1.0045389
00000000: c094 803f bb94 803f

decoder_variable_selection.single_variable_grns.time_idx.resample_norm.norm.bias f4 [2]
0.010674761 -0.010674759
00000000: 31e5 2e3c 2fe5 2ebc

decoder_variable_selection.single_variable_grns.time_idx.gate_norm.glu.fc.weight f4 [4, 1]
0.92485225 -0.77487004 -0.2992079 0.81549907
00000000: 1ec3 6c3f e25d 46bf c731 99be 8cc4 503f

decoder_variable_selection.single_variable_grns.time_idx.gate_norm.glu.fc.bias f4 [4]
0.011179915 -0.010933991 -0.0009806498 -0.00090920366
00000000: f62b 373c 7b24 33bc 2689 80ba a057 6eba

decoder_variable_selection.single_variable_grns.time_idx.gate_norm.add_norm.norm.weight f4 [2]
0.9918641 0.991307
00000000: ceea 7d3f 4cc6 7d3f

decoder_variable_selection.single_variable_grns.time_idx.gate_norm.add_norm.norm.bias f4 [2]
0.013698902 -0.013997499
00000000: 5c71 603c c455 65bc

decoder_variable_selection.single_variable_grns.relative_time_idx.resample_norm.mask f4 [2]
-0.030017944 0.030017942
00000000: 31e8 f5bc 30e8 f53c

decoder_variable_selection.single_variable_grns.relative_time_idx.resample_norm.norm.weight f4 [2]
1.0000081 1.0000011
00000000: 4400 803f 0900 803f

decoder_variable_selection.single_variable_grns.relative_time_idx.resample_norm.norm.bias f4 [2]
0.02981192 -0.02981192
00000000: 2138 f43c 2138 f4bc

decoder_variable_selection.single_variable_grns.relative_time_idx.gate_norm.glu.fc.weight f4 [4, 1]
-0.20556071 0.8297731 0.9094199 0.16523792
00000000: 827e 52be 036c 543f becf 683f 2134 293e

decoder_variable_selection.single_variable_grns.relative_time_idx.gate_norm.glu.fc.bias f4 [4]
0.029600093 -0.029600097 -1.3494705e-06 -5.655069e-06
00000000: e57b f23c e77b f2bc 741f b5b5 acc0 bdb6

decoder_variable_selection.single_variable_grns.relative_time_idx.gate_norm.add_norm.norm.weight f4 [2]
1.0396166 1.0417798
00000000: 2812 853f 0a59 853f

decoder_variable_selection.single_variable_grns.relative_time_idx.gate_norm.add_norm.norm.bias f4 [2]
0.050200887 -0.052332498
00000000: 729f 4d3d 9a5a 56bd

static_context_variable_selection.fc1.weight f4 [2, 2]
-0.93809813 0.62166053 0.85225433 2.6958508
00000000: 3327 70bf 2525 1f3f 572d 5a3f d288 2c40

static_context_variable_selection.fc1.bias f4 [2]
-9.307912e-05 0.00011971546
00000000: 7933 c3b8 c00f fb38

static_context_variable_selection.fc2.weight f4 [2, 2]
1.1232209 -1.9131967 0.8169698 0.34619743
00000000: b4c5 8f3f a1e3 f4bf ef24 513f ca40 b13e

static_context_variable_selection.fc2.bias f4 [2]
-6.670744e-05 -2.2336262e-05
00000000: 49e5 8bb8 c25e bbb7

static_context_variable_selection.gate_norm.glu.fc.weight f4 [4, 2]
0.24130857 0.037617963 -0.97215015 -0.7102401 -0.6347544 -0.223099 -0.1969868 0.8403343
00000000: 9819 773e 4b15 1a3d d5de 78bf 4cd2 35bf
00000010: 447f 22bf 1074 64be e8b6 49be 2620 573f

static_context_variable_selection.gate_norm.glu.fc.bias f4 [4]
-2.7781793e-05 2.8052873e-05 4.9576477e-07 1.3373115e-06
00000000: f20c e9b7 1653 eb37 b214 0535 ac7d b335

static_context_variable_selection.gate_norm.add_norm.norm.weight f4 [2]
0.9995357 1.0037031
00000000: 92e1 7f3f 5879 803f

static_context_variable_selection.gate_norm.add_norm.norm.bias f4 [2]
0.00046223096 0.0037048112
00000000: 9757 f239 6bcc 723b

static_context_initial_hidden_lstm.fc1.weight f4 [2, 2]
2.9445646 -0.23126334 -0.13798688 0.06933724
00000000: bf73 3c40 4cd0 6cbe 6f4c 0dbe af00 8e3d

static_context_initial_hidden_lstm.fc1.bias f4 [2]
6.8786415e-15 -7.1009787e-15
00000000: 45d4 f727 f8d6 ffa7

static_context_initial_hidden_lstm.fc2.weight f4 [2, 2]
-0.46559733 -1.0105236 -1.5488875 1.5731534
00000000: c662 eebe d658 81bf f241 c6bf 175d c93f

static_context_initial_hidden_lstm.fc2.bias f4 [2]
7.787976e-16 -4.0135623e-15
00000000: 1f79 6026 949a 90a7

static_context_initial_hidden_lstm.gate_norm.glu.fc.weight f4 [4, 2]
0.18417466 -0.631866 0.03463638 0.4336083 0.4146756 0.18256736 0.7004696 -0.20902574
00000000: 4898 3c3e f8c1 21bf e0de 0d3d e801 de3e
00000010: 5c50 d43e f0f2 3a3e fa51 333f d80a 56be

static_context_initial_hidden_lstm.gate_norm.glu.fc.bias f4 [4]
3.368037e-15 -3.5120061e-15 2.1934981e-16 1.7721357e-16
00000000: 51b1 7227 1411 7da7 a3e4 7c25 3750 4c25

static_context_initial_hidden_lstm.gate_norm.add_norm.norm.weight f4 [2]
1.0 1.0
00000000: 0000 803f 0000 803f

static_context_initial_hidden_lstm.gate_norm.add_norm.norm.bias f4 [2]
-8.888254e-10 -3.91407e-10
00000000: 8751 74b0 a32d d7af

static_context_initial_cell_lstm.fc1.weight f4 [2, 2]
0.11801325 0.093627356 0.16936472 0.032998845
00000000: eeb0 f13d b3bf bf3d f26d 2d3e cc29 073d

static_context_initial_cell_lstm.fc1.bias f4 [2]
3.6596472e-12 -1.0248872e-11
00000000: 2cc3 802c d14c 34ad

static_context_initial_cell_lstm.fc2.weight f4 [2, 2]
0.65340066 -1.9000974 -0.72238374 0.13765135
00000000: 4445 273f 6436 f3bf 24ee 38bf 7af4 0c3e

static_context_initial_cell_lstm.fc2.bias f4 [2]
5.4295856e-12 -1.6375546e-13
00000000: 5c09 bf2c 4c5f 38aa

static_context_initial_cell_lstm.gate_norm.glu.fc.weight f4 [4, 2]
0.9753903 -0.7720747 -0.93016565 0.7892326 -0.47950613 0.14191115 -0.06955981 0.37691867
00000000: 2eb3 793f b0a6 45bf 561f 6ebf 260b 4a3f
00000010: d481 f5be 2851 113e 6075 8ebd 7cfb c03e

static_context_initial_cell_lstm.gate_norm.glu.fc.bias f4 [4]
2.5689316e-12 -2.578075e-12 2.169717e-14 2.0694025e-14
00000000: c2c5 342c 786a 35ac 456e c328 2c65 ba28

static_context_initial_cell_lstm.gate_norm.add_norm.norm.weight f4 [2]
1.0 1.0
00000000: 0000 803f 0000 803f

static_context_initial_cell_lstm.gate_norm.add_norm.norm.bias f4 [2]
8.4744484e-10 -8.602498e-10
00000000: a1f1 6830 b376 6cb0

static_context_enrichment.fc1.weight f4 [2, 2]
-0.31949425 -0.7769688 -0.6537913 -0.24092135
00000000: c094 a3be 6de7 46bf de5e 27bf 16b4 76be

static_context_enrichment.fc1.bias f4 [2]
-2.0410228e-14 -1.8207539e-14
00000000: c8d6 b7a8 baff a3a8

static_context_enrichment.fc2.weight f4 [2, 2]
-0.9490351 -0.32172203 0.08888346 0.5788556
00000000: f7f3 72bf c0b8 a4be 8808 b63d e12f 143f

static_context_enrichment.fc2.bias f4 [2]
2.0132028e-14 -2.0267142e-14
00000000: 4c55 b528 d98c b6a8

static_context_enrichment.gate_norm.glu.fc.weight f4 [4, 2]
-0.41113007 0.07445526 -0.9029529 0.5817677 -0.25183988 -0.84318435 0.60035646 0.27582812
00000000: a47f d2be 007c 983d ec27 67bf baee 143f
00000010: 28f1 80be eeda 57bf f6b0 193f 5839 8d3e

static_context_enrichment.gate_norm.glu.fc.bias f4 [4]
3.5689696e-14 -3.61854e-14 -1.1164976e-16 1.5840938e-16
00000000: 6bbb 2029 edf6 22a9 31b9 00a5 32a2 3625

static_context_enrichment.gate_norm.add_norm.norm.weight f4 [2]
1.0 1.0
00000000: 0000 803f 0000 803f

static_context_enrichment.gate_norm.add_norm.norm.bias f4 [2]
2.6110082e-12 -1.7642787e-12
00000000: bebb 372c d74c f8ab

lstm_encoder.weight_ih_l0 f4 [8, 2]
-0.4541649 -0.10062065 -0.1351081 0.496377 -0.5210039 0.4576355 0.6007458 -0.022496296
-0.21702793 -0.00423432 0.08805522 -0.59634554 0.6375456 -0.6407149 -0.30225933 -0.04575779
00000000: 4d88 e8be 3312 cebd c759 0abe 2025 fe3e
00000010: 8360 05bf 334f ea3e 7aca 193f 274a b8bc
00000020: 923c 5ebe 0dc0 8abb 4c56 b43d 1aaa 18bf
00000030: 3036 233f e405 24bf bcc1 9abe 856c 3bbd

lstm_encoder.weight_hh_l0 f4 [8, 2]
-0.18996023 -0.4370468 -0.28902125 -0.39574125 -0.21756393 -0.4114429 0.63158286 0.10774119
-0.67870665 -0.1718756 0.1300637 0.28702062 -0.30047858 -0.36728093 -0.4569228 -0.5781547
00000000: ef84 42be 99c4 dfbe 98fa 93be 999e cabe
00000010: 14c9 5ebe a5a8 d2be 6aaf 213f 6aa7 dc3d
00000020: b8bf 2dbf 2800 30be 6b2f 053e 5ef4 923e
00000030: 54d8 99be 3f0c bcbe c9f1 e9be f201 14bf

lstm_encoder.bias_ih_l0 f4 [8]
0.46333027 -0.06447478 0.25271267 0.5674706 -0.52133083 -0.6701394 0.6008722 0.32052496
00000000: a039 ed3e 5a0b 84bd 8e63 813e c145 113f
00000010: f075 05bf 418e 2bbf c3d2 193f d91b a43e

lstm_encoder.bias_hh_l0 f4 [8]
0.33004516 0.35556996 -0.031055335 0.26614657 -0.114351556 0.38729396 -0.07010415 -0.20702665
00000000: aefb a83e 440d b63e c267 febc 5d44 883e
00000010: 2631 eabd 654b c63e c492 8fbd cbfe 53be

lstm_decoder.weight_ih_l0 f4 [8, 2]
0.6072883 -0.27585128 0.37840715 -0.43642068 -0.051501777 0.120712616 -0.23643039 -0.24412015
0.602433 -0.0034070706 0.10480541 -0.1780846 -0.025697911 -0.1655574 0.040381394 0.4812642
00000000: 3f77 1b3f 613c 8dbe 95be c13e 8872 dfbe
00000010: 87f3 52bd 2d38 f73d cf1a 72be a2fa 79be
00000020: 0d39 1a3f 2949 5fbb 38a4 d63d cf5b 36be
00000030: 6d84 d2bc e187 29be f666 253d 4368 f63e

lstm_decoder.weight_hh_l0 f4 [8, 2]
-0.25148213 0.01533087 -0.45006174 0.26777652 0.65497726 0.34544522 0.3105905 0.5236412
-0.44168147 0.40103304 0.54374886 -0.42330098 -0.5875887 -0.37637934 -0.2404691 0.5122989
00000000: 44c2 80be 542e 7b3c 7e6e e6be 011a 893e
00000010: 97ac 273f 32de b03e b805 9f3e 5a0d 063f
00000020: 1324 e2be 3454 cd3e 2033 0b3f e8ba d8be
00000030: 376c 16bf cbb4 c0be 883d 76be 0526 033f

lstm_decoder.bias_ih_l0 f4 [8]
-0.060426865 0.5128659 0.33053124 -0.31695244 -0.16467936 -0.37270945 0.20540436 -0.5039039
00000000: 2982 77bd 2e4b 033f 643b a93e 9747 a2be
00000010: b5a1 28be c6d3 bebe 8555 523e d9ff 00bf

lstm_decoder.bias_hh_l0 f4 [8]
0.22755073 -0.49111062 -0.5465757 0.22695659 0.29985282 -0.39001882 -0.5830597 -0.46865645
00000000: 0f03 693e da72 fbbe 63ec 0bbf 4f67 683e
00000010: 4f86 993e 8cb0 c7be 6743 15bf bdf3 efbe

post_lstm_gate_encoder.fc.weight f4 [4, 2]
-0.38803712 0.43651927 0.7356283 0.26782247 0.13927181 0.7361363 -0.600094 0.8294327
00000000: cdac c6be 747f df3e 2352 3c3f 0720 893e
00000010: 459d 0e3e 6e73 3c3f c39f 19bf b455 543f

post_lstm_gate_encoder.fc.bias f4 [4]
0.040013235 -0.03929597 -0.0060804314 -0.009862918
00000000: ebe4 233d d0f4 20bd 5b3e c7bb 1498 21bc

post_lstm_gate_decoder.fc.weight f4 [4, 2]
-0.38803712 0.43651927 0.7356283 0.26782247 0.13927181 0.7361363 -0.600094 0.8294327
00000000: cdac c6be 747f df3e 2352 3c3f 0720 893e
00000010: 459d 0e3e 6e73 3c3f c39f 19bf b455 543f

post_lstm_gate_decoder.fc.bias f4 [4]
0.040013235 -0.03929597 -0.0060804314 -0.009862918
00000000: ebe4 233d d0f4 20bd 5b3e c7bb 1498 21bc

post_lstm_add_norm_encoder.norm.weight f4 [2]
0.82273823 0.8227369
00000000: f99e 523f e39e 523f

post_lstm_add_norm_encoder.norm.bias f4 [2]
-0.17710225 0.17710692
00000000: 4b5a 35be 845b 353e

post_lstm_add_norm_decoder.norm.weight f4 [2]
0.82273823 0.8227369
00000000: f99e 523f e39e 523f

post_lstm_add_norm_decoder.norm.bias f4 [2]
-0.17710225 0.17710692
00000000: 4b5a 35be 845b 353e

static_enrichment.fc1.weight f4 [2, 2]
0.679787 -0.93076855 1.5346727 -1.410125
00000000: 8506 2e3f d946 6ebf 2870 c43f fa7e b4bf

static_enrichment.fc1.bias f4 [2]
-1.0774515e-11 -1.7708662e-12
00000000: 1a8c 3dad 2e3a f9ab

static_enrichment.context.weight f4 [2, 2]
-0.37357822 0.036242552 0.7985441 0.7757689
00000000: a545 bfbe 1273 143d 636d 4c3f ca98 463f

static_enrichment.fc2.weight f4 [2, 2]
2.9047542 -0.22279541 1.1988307 0.40780252
00000000: 7ee7 3940 7b24 64be 4973 993f 7ecb d03e

static_enrichment.fc2.bias f4 [2]
-1.5152945e-12 -5.4590694e-12
00000000: 3d42 d5ab ed12 c0ac

static_enrichment.gate_norm.glu.fc.weight f4 [4, 2]
0.0816524 0.14779723 0.03921306 -0.3982947 0.71976995 0.75775516 -0.032415748 -0.34744477
00000000: 6039 a73d 2858 173e e09d 203d 48ed cbbe
00000010: d842 383f 3efc 413f 60c6 04bd 48e4 b1be

static_enrichment.gate_norm.glu.fc.bias f4 [4]
-3.9040753e-11 1.6541329e-11 -1.2900526e-12 -4.073508e-12
00000000: fbb3 2bae c37f 912d 0b8f b5ab e652 8fac

static_enrichment.gate_norm.add_norm.norm.weight f4 [2]
1.0000014 0.9999936
00000000: 0c00 803f 95ff 7f3f

static_enrichment.gate_norm.add_norm.norm.bias f4 [2]
1.8581982e-06 7.233584e-06
00000000: 3467 f935 03b8 f236

multihead_attn.v_layer.weight f4 [2, 2]
0.19197363 -0.0043762014 0.7952532 0.25820318
00000000: bc94 443e 3d66 8fbb b795 4b3f 3533 843e

multihead_attn.v_layer.bias f4 [2]
-1.4115858e-06 9.034465e-06
00000000: b875 bdb5 bb92 1737

multihead_attn.q_layers.0.weight f4 [2, 2]
-0.7302246 0.7043071 0.79546934 -0.06502889
00000000: 00f0 3abf 784d 343f e1a3 4b3f de2d 85bd

multihead_attn.q_layers.0.bias f4 [2]
-7.695259e-07 -2.4439026e-07
00000000: 6b91 4eb5 be34 83b4

multihead_attn.k_layers.0.weight f4 [2, 2]
-0.6608496 0.9862847 -0.12238275 0.40071598
00000000: 702d 29bf 277d 7c3f cfa3 fabd a52a cd3e

multihead_attn.k_layers.0.bias f4 [2]
-5.75029e-13 3.4157527e-13
00000000: 35db 21ab 2f4a c02a

multihead_attn.w_h.weight f4 [2, 2]
-0.34545356 0.61691684 0.6197528 0.97353894
00000000: 4adf b0be 43ee 1d3f 1fa8 1e3f d939 793f

post_attn_gate_norm.glu.fc.weight f4 [4, 2]
-0.84995234 0.060218126 0.86850524 0.43938324 -0.53074193 0.84040296 0.84144247 0.08002609
00000000: 7a96 59bf 48a7 763d 5c56 5e3f d7f6 e03e
00000010: b4de 07bf a624 573f c668 573f b8e4 a33d

post_attn_gate_norm.glu.fc.bias f4 [4]
-3.6134586e-06 3.3416632e-06 4.103463e-07 1.1474809e-06
00000000: bf7e 72b6 5641 6036 914d dc34 2503 9a35

post_attn_gate_norm.add_norm.norm.weight f4 [2]
0.9822637 0.9830441
00000000: a275 7b3f c7a8 7b3f

post_attn_gate_norm.add_norm.norm.bias f4 [2]
-0.017737476 0.016957056
00000000: 2f4e 91bc 86e9 8a3c

pos_wise_ff.fc1.weight f4 [2, 2]
-2.1111524 1.2775631 -0.29697964 1.3851871
00000000: 1f1d 07c0 3087 a33f b70d 98be d04d b13f

pos_wise_ff.fc1.bias f4 [2]
0.0010664073 -0.0115153175
00000000: b1c6 8b3a beaa 3cbc

pos_wise_ff.fc2.weight f4 [2, 2]
1.2626396 -1.9379772 -0.49649578 -0.66546905
00000000: 2d9e a13f a30f f8bf b234 febe 2e5c 2abf

pos_wise_ff.fc2.bias f4 [2]
0.015723146 0.014566513
00000000: d4cd 803c 62a8 6e3c

pos_wise_ff.gate_norm.glu.fc.weight f4 [4, 2]
-0.120156646 -0.2976027 0.6418988 0.38559484 -0.124404594 -0.5209442 -0.5222144 0.9103774
00000000: b014 f6bd 625f 98be 7b53 243f b06c c53e
00000010: d6c7 febd 995c 05bf d8af 05bf 7e0e 693f

pos_wise_ff.gate_norm.glu.fc.bias f4 [4]
-0.014521018 0.01647613 0.0060977596 0.008718663
00000000: 90e9 6dbc f3f8 863c b7cf c73b b9d8 0e3c

pos_wise_ff.gate_norm.add_norm.norm.weight f4 [2]
0.8292689 1.1727458
00000000: f74a 543f 891c 963f

pos_wise_ff.gate_norm.add_norm.norm.bias f4 [2]
-0.17093645 -0.17270751
00000000: f709 2fbe 3dda 30be

pre_output_gate_norm.glu.fc.weight f4 [4, 2]
0.40740854 0.79464096 0.5376516 -0.08155623 0.81905097 -1.0456786 -0.34231448 0.5176185
00000000: da97 d03e 976d 4b3f 89a3 093f f406 a7bd
00000010: 53ad 513f ccd8 85bf d843 afbe a582 043f

pre_output_gate_norm.glu.fc.bias f4 [4]
-0.17626898 0.16422926 0.10505971 0.1341335
00000000: db7f 34be b72b 283e 8c29 d73d 4b5a 093e

pre_output_gate_norm.add_norm.norm.weight f4 [2]
0.79691774 1.160653
00000000: cd02 4c3f 4790 943f

pre_output_gate_norm.add_norm.norm.bias f4 [2]
-0.15603742 -0.094827004
00000000: 46c8 1fbe a934 c2bd

output_layer.weight f4 [1, 2]
0.41450647 0.18916643
00000000: 313a d43e d8b4 413e

exp_avg f4 [2, 6]
-1.4726978e-16 -1.2705379e-16 1.3948583e-16 -2.9513384e-17 2.1347503e-16 -1.7070792e-16 2.6813318e-16 2.3132584e-16
-2.539609e-16 5.3455336e-17 -3.7630519e-16 3.1097367e-16
00000000: 5eca 29a5 a97b 12a5 f3d0 2025 411b 08a4
00000010: b51e 7625 16d0 44a5 7991 9a25 ab59 8525
00000020: 0466 92a5 ec84 7624 d8ec d8a5 9d43 b325

exp_avg_sq f4 [2, 6]
1.971239e-24 1.4668386e-24 1.7682984e-24 6.190468e-26 1.29673705e-23 2.8647014e-24 1.3038902e-27 9.702514e-28
1.1696532e-27 6.943266e-29 2.5228336e-27 1.7821315e-27
00000000: 6984 1818 77fb e217 c2d0 0818 c144 9915
00000010: 4fd3 7a19 42a5 5d18 129c ce12 13be 9912
00000020: c556 b912 5f08 b010 25e1 4713 ec31 0d13

exp_avg f4 [2]
-2.7420116e-16 4.992361e-16
00000000: f310 9ea5 1fe5 0f26

exp_avg_sq f4 [2]
6.833066e-24 4.51978e-27
00000000: b42b 0419 040c b313

exp_avg f4 [2, 2]
-2.1480816e-16 -5.0542707e-17 5.816679e-16 1.4520325e-16
00000000: 2ea8 77a5 4c16 69a4 84a7 2726 6f68 2725

exp_avg_sq f4 [2, 2]
1.5212576e-24 1.2918309e-25 1.3231108e-25 2.398801e-26
00000000: 3967 eb17 c1eb 1f16 0ecb 2316 d590 ed14

exp_avg f4 [2]
-3.1710108e-16 8.6306813e-16
00000000: dccb b6a5 30c3 7826

exp_avg_sq f4 [2]
2.04101e-24 1.5407387e-25
00000000: 5eea 1d18 f5bb 3e16

exp_avg f4 [12, 2]
7.719148e-16 2.3743035e-16 7.050008e-16 2.1777957e-16 2.3329948e-16 6.088435e-17 -1.7497469e-15 -4.7180545e-16
2.3266356e-17 1.5618963e-17 -9.097461e-16 -2.8824494e-16 -2.3563763e-16 -5.7795864e-17 -2.0211606e-16 -4.869372e-17
6.857536e-17 1.7371736e-17 -1.2588612e-16 -3.0702132e-17 -1.4250602e-18 -1.0234871e-18 4.7964876e-16 1.2677476e-16
00000000: 427d 5e26 89de 8825 e133 4b26 2f15 7b25
00000010: ed7c 8625 c763 8c24 442a fca6 19fd 07a6
00000020: 2198 d623 3c0f 9023 b51b 83a6 7229 a6a5
00000030: fad5 87a5 a844 85a4 2206 69a5 668f 60a4
00000040: bf1f 9e24 da39 a023 0623 11a5 ae96 0da4
00000050: 414d d2a1 400a 97a1 d53f 0a26 4e29 1225

exp_avg_sq f4 [12, 2]
3.5062424e-29 6.1473806e-29 8.098784e-29 3.2835147e-29 1.6817459e-26 8.702911e-29 1.3833826e-23 1.3654438e-25
1.5033783e-25 4.221781e-27 5.6960956e-24 4.541578e-26 8.2345085e-29 2.0835228e-31 8.0442416e-29 8.684716e-33
1.6431216e-27 1.0337316e-29 1.1622765e-25 1.8301288e-27 2.4566952e-29 7.270872e-31 2.262706e-24 2.685166e-26
00000000: a1c9 3110 c8da 9b10 1d54 cd10 757e 2610
00000010: 538d a614 1fa5 dc10 e5ca 8519 a408 2916
00000020: f61b 3a16 f23d a713 665b dc18 57e3 6015
00000030: 04c5 d010 763a 870c 1df2 cb10 df5f 340a
00000040: 772e 0213 6aaa 510f 03e2 0f16 6cff 1013
00000050: 7423 f90f 0bf4 6b0d 8211 2f18 86f6 0415

exp_avg f4 [12]
7.176893e-16 6.584089e-16 1.8957046e-16 -1.4446188e-15 4.017516e-17 -8.720337e-16 -1.7982322e-16 -1.5200755e-16
5.395843e-17 -9.59585e-17 -3.1168155e-18 3.8867634e-16
00000000: 20dc 4e26 00c6 3d26 538f 5a25 0731 d0a6
00000010: 7546 3924 bb58 7ba6 7252 4fa5 b640 2fa5
00000020: dfd6 7824 e743 dda4 fbfa 65a2 810e e025

exp_avg_sq f4 [12]
4.7901835e-29 8.852092e-30 5.100856e-27 4.7160945e-24 6.6768694e-26 1.8617459e-24 1.355003e-29 1.7700058e-29
5.146634e-28 4.4031575e-26 1.1086153e-29 8.0233406e-25
00000000: 23e4 7210 b18a 330f d310 ca13 f071 b618
00000010: b04f a515 ad0b 1018 e469 890f fa7f b30f
00000020: 751a 2312 a708 5a15 99da 600f 744f 7817

exp_avg f4 [6]
5.569419e-16 5.233517e-16 -1.3383417e-16 -5.52126e-16 -4.0850994e-16 -5.3030493e-16
00000000: 0f87 2026 8ad8 1626 e04c 1aa5 b523 1fa6
00000010: 6d7d eba5 99d9 18a6

exp_avg_sq f4 [6]
3.8732323e-27 2.9407756e-27 1.4627197e-28 1.8575487e-24 1.01920564e-25 7.493769e-25
00000000: 3e6f 9913 04fe 6813 f86b 3911 8bb8 0f18
00000010: d557 fc15 c1eb 6717

exp_avg f4 [6]
7.1370313e-16 7.428583e-16 2.2532365e-16 -9.501598e-16 2.1025941e-16 -9.419846e-16
00000000: ffb5 4d26 451d 5626 e7e3 8125 b6ee 88a6
00000010: a069 7225 19c1 87a6

exp_avg_sq f4 [6]
1.2011485e-26 1.08414895e-26 2.5438026e-27 3.354097e-24 2.110929e-26 3.8035295e-24
00000000: 77e9 6d14 e2bc 5614 728a 4913 5ec1 8118
00000010: 690e d114 5524 9318

exp_avg f4 [2]
9.105004e-14 -9.1050025e-14
00000000: c606 cd29 c406 cda9

exp_avg_sq f4 [2]
1.0458666e-20 1.0458682e-20
00000000: 018f 451e 158f 451e

exp_avg f4 [2]
2.1956195e-16 -5.268351e-16
00000000: 4023 7d25 92d9 17a6

exp_avg_sq f4 [2]
2.2135845e-31 1.2160848e-30
00000000: 7bab 8f0c 3052 c50d

exp_avg f4 [2]
-1.5777947e-15 -3.786031e-15
00000000: 5a62 e3a6 f967 88a7

exp_avg_sq f4 [2]
3.7572703e-24 1.8894522e-23
00000000: 345a 9118 92bc b619

exp_avg f4 [2]
7.3863665e-14 -7.386367e-14
00000000: 8153 a629 8253 a6a9

exp_avg_sq f4 [2]
7.005289e-21 7.00529e-21
00000000: 8053 041e 8153 041e

exp_avg f4 [2]
1.4561833e-16 -3.4948384e-16
00000000: f2e2 2725 b676 c9a5

exp_avg_sq f4 [2]
8.8304893e-32 5.3432646e-31
00000000: ab40 e50b 1b66 2d0d

exp_avg f4 [2]
-1.4618869e-15 -3.5086864e-15
00000000: 1bae d2a6 d7d3 7ca7

exp_avg_sq f4 [2]
3.3001856e-24 1.6823402e-23
00000000: e956 7f18 bab4 a219

exp_avg f4 [2]
-2.2068354e-14 2.2068354e-14
00000000: 29c6 c6a8 29c6 c628

exp_avg_sq f4 [2]
1.772888e-21 1.772888e-21
00000000: a4f4 051d a4f4 051d

exp_avg f4 [2]
2.191592e-17 -5.297357e-17
00000000: 8123 ca23 274c 74a4

exp_avg_sq f4 [2]
2.6600421e-33 2.2483863e-32
00000000: d7fc 5c09 5c7c e90a

exp_avg f4 [2]
-3.8912802e-16 -9.404957e-16
00000000: 2951 e0a5 2b8a 87a6

exp_avg_sq f4 [2]
3.9049258e-25 2.79507e-24
00000000: 05b4 f116 1142 5818

exp_avg f4 [2]
2.8185587e-15 -2.8185587e-15
00000000: 3b19 4b27 3b19 4ba7

exp_avg_sq f4 [2]
1.3004251e-17 1.3004257e-17
00000000: d7e2 6f23 dee2 6f23

exp_avg f4 [2]
3.3312008e-19 3.3326468e-19
00000000: afa3 c420 89b9 c420

exp_avg_sq f4 [2]
2.6593852e-25 2.6568295e-25
00000000: a49b a416 2573 a416

exp_avg f4 [2]
1.6792576e-16 -1.6792477e-16
00000000: f09a 4125 a59a 41a5

exp_avg_sq f4 [2]
4.6105726e-20 4.6105713e-20
00000000: 67ba 591f 63ba 591f

exp_avg f4 [4, 1]
3.0324521e-19 -3.0415085e-19 -3.8985655e-22 4.4036543e-22
00000000: 1f01 b320 fa89 b3a0 61a7 eb9b a017 051c

exp_avg_sq f4 [4, 1]
1.509724e-25 1.5187798e-25 2.4948264e-31 3.1925467e-31
00000000: 10e5 3a16 0e04 3c16 6aec a10c 4835 cf0c

exp_avg f4 [4]
8.384753e-17 -8.410175e-17 -1.0944875e-19 1.2361616e-19
00000000: d856 c124 e9ec c1a4 db36 01a0 b1f0 1120

exp_avg_sq f4 [4]
1.14947215e-20 1.15648275e-20 1.9635005e-26 2.512378e-26
00000000: 1021 591e 1374 5a1e a774 c214 59d0 f814

exp_avg f4 [2]
1.2643095e-15 -3.0454299e-15
00000000: ca34 b626 4472 5ba7

exp_avg_sq f4 [2]
1.5672243e-24 8.722083e-24
00000000: 2784 f217 aab5 2819

exp_avg f4 [2]
-1.2668558e-15 -3.051555e-15
00000000: bb92 b6a6 41e3 5ba7

exp_avg_sq f4 [2]
3.6518833e-24 2.1879176e-23
00000000: 8046 8d18 379a d319

exp_avg f4 [2]
1.2342344e-18 -1.234227e-18
00000000: 0f24 b621 c723 b6a1

exp_avg_sq f4 [2]
5.0772944e-21 5.0772915e-21
00000000: 94d0 bf1d 8dd0 bf1d

exp_avg f4 [2]
6.558803e-20 6.556586e-20
00000000: 88dd 9a1f 21d0 9a1f

exp_avg_sq f4 [2]
5.8890867e-33 5.782741e-33
00000000: 839f f409 a634 f009

exp_avg f4 [2]
-6.012641e-20 6.0362814e-20
00000000: 2ff8 8d9f 1587 8e1f

exp_avg_sq f4 [2]
4.5947805e-25 4.5947657e-25
00000000: 9a33 0e17 7c33 0e17

exp_avg f4 [4, 1]
9.3885723e-20 -8.05165e-20 3.8750633e-21 -8.670831e-21
00000000: 70ae dd1f 3d1d be9f 5065 921d 91c9 239e

exp_avg_sq f4 [4, 1]
7.06297e-30 2.7226556e-30 8.5698987e-32 4.613548e-31
00000000: 0941 0f0f 58e3 5c0e bf7c de0b dbb7 150d

exp_avg f4 [4]
7.9224564e-21 3.034723e-20 1.10903425e-20 -2.4815934e-20
00000000: a6a6 151e 8d4f 0f1f 9b7d 511e 3f61 ea9e

exp_avg_sq f4 [4]
1.1439607e-25 1.1487134e-25 3.8710363e-32 2.596438e-31
00000000: 909d 0d16 2e34 0e16 e6fe 480b ba84 a80c

exp_avg f4 [2]
-1.0276003e-16 2.4650085e-16
00000000: d1f2 eca4 1b19 8e25

exp_avg_sq f4 [2]
1.5053317e-26 7.5404724e-26
00000000: b114 9514 6cb1 ba15

exp_avg f4 [2]
-1.0299657e-16 -2.4702652e-16
00000000: 727e eda4 ae66 8ea5

exp_avg_sq f4 [2]
1.6042305e-26 7.536521e-26
00000000: 13e0 9e14 6098 ba15

exp_avg f4 [2]
3.4694912e-15 -3.469494e-15
00000000: d100 7a27 de00 7aa7

exp_avg_sq f4 [2]
9.546791e-22 9.546796e-22
00000000: 5c44 901c 6144 901c

exp_avg f4 [2]
-1.492255e-18 -1.492108e-18
00000000: cd37 dca1 3f32 dca1

exp_avg_sq f4 [2]
6.412894e-30 6.415197e-30
00000000: a611 020f 9b1d 020f

exp_avg f4 [2]
3.5217426e-17 -3.5216454e-17
00000000: 6669 2224 4068 22a4

exp_avg_sq f4 [2]
9.200168e-26 9.199423e-26
00000000: fec8 e315 45c4 e315

exp_avg f4 [4, 1]
-1.0626663e-18 1.0465213e-18 3.7469337e-20 4.4654263e-20
00000000: 66d2 9ca1 7570 9a21 a6f1 301f b1df 521f

exp_avg_sq f4 [4, 1]
6.582652e-28 6.3774806e-28 8.710391e-31 1.2370803e-30
00000000: d19c 5012 451c 4a12 8c55 8d0d 4eba c80d

exp_avg f4 [4]
1.7694249e-17 -1.7594264e-17 -2.3101438e-19 -2.7531e-19
00000000: 5d33 a323 4847 a2a3 e85d 88a0 ac83 a2a0

exp_avg_sq f4 [4]
2.3628564e-26 2.2896846e-26 3.10766e-29 4.4136076e-29
00000000: 8701 ea14 67c2 e214 bc93 1d10 e7cb 5f10

exp_avg f4 [2]
1.2481515e-15 -2.9987596e-15
00000000: aae0 b326 5a15 58a7

exp_avg_sq f4 [2]
2.3324919e-24 1.2760197e-23
00000000: c377 3418 6fd1 7619

exp_avg f4 [2]
-1.2495873e-15 -3.0022013e-15
00000000: a215 b4a6 d754 58a7

exp_avg_sq f4 [2]
2.3556343e-24 1.2884621e-23
00000000: 2542 3618 8e39 7919

exp_avg f4 [2, 3]
1.12778026e-13 5.1574776e-14 9.7905455e-14 -5.476039e-13 -2.4522474e-13 -4.632887e-13
00000000: 1bf4 fd29 ab45 6829 a776 dc29 0523 1aab
00000010: 9c0c 8aaa 7867 02ab

exp_avg_sq f4 [2, 3]
9.619866e-23 3.0600956e-23 1.1357686e-22 2.1011953e-21 6.488514e-22 2.3056197e-21
00000000: 1698 e81a 26fa 131a 564e 091b 07c3 1e1d
00000010: 721a 441c 2c35 2e1d

exp_avg f4 [2]
-1.6732821e-13 7.9228605e-13
00000000: 1365 3caa 3a02 5f2b

exp_avg_sq f4 [2]
3.2811037e-22 6.7770875e-21
00000000: 9f54 c61b fc03 001e

exp_avg f4 [2, 2]
1.6730519e-13 -1.6814283e-13 -7.9222734e-13 7.9598676e-13
00000000: 705e 3c2a df4f 3daa fffd 5eab e40c 602b

exp_avg_sq f4 [2, 2]
3.262826e-22 3.262904e-22 6.751372e-21 6.7515338e-21
00000000: c939 c51b fe3a c51b 430f ff1d d410 ff1d

exp_avg f4 [2, 2]
1.560046e-13 -2.3700177e-13 7.195596e-13 -9.704425e-13
00000000: 44a5 2f2a 8e6b 85aa bc89 4a2b e093 88ab

exp_avg_sq f4 [2, 2]
1.7687676e-22 4.42797e-22 7.927558e-21 1.2652184e-20
00000000: b5d4 551b c2d3 051c 51bf 151e 35fe 6e1e

exp_avg f4 [2]
-2.7298625e-13 -1.211003e-12
00000000: 77ad 99aa fb6e aaab

exp_avg_sq f4 [2]
5.243144e-22 2.2104405e-20
00000000: dd76 1e1c 2cc5 d01e

exp_avg f4 [6, 2]
-5.4541256e-13 -9.599917e-13 1.179692e-13 6.867878e-13 5.2636096e-13 4.2747799e-13 -1.6595449e-13 -8.718303e-14
-5.159005e-14 -1.1298162e-13 -1.9818923e-14 -3.1350126e-14
00000000: 1e85 19ab 591b 87ab 4fd2 042a 4750 412b
00000010: 4e28 142b 12a6 f02a 20d9 3aaa 9851 c4a9
00000020: 4757 68a9 7869 fea9 5383 b2a8 3c30 0da9

exp_avg_sq f4 [6, 2]
4.2728366e-21 1.2191534e-20 1.1299168e-21 9.0781925e-21 1.5535282e-20 5.243201e-21 4.2911115e-22 1.392388e-22
3.3610432e-22 1.7052607e-22 4.1675092e-23 1.5742112e-23
00000000: 576c a11d a44a 661e 8abf aa1c 727b 2b1e
00000010: 02ba 921e 2115 c61d deb0 011c 5254 281b
00000020: a029 cb1b 4327 4e1b 4487 491a 953f 9819

exp_avg f4 [6]
1.683039e-12 -1.1884545e-12 -7.7852075e-13 1.53977e-13 1.9511023e-13 4.812836e-14
00000000: dfdd ec2b 9642 a7ab 5522 5bab d95c 2d2a
00000010: b2ac 5b2a 39c0 5829

exp_avg_sq f4 [6]
4.083695e-20 3.4414284e-20 1.2882664e-20 3.4735701e-22 5.3116087e-22 3.7866674e-23
00000000: d8d8 401f 5184 221f be58 731e e5f6 d11b
00000010: 9588 201c ac1c 371a

exp_avg f4 [3]
3.6168095e-13 -9.9835884e-14 4.7985057e-14
00000000: b89b cb2a 78cf e0a9 011b 5829

exp_avg_sq f4 [3]
8.30313e-21 1.0954945e-22 2.1480392e-22
00000000: 79d7 1c1e ea6f 041b 4cd7 811b

exp_avg f4 [3]
4.4574452e-13 -2.7364848e-13 -1.7209598e-13
00000000: 8eee fa2a e70c 9aaa 4ac3 41aa

exp_avg_sq f4 [3]
6.7263835e-21 2.117772e-21 1.4017363e-21
00000000: 971d fe1d ab03 201d 0cd3 d31c

exp_avg f4 [2]
-4.451972e-12 4.451972e-12
00000000: cda3 9cac cda3 9c2c

exp_avg_sq f4 [2]
1.0657723e-20 1.0657724e-20
00000000: 9651 491e 9751 491e

exp_avg f4 [2]
1.4771887e-14 1.4770865e-14
00000000: a70d 8528 4c0b 8528

exp_avg_sq f4 [2]
5.513919e-26 5.5143485e-26
00000000: 9d84 8815 5687 8815

exp_avg f4 [2]
1.9495373e-12 -1.949536e-12
00000000: be2f 092c b82f 09ac

exp_avg_sq f4 [2]
6.1307506e-20 6.1307506e-20
00000000: 1dc2 901f 1dc2 901f

exp_avg f4 [4, 1]
6.746176e-15 -6.786408e-15 2.5799823e-17 -8.861775e-18
00000000: 7e0e f327 9181 f4a7 1cf6 ed23 8d78 23a3

exp_avg_sq f4 [4, 1]
6.6844144e-27 6.582062e-27 8.399578e-31 1.1686628e-33
00000000: 0266 0414 055f 0214 7b4a 880d 6b2d c208

exp_avg f4 [4]
9.722173e-13 -9.764156e-13 2.3980447e-15 -1.2171262e-15
00000000: d2d3 882b 146b 89ab 1ecc 2c27 0868 afa6

exp_avg_sq f4 [4]
1.5326956e-20 1.5326825e-20 1.8048454e-27 7.7269477e-29
00000000: 4ec2 901e fdc1 901e 9dfe 0e13 c2e6 c310

exp_avg f4 [2]
2.1554545e-13 1.04623e-12
00000000: bfae 722a 693e 932b

exp_avg_sq f4 [2]
2.0840024e-21 1.7432195e-20
00000000: 7876 1d1d 76a4 a41e

exp_avg f4 [2]
2.0278793e-13 1.0150167e-13
00000000: a451 642a bb8f e429

exp_avg_sq f4 [2]
1.957136e-21 8.857044e-21
00000000: 84e0 131d 094e 271e

exp_avg f4 [2]
-1.2877272e-15 1.2877289e-15
00000000: c094 b9a6 d094 b926

exp_avg_sq f4 [2]
7.314834e-19 7.3148347e-19
00000000: 53e5 5721 54e5 5721

exp_avg f4 [2]
-6.7154286e-18 -6.7138565e-18
00000000: 6ec1 f7a2 95b2 f7a2

exp_avg_sq f4 [2]
1.8705295e-25 1.8694418e-25
00000000: 728f 6716 fa6c 6716

exp_avg f4 [2]
3.005563e-17 -3.0050813e-17
00000000: 6d9b 0a24 bd95 0aa4

exp_avg_sq f4 [2]
3.0379892e-22 3.0380263e-22
00000000: 9ba2 b71b 2ea3 b71b

exp_avg f4 [4, 1]
5.2490433e-18 -4.5285533e-18 -3.9166798e-19 2.0058658e-20
00000000: d0a7 c122 fa12 a7a2 3133 e7a0 dc72 bd1e

exp_avg_sq f4 [4, 1]
8.352046e-24 6.193447e-24 4.7555278e-26 1.2753424e-28
00000000: 548d 2119 ee98 ef18 7a7b 6b15 3aab 2111

exp_avg f4 [4]
1.7225331e-17 -1.4870108e-17 -1.2799035e-18 6.5535626e-20
00000000: 2ae0 9e23 0d27 89a3 63e1 bca1 dbbd 9a1f

exp_avg_sq f4 [4]
9.7094717e-23 7.456624e-23 4.935842e-25 1.3230367e-27
00000000: b8c2 ea1a 444a b41a c5c1 1817 bfa4 d112

exp_avg f4 [2]
-1.1515231e-13 -2.298552e-13
00000000: 65a6 01aa a065 81aa

exp_avg_sq f4 [2]
1.6808604e-22 6.376504e-22
00000000: 1c34 4b1b cfb7 401c

exp_avg f4 [2]
1.1515437e-13 -2.2986032e-13
00000000: fda6 012a 5d66 81aa

exp_avg_sq f4 [2]
1.7267708e-22 6.784511e-22
00000000: f8c0 501b 9d0c 4d1c

exp_avg f4 [2]
-5.287079e-15 5.287078e-15
00000000: b27c bea7 b07c be27

exp_avg_sq f4 [2]
2.7991806e-21 2.7991806e-21
00000000: 0780 531d 0780 531d

exp_avg f4 [2]
-1.3647503e-17 -1.3644002e-17
00000000: 83c0 7ba3 faaf 7ba3

exp_avg_sq f4 [2]
1.12030435e-29 1.1201214e-29
00000000: 8739 630f 0730 630f

exp_avg f4 [2]
6.895589e-17 -6.893701e-17
00000000: 5f00 9f24 3af5 9ea4

exp_avg_sq f4 [2]
3.3778585e-25 3.3778595e-25
00000000: 4e14 d116 5214 d116

exp_avg f4 [4, 1]
2.315439e-18 -2.4355657e-18 -2.232422e-20 6.5106313e-20
00000000: 68d9 2a22 89b6 33a2 a7d8 d29e 5aba 991f

exp_avg_sq f4 [4, 1]
7.6813835e-31 8.589762e-31 8.7494777e-35 7.458767e-34
00000000: 7046 790d 7a60 8b0d dc99 e806 2cdc 7708

exp_avg f4 [4]
3.338354e-17 -3.503262e-17 -3.0715351e-19 8.957061e-19
00000000: 54f4 1924 388f 21a4 ba4f b5a0 d22e 8421

exp_avg_sq f4 [4]
8.42408e-26 8.455275e-26 1.3589776e-32 1.1581205e-31
00000000: f391 d015 ac57 d115 d21f 8d0a 2855 160c

exp_avg f4 [2]
-3.5910185e-14 -6.212577e-14
00000000: a0b9 21a9 11e5 8ba9

exp_avg_sq f4 [2]
4.892741e-23 3.592532e-22
00000000: 3399 6c1a bd27 d91b

exp_avg f4 [2]
3.5913448e-14 -6.2135525e-14
00000000: 63bd 2129 b1ea 8ba9

exp_avg_sq f4 [2]
4.8939173e-23 3.593426e-22
00000000: c3a7 6c1a 9335 d91b

exp_avg f4 [2, 2]
3.0479903e-11 8.1707065e-11 -7.399903e-11 -1.6989954e-10
00000000: 520d 062e fdac b32e c0b9 a2ae 78ce 3aaf

exp_avg_sq f4 [2, 2]
1.1922358e-20 9.914229e-21 6.08176e-21 3.2127475e-20
00000000: fc34 611e 4546 3b1e 2cc3 e51d bcb7 171f

exp_avg f4 [2]
-3.2730316e-10 6.7488976e-10
00000000: d3ef b3af 2583 3930

exp_avg_sq f4 [2]
1.6142773e-19 5.1754933e-19
00000000: 8a94 3e20 ecc0 1821

exp_avg f4 [2, 2]
3.2755987e-10 -3.2803202e-10 -6.7541783e-10 6.7640576e-10
00000000: f413 b42f 6756 b4af 4ea8 39b0 d3ed 3930

exp_avg_sq f4 [2, 2]
1.6151292e-19 1.6182666e-19 5.183862e-19 5.197747e-19
00000000: 49ae 3e20 1b0d 3f20 2700 1921 1169 1921

exp_avg f4 [2, 2]
6.002288e-10 3.8242673e-10 -6.6956076e-12 -1.4935023e-13
00000000: 59fd 2430 c73d d22f ac94 ebac 4627 28aa

exp_avg_sq f4 [2, 2]
4.2936684e-19 1.6459487e-19 3.0803537e-20 1.6914076e-21
00000000: 1574 fd20 bf51 4220 3177 111f 2a99 ff1c

exp_avg f4 [2]
5.3674515e-10 -9.01807e-12
00000000: 158a 1330 c7a5 1ead

exp_avg_sq f4 [2]
3.5358342e-19 6.023007e-20
00000000: 04b8 d020 d836 8e1f

exp_avg f4 [4, 2]
-1.0517966e-10 4.3054674e-12 1.01022746e-10 -4.4052375e-12 8.649677e-12 -4.1517763e-13 1.0313809e-11 -7.070369e-13
00000000: e24a e7ae 347c 972c c026 de2e dafe 9aac
00000010: af2a 182d 67b9 e9aa 4471 352d 6103 47ab

exp_avg_sq f4 [4, 2]
1.2883116e-20 9.42107e-21 1.1920286e-20 9.579077e-21 9.751735e-23 1.5333435e-22 1.517142e-22 4.0173596e-22
00000000: ed5a 731e 80f5 311e f72a 611e 93f1 341e
00000010: 51c8 eb1a af5e 391b 4569 371b a1d5 f21b

exp_avg f4 [4]
-4.1429749e-10 3.9794026e-10 3.2252208e-11 3.7847992e-11
00000000: 30c3 e3af 1dc5 da2f c2d8 0d2e 0d75 262e

exp_avg_sq f4 [4]
2.1074663e-19 1.9642661e-19 1.4371489e-21 2.2744183e-21
00000000: 43ce 7820 4de6 6720 012d d91c a6d9 2b1d

exp_avg f4 [2]
-1.2949662e-11 -1.2949641e-11
00000000: 18d0 63ad 00d0 63ad

exp_avg_sq f4 [2]
1.8791027e-17 1.879102e-17
00000000: 0f51 ad23 0b51 ad23

exp_avg f4 [2]
1.1143619e-11 -1.1143615e-11
00000000: 660a 442d 610a 44ad

exp_avg_sq f4 [2]
1.8827218e-17 1.8827216e-17
00000000: 83a6 ad23 82a6 ad23

exp_avg f4 [2]
-8.0939914e-11 8.093994e-11
00000000: 1ffd b1ae 23fd b12e

exp_avg_sq f4 [2]
2.6092533e-14 2.6092533e-14
00000000: 4905 eb28 4905 eb28

exp_avg f4 [2]
-2.5835525e-12 -2.5835757e-12
00000000: 25cd 35ac 90cd 35ac

exp_avg_sq f4 [2]
8.429239e-20 8.4294054e-20
00000000: a007 c71f a108 c71f

exp_avg f4 [2]
8.865511e-11 -8.86551e-11
00000000: 64f4 c22e 62f4 c2ae

exp_avg_sq f4 [2]
8.123429e-17 8.123429e-17
00000000: 4350 bb24 4350 bb24

exp_avg f4 [4, 1]
9.664615e-13 -9.783264e-13 1.5271138e-14 1.35595186e-14
00000000: 7204 882b ecaf 89ab d98c 8928 3e44 7428

exp_avg_sq f4 [4, 1]
1.323932e-20 1.3933568e-20 1.5299194e-23 1.2287045e-23
00000000: 6c15 7a1e 4d99 831e f8f6 9319 80aa 6d19

exp_avg f4 [4]
4.4160738e-11 -4.470299e-11 6.9786803e-13 6.1964366e-13
00000000: 9238 422e 189b 44ae b16e 442b 086a 2e2b

exp_avg_sq f4 [4]
2.0207356e-17 2.0596713e-17 6.905236e-21 5.5380683e-21
00000000: 4561 ba23 9df8 bd23 ac6f 021e e938 d11d

exp_avg f4 [2]
-2.9975564e-12 -2.4898352e-12
00000000: 2def 52ac e234 2fac

exp_avg_sq f4 [2]
1.7765987e-17 2.1214789e-17
00000000: c0dc a323 01ac c323

exp_avg f4 [2]
-8.305913e-12 8.342324e-12
00000000: 821e 12ad 7dc2 122d

exp_avg_sq f4 [2]
2.4408697e-17 2.8066404e-17
00000000: 6821 e123 f66e 0124

exp_avg f4 [2]
6.345794e-15 -6.3458506e-15
00000000: 9ea1 e427 24a2 e4a7

exp_avg_sq f4 [2]
5.718689e-12 5.71869e-12
00000000: 5f35 c92c 6135 c92c

exp_avg f4 [2]
6.613134e-16 6.5199885e-16
00000000: 519c 3e26 06ed 3b26

exp_avg_sq f4 [2]
3.0937806e-26 3.0839836e-26
00000000: 5432 1915 23b6 1815

exp_avg f4 [2]
4.9501754e-16 -4.786851e-16
00000000: d9ad 0e26 baf8 09a6

exp_avg_sq f4 [2]
1.1303595e-14 1.13036005e-14
00000000: a2a0 4b28 a8a0 4b28

exp_avg f4 [4, 1]
5.274336e-17 -5.692664e-17 1.9075258e-18 5.1691158e-18
00000000: 5e3c 7324 8f43 83a4 25c0 0c22 ebb4 be22

exp_avg_sq f4 [4, 1]
6.9033834e-26 7.4396326e-26 7.787523e-30 1.2536012e-28
00000000: 64eb aa15 4632 b815 22f3 1d0f afe9 1e11

exp_avg f4 [4]
2.7358563e-16 -2.4411325e-16 9.3559884e-18 -8.8929485e-18
00000000: 1db6 9d25 c2b8 8ca5 6896 2c23 c30b 24a3

exp_avg_sq f4 [4]
2.8259124e-15 2.8259027e-15 8.0658533e-28 1.3046263e-26
00000000: e2a0 4b27 b4a0 4b27 fa9d 7f12 3534 8114

exp_avg f4 [2]
-2.6739753e-11 -2.8779815e-11
00000000: 9234 ebad 6226 fdad

exp_avg_sq f4 [2]
9.729962e-17 1.10918594e-16
00000000: 8f5b e024 c8c2 ff24

exp_avg f4 [2]
-2.6739425e-11 2.8779463e-11
00000000: d533 ebad 9725 fd2d

exp_avg_sq f4 [2]
9.7396666e-17 1.1103932e-16
00000000: d894 e024 0605 0025

exp_avg f4 [2, 2]
-2.2935615e-15 2.2940526e-15 2.483447e-15 -2.4839794e-15
00000000: be44 25a7 cd4d 2527 83f3 3227 55fd 32a7

exp_avg_sq f4 [2, 2]
6.591145e-26 6.591151e-26 1.1590943e-25 1.159095e-25
00000000: 5830 a315 6230 a315 2a7d 0f16 307d 0f16

exp_avg f4 [2]
4.9557607e-15 -5.3680302e-15
00000000: d38c b227 5767 c1a7

exp_avg_sq f4 [2]
2.994919e-23 4.9179346e-23
00000000: 4dd3 101a 15d1 6d1a

exp_avg f4 [2, 2]
2.2557188e-15 2.6675287e-15 1.277375e-15 1.5105759e-15
00000000: ab8a 2227 3837 4027 d216 b826 6ab2 d926

exp_avg_sq f4 [2, 2]
8.601752e-26 1.2016926e-25 7.572913e-27 1.0579602e-26
00000000: 15f8 d415 29c3 1416 3bff 1514 f58c 5114

exp_avg f4 [2]
3.1258015e-15 1.7684802e-15
00000000: dc3c 6127 67dd fe26

exp_avg_sq f4 [2]
1.525602e-23 1.7653285e-24
00000000: 138c 9319 ef95 0818

exp_avg f4 [4, 2]
-1.71526e-15 1.8096615e-15 2.1116345e-15 -2.216344e-15 1.2944344e-16 -1.4002864e-16 1.073508e-16 -1.2727999e-16
00000000: ed31 f7a6 5d66 0227 c828 1827 55b4 1fa7
00000010: f63c 1525 2971 21a5 ba88 f724 6cbe 12a5

exp_avg_sq f4 [4, 2]
7.105779e-26 2.275655e-26 7.568098e-26 2.2907148e-26 5.8704967e-30 8.523005e-30 6.2068983e-30 7.283257e-29
00000000: 3aee af15 b55e e114 8560 bb15 85dc e214
00000010: b922 ee0e f9dd 2c0f 1ec8 fb0e 0aa7 b810

exp_avg f4 [4]
1.8764435e-15 -2.2892226e-15 -1.4224321e-16 -1.2967516e-16
00000000: 4636 0727 b4f4 24a7 c9fe 23a5 5a81 15a5

exp_avg_sq f4 [4]
2.7101902e-24 2.773958e-24 8.337869e-28 5.7822484e-27
00000000: d9b0 5118 e69f 5618 6a1e 8412 f70e e513

exp_avg f4 [2]
6.445758e-11 -1.945895e-10
00000000: 64be 8d2e 13f4 55af

exp_avg_sq f4 [2]
1.510026e-20 5.0789604e-20
00000000: 309e 8e1e ddd8 6f1f

exp_avg f4 [2]
-6.445854e-11 -1.945923e-10
00000000: efbe 8dae ddf4 55af

exp_avg_sq f4 [2]
1.5117748e-20 5.0805165e-20
00000000: 79c8 8e1e adeb 6f1f

exp_avg f4 [2, 2]
-6.307044e-24 6.3081534e-24 2.6668427e-23 -2.6673113e-23
00000000: f0fd f398 ed08 f418 eaf5 001a b7fb 009a

exp_avg_sq f4 [2, 2]
1e-45 1e-45 4e-45 4e-45
00000000: 0100 0000 0100 0000 0300 0000 0300 0000

exp_avg f4 [2]
1.2350817e-23 -5.222469e-23
00000000: 49e6 6e19 098b 7c9a

exp_avg_sq f4 [2]
2.54e-43 4.37e-43
00000000: b500 0000 3801 0000

exp_avg f4 [2, 2]
6.0994307e-24 -8.0479693e-25 3.055726e-23 -4.0317742e-24
00000000: d6f5 eb18 9512 7997 0ec4 131a c2f8 9b98

exp_avg_sq f4 [2, 2]
0.0 0.0 7e-45 0.0
00000000: 0000 0000 0000 0000 0500 0000 0000 0000

exp_avg f4 [2]
-7.600874e-24 -3.8079916e-23
00000000: b405 1399 a724 389a

exp_avg_sq f4 [2]
1e-45 1.64e-43
00000000: 0100 0000 7500 0000

exp_avg f4 [4, 2]
1.04187794e-23 5.496801e-23 -8.068182e-24 -4.253024e-23 -3.8785553e-24 -2.05184e-23 -2.9375896e-24 -1.5536458e-23
00000000: 4c87 4919 8de7 841a b40f 1c99 e3a9 4d9a
00000010: 5a0b 9698 1971 c699 f548 6398 6842 9699

exp_avg_sq f4 [4, 2]
0.0 2.4e-44 0.0 1.8e-44 0.0 1e-45 0.0 1e-45
00000000: 0000 0000 1100 0000 0000 0000 0d00 0000
00000010: 0000 0000 0100 0000 0000 0000 0100 0000

exp_avg f4 [4]
3.518677e-23 -2.7247596e-23 -1.3099667e-23 -9.921025e-24
00000000: 1d27 2a1a e4c2 039a 6962 7d99 89e6 3f99

exp_avg_sq f4 [4]
1.23e-43 1.12e-43 1e-45 0.0
00000000: 5800 0000 5000 0000 0100 0000 0000 0000

exp_avg f4 [2]
-1.3614878e-17 3.6885563e-18
00000000: 7226 7ba3 6e15 8822

exp_avg_sq f4 [2]
8.492611e-34 1.2624497e-34
00000000: 921b 8d08 f0ce 2707

exp_avg f4 [2]
1.36149545e-17 3.6885766e-18
00000000: ce26 7b23 9f15 8822

exp_avg_sq f4 [2]
8.492736e-34 1.2625014e-34
00000000: 1b1c 8d08 b2d0 2707

exp_avg f4 [2, 2]
7.726787e-22 -7.7281494e-22 -1.1805191e-21 1.1807272e-21
00000000: 1e87 691c a991 699c 1f65 b29c 2c6d b21c

exp_avg_sq f4 [2, 2]
1.43158e-40 1.4316e-40 1.120247e-39 1.12025e-39
00000000: 118f 0100 128f 0100 cb32 0c00 cd32 0c00

exp_avg f4 [2]
-1.5132803e-21 2.3122303e-21
00000000: 32ae e49c 0ab5 2e1d

exp_avg_sq f4 [2]
4.2452146e-38 3.4399046e-37
00000000: a821 6701 971b ea02

exp_avg f4 [2, 2]
1.522958e-23 8.2831916e-23 -1.2453671e-23 -6.7734033e-23
00000000: 9d4a 9319 7946 c81a 98e3 7099 56c5 a39a

exp_avg_sq f4 [2, 2]
2.16e-43 5.808e-42 0.0 3.1e-44
00000000: 9a00 0000 3110 0000 0000 0000 1600 0000

exp_avg f4 [2]
-1.2316882e-21 1.0070017e-21
00000000: a120 ba9c 7e2c 981c

exp_avg_sq f4 [2]
9.656462e-38 2.7729e-41
00000000: dc6f 0302 4c4d 0000

exp_avg f4 [4, 2]
-7.781116e-23 2.1124655e-25 7.997626e-23 -2.171244e-25 -5.2202717e-24 1.4173476e-26 -4.9825993e-24 1.3528142e-26
00000000: c622 bc9a 5ac1 8216 e85e c11a bc64 8696
00000010: 11f3 c998 085e 8c14 46c1 c098 eaf9 8514

exp_avg_sq f4 [4, 2]
5.054e-42 0.0 5.094e-42 0.0 0.0 0.0 0.0 0.0
00000000: 170e 0000 0000 0000 330e 0000 0000 0000
00000010: 0000 0000 0000 0000 0000 0000 0000 0000

exp_avg f4 [4]
-5.850448e-22 6.013183e-22 -3.9243104e-23 -3.745629e-23
00000000: a6d1 309c c0bc 351c 9cc4 3d9a a420 359a

exp_avg_sq f4 [4]
2.1566555e-38 2.1703245e-38 1.202e-42 1.076e-42
00000000: c8d6 ea00 d153 ec00 5a03 0000 0003 0000

exp_avg f4 [2]
1.8067416e-17 3.6874988e-18
00000000: 7ba4 a623 710b 8822

exp_avg_sq f4 [2]
1.44047695e-33 8.561648e-34
00000000: 1d57 ef08 3941 8e08
