checkpoints/epoch=0-step=1491.ckpt (torch, 360649 bytes, 689 tensors)

input_embeddings.embeddings.router_id.weight f4 [5, 4]
00000000: 17a1 2940 4b1b 92bd ba68 7abd 5fec 1e3f
00000010: 43c0 4ebf 7617 b4bf faf3 f23f b5d1 c1bf
00000020: 1067 893f 723d 093f b859 75bf 831a e7be
00000030: 9d30 86bf 8cdd 303e 0a12 0fbf 9174 413f
00000040: c8e5 e1bd 1700 bc3f 6e7b c2be 086e e9bf
2.6504571 -0.07134112 -0.06113503 0.62079424 -0.8076212 -1.406966 1.8980706 -1.5142123
1.0734577 0.53609383 -0.95840025 -0.45137414 -1.0483586 0.17272013 -0.558869 0.7556849
-0.110301554 1.4687527 -0.37984794 -1.8236704

input_embeddings.embeddings.location.weight f4 [5, 4]
00000000: d3a3 db3f c354 f3bd 58eb 1440 1909 e33f
00000010: 7065 17c0 d66f 20bf fdfe ce3f cb95 09bf
00000020: d2f4 5dbf a4ed fa3e 876b 523f f190 c4bf
00000030: 3434 62be 1209 083f 8d8f 71bf 2bae babe
00000040: 7434 cc3e 198a 843f 92f2 3540 ba13 933e
1.715937 -0.118814014 2.3268642 1.7737151 -2.3655663 -0.6267065 1.6171566 -0.5374419
-0.8670169 0.4900943 0.82195324 -1.5356733 -0.22090226 0.5313884 -0.94359666 -0.36461005
0.3988377 1.0354644 2.8429303 0.28725988

prescalers.encoder_length.weight f4 [4, 1]
00000000: 4bf6 2fbe fc97 23bf c981 33be 6b36 593f
-0.17183797 -0.63903785 -0.17529978 0.8484866

prescalers.encoder_length.bias f4 [4]
00000000: fccc 74bf 20a8 4dbf 70b8 74bf e0f5 143f
-0.9562528 -0.80334663 -0.9559393 0.58187675

prescalers.bandwidth_mbps_scaled_center.weight f4 [4, 1]
00000000: 91d0 ff3d 4b6e 403f f686 24bf 8d3b 933f
0.12490953 0.75168294 -0.64268434 1.1502548

prescalers.bandwidth_mbps_scaled_center.bias f4 [4]
00000000: fc5a b4be 5248 5abf 22c8 8f3e 2ef9 af3e
-0.35225666 -0.852666 0.28082377 0.34369797

prescalers.bandwidth_mbps_scaled_scale.weight f4 [4, 1]
00000000: 52dc 61be 9656 193f f041 31bf 5421 8a3f
-0.22056702 0.59897745 -0.6924124 1.0791421

prescalers.bandwidth_mbps_scaled_scale.bias f4 [4]
00000000: 4049 93be 2aab bbbe a0ca c43e 47c1 473f
-0.28766823 -0.36654025 0.3843584 0.7802929

prescalers.time_idx.weight f4 [4, 1]
00000000: 9b12 eabe 5883 d6be b2ea f2be dc7f ebbe
-0.4571732 -0.41897082 -0.47444683 -0.45995986

prescalers.time_idx.bias f4 [4]
00000000: 865f 14bf 02ca 0ebf 47d1 5bbf 1b14 243f
-0.5795826 -0.5577699 -0.85866207 0.6409318

prescalers.relative_time_idx.weight f4 [4, 1]
00000000: 1dff 2b3f d723 8cbf 5b7a 8abf 581a 03bf
0.67186147 -1.0948437 -1.081859 -0.5121207

prescalers.relative_time_idx.bias f4 [4]
00000000: 9ca1 523f df7f efbe 4fe3 f3be 88dc e3bb
0.82277846 -0.46777245 -0.4763436 -0.0069537796

prescalers.bandwidth_mbps_scaled.weight f4 [4, 1]
00000000: 3c92 9cbe 2d4f 99bf ced2 7abf ac86 bbbf
-0.30580318 -1.1977288 -0.9797791 -1.4650474

prescalers.bandwidth_mbps_scaled.bias f4 [4]
00000000: 5160 41bf a959 29bf e481 8a3e 8fcf c03e
-0.7553759 -0.66152436 0.27052224 0.37658355

static_variable_selection.flattened_grn.resample_norm.mask f4 [6]
00000000: 516e 6a3d 49e6 7c3e 7caa 513d d6ce 66bf
00000010: 6428 323f 4ece 0fbd
0.057234112 0.24697222 0.051187977 -0.90159357 0.6959288 -0.035108857

static_variable_selection.flattened_grn.resample_norm.norm.weight f4 [6]
00000000: b513 883f cc86 5c3f ae02 993f ed06 653f
00000010: 73fe c43f 7ab2 933f
1.0631014 0.86143184 1.1953943 0.8946369 1.5390152 1.1538842

static_variable_selection.flattened_grn.resample_norm.norm.bias f4 [6]
00000000: 5b0f a03d 8702 e13d fb04 a2be 482d e1bd
00000010: d59c 9cbe daf6 123e
0.07815429 0.1098681 -0.31644425 -0.10994965 -0.30588403 0.14351979

static_variable_selection.flattened_grn.fc1.weight f4 [6, 21]
00000000: 9f2e c7be 4e95 39be b040 0b3f d581 21bc
00000010: b8d7 a13e 5b73 ec3e 0b37 dd3d 55e1 253c
00000020: 79e8 2fbe 9dcb 01be 899d 473f e6e8 9b3e
00000030: aab7 ddbe ba16 223f dacf 01bc 34be 43be
00000040: 0c0d 92bd a46b 23be 2058 d23c ebf1 01bf
00000050: d620 8d3e ebe5 5abe 4f4e 723e 5c68 c23d
00000060: aa59 a33e 7208 a33c 3ca1 3c3d c920 81bf
00000070: 4f10 8b3e 711e 64be e454 e9bd e44c 7b3e
00000080: eb23 b33e bdff 9bbd 2bd8 2a3f b03b 523f
00000090: a6a3 1dbf d41f 9d3e e2ac 5ebd 1fc8 d4bc
000000a0: 97fd 423d a91f d4be e465 1f3f 1959 443e
000000b0: ea6a 2ebd df7f e0bd b448 89be 981b d8bd
000000c0: 1497 d13e 95ca 9d3d 55f8 eb3d fe0b 94bc
000000d0: b026 593e f778 2ebe d103 c33e 2e9a a93e
000000e0: 78d5 bc3e 62e1 cfbe 1ef4 4c3f cbc7 75be
000000f0: b6a9 c4bd 5ebc af3e e8e5 5dbd aec5 09bf
00000100: 2f68 89be ed0e 873e 5830 7c3d 5e4f 1bbb
00000110: 094c 08bd fe42 43bf 8a9f d73d 790a d63d
00000120: a56a 5f3d 59fb 8f3e de25 8b3e 72ea 85bd
00000130: cd7c 303e d8c9 533e 9d9b 8cbe 84cc cb3e
00000140: 3210 223e 314e 93bc ed90 04bf 9fae b53d
00000150: f17c c83e 7ba6 3fbe 3ec2 ea3c 2cc2 96be
00000160: 7fe3 8d3d 7251 08bd 870a ea3e 02aa 083f
00000170: 29d6 b03c a5d4 f6bd a0ed fb3b 1931 bcbe
00000180: d476 873e 205d 993e e159 713f 4995 28bb
00000190: 468c fb3e a2c0 7cbe 8ab5 87be fac6 b63e
000001a0: ca5f 873e fe56 493e 6be8 95bd fec5 acbc
000001b0: 2c7e 5abe 7a52 eebc c51d b23e 214d 743e
000001c0: ba16 93be c6c5 003e 7fa4 d53e d7bd 903e
000001d0: d16a 0e3e 568d e6be 630c 223f a70b 29bc
000001e0: e057 3fbe d3b1 58be 166d 153e 7cfa 3a3d
000001f0: 86de bbbe a420 8cbd
-0.38902757 -0.18123361 0.5439558 -0.0098576145 0.31609893 0.4618176 0.10801514 0.010124524
-0.17178525 -0.12675329 0.77974755 0.30451125 -0.43304187 0.6331593 -0.007923091 -0.19115525
-0.07131395 -0.1595903 0.025676787 -0.5075976 0.27564114 -0.21376769 0.23662685 0.09492561
0.31904346 0.019901488 0.046052203 -1.008813 0.2716088 -0.22277237 -0.11393145 0.2454105
0.3498834 -0.076171376 0.66736096 0.82122326 -0.6157783 0.30688345 -0.054364093 -0.025974331
0.047605123 -0.41430405 0.6226485 0.19174613 -0.04258243 -0.109618895 -0.2681328 -0.10552138
0.40935576 0.07704655 0.11521975 -0.018072125 0.21206164 -0.17038332 0.3808885 0.33125442
0.36881614 -0.4060164 0.80059993 -0.24001996 -0.09602682 0.343234 -0.054174334 -0.5381726
-0.26837298 0.26378575 0.06156954 -0.002369843 -0.033275638 -0.76274097 0.105284765 0.10451216
0.054545064 0.2812145 0.27177328 -0.065388575 0.17235108 0.20682466 -0.27462474 0.3980447
0.1582649 -0.01798162 -0.5178364 0.08871197 0.39157823 -0.18715851 0.028657075 -0.29445016
0.06928157 -0.033280797 0.45711157 0.5338441 0.021586495 -0.120522775 0.007688239 -0.3675621
0.26457846 0.2995386 0.9427777 -0.0025723747 0.49130458 -0.24682859 -0.2650569 0.35698682
0.2644027 0.19662091 -0.07319721 -0.021090504 -0.21337193 -0.029092062 0.34788337 0.23857547
-0.28728276 0.12575445 0.41727063 0.28269836 0.13907935 -0.45029706 0.6330015 -0.01031772
-0.18685865 -0.21161585 0.14592394 0.045649037 -0.3669321 -0.06842163

static_variable_selection.flattened_grn.fc1.bias f4 [6]
00000000: 81e0 a4be edfd 9fbd c19f 503d 7990 04be
00000010: bbe1 063d a336 e0bd
-0.32202533 -0.078121044 0.050933603 -0.12945737 0.032930117 -0.10947921

static_variable_selection.flattened_grn.fc2.weight f4 [6, 6]
00000000: fc54 45bf 293e 3c3e b44b 973f 8ad6 7abe
00000010: 22c3 e03e a0ab 4cbf 02d7 ec3e 6964 c0bf
00000020: 4063 85bf b1da 20bc f0c4 acbf 0577 f9bc
00000030: d988 80be 3d05 f8bd 89d0 55bf cc2f a1bd
00000040: 0ae6 13be 6ffa 9cbe 3a0e db3e 8727 b6be
00000050: cd0c 723e ed20 773e c4e5 833e 4d55 9bbd
00000060: 7013 26bf 0d81 83bf b8b3 05bf 1e96 2ebe
00000070: 1063 bcbd aa15 4bbf 9d9a 15bf 9989 fdbe
00000080: 961d 7a3e d87b 7fbe 82bf fc3e 3480 243e
-0.770828 0.18383087 1.1819978 -0.24495903 0.43898875 -0.7994938 0.46257788 -1.5030643
-1.0420914 -0.009817765 -1.34976 -0.03045226 -0.25104406 -0.12110374 -0.83521324 -0.07870445
-0.14443222 -0.30659816 0.42784292 -0.35577032 0.23637696 0.24133654 0.25761235 -0.07584629
-0.6487341 -1.0273758 -0.52227354 -0.17049453 -0.09198582 -0.7932993 -0.58439046 -0.4951904
0.24425349 -0.24949586 0.4936486 0.1606453

static_variable_selection.flattened_grn.fc2.bias f4 [6]
00000000: b503 93bd 04ec 1bbb e0e2 e33d a021 26bd
00000010: abb9 033f 5165 f53e
-0.071784414 -0.00237918 0.11127257 -0.04055941 0.5145518 0.4792886

static_variable_selection.flattened_grn.gate_norm.glu.fc.weight f4 [12, 6]
00000000: 929b 97be 589a a63e 0129 293e 251e 943e
00000010: 3505 253f b358 b33e 6e36 003f b3f6 ebbe
00000020: e1ed 0cbe fcf0 153f 594d 903e 7ac2 013f
00000030: 3a75 0abf 6e6a a13e c5e7 c2be da3e 9d3d
00000040: a6f8 97bd 4040 37be b7e2 bf3d f0f6 103e
00000050: 3fab babe 40df 503d 01d7 09be 2e05 0cbf
00000060: 0fb8 f2be 777c c03e 5acf 18bf 01a5 9d3e
00000070: a803 cbbe bba6 80bf 57c4 dfbe 0bea 143f
00000080: 2401 2b3f 7a1d 8cbd 5cef 683e d780 9ebd
00000090: cb1b 593e 4dfc 5ebd ff74 2bbe 0da3 7bbe
000000a0: df36 c83e 1979 d33e 97fc 1f3f 6ce2 2fbf
000000b0: da73 c3be 7fd7 ce3e 6ccf d63e 2f6e 9c3e
000000c0: 08f9 f13d f1e1 233f 6607 db3d 4272 8c3e
000000d0: ef0b 803e 8842 8b3e 598b b7bd 1890 8b3d
000000e0: 3a06 1abe a062 0e3e 69b4 20bf 9186 06bf
000000f0: bdb9 153f 65dc ea3d b070 b5be cb22 f33e
00000100: b3bf 453f 6117 8d3f da09 933e 876b babd
00000110: 6eb6 a43e 2ed3 0abf e880 8bbd 84dd 833f
-0.29610878 0.3253963 0.16519548 0.28929248 0.6446107 0.3502861 0.50083053 -0.46086654
-0.13762619 0.5857084 0.28184012 0.5068737 -0.54085124 0.31526512 -0.3806745 0.076780036
-0.07420473 -0.17895603 0.09369414 0.14156699 -0.36458775 0.050994158 -0.13460924 -0.54695404
-0.4740605 0.3759496 -0.59691393 0.3078995 -0.39651227 -1.0050882 -0.43704483 0.5816962
0.66798615 -0.0684156 0.22747558 -0.07739418 0.21202008 -0.05443983 -0.16743849 -0.24573918
0.39104363 0.41303328 0.62494797 -0.6870487 -0.38174325 0.40398785 0.41955125 0.30552813
0.11815077 0.64016634 0.106947705 0.27430922 0.25009105 0.27199197 -0.08962125 0.06814593
-0.15041438 0.1390481 -0.62775284 -0.5254908 0.5848654 0.11467818 -0.35437536 0.47487482
0.77245635 1.102276 0.28718454 -0.091025405 0.32170433 -0.54228485 -0.06811696 1.0301976

static_variable_selection.flattened_grn.gate_norm.glu.fc.bias f4 [12]
00000000: 297f 013e 248a f43d 37e9 d1be 98cb 94ba
00000010: 151e 85be 1cba 003e ffaa aa3d 6d66 c33e
00000020: 178c eebc e50c 8a3d 0b9d db3e 8b9e 863d
0.12646164 0.11940411 -0.4099824 -0.001135218 -0.25999513 0.12570995 0.08333396 0.38164082
-0.029119534 0.06740741 0.42893252 0.065732084

static_variable_selection.flattened_grn.gate_norm.add_norm.norm.weight f4 [6]
00000000: 9981 823f e951 973f d89c 993f d310 743f
00000010: 6eba db3f 3b6e 8f3f
1.01958 1.1821872 1.200099 0.9533817 1.7166269 1.1205515

static_variable_selection.flattened_grn.gate_norm.add_norm.norm.bias f4 [6]
00000000: 9329 633c afb1 163e ee23 c7be 58e7 f1bc
00000010: 8834 a7be 0171 2a3e
0.013864893 0.14716218 -0.388946 -0.029529259 -0.32657266 0.1664467

static_variable_selection.single_variable_grns.router_id.mask f4 [8]
00000000: b681 54be 5b68 373f bcc0 4ebe ae8d 16bf
00000010: ee76 84bd 3091 79bc e34a 0abd a4a1 a7bc
-0.20752606 0.7164361 -0.2019071 -0.58809936 -0.064679965 -0.015232369 -0.033762824 -0.020462818

static_variable_selection.single_variable_grns.router_id.norm.weight f4 [8]
00000000: 52d7 5e3f 6617 ae3f 21d1 773f b4bc 223f
00000010: aa6e 4f3f 08e6 803f 6668 823f 06b0 8c3f
0.870473 1.3600891 0.9680348 0.6356919 0.81028235 1.00702 1.018811 1.0991218

static_variable_selection.single_variable_grns.router_id.norm.bias f4 [8]
00000000: 2f97 043d c9f2 65bd d871 743d 74f5 49bd
00000010: 851d 4cbd d2b9 13bd f226 cf3d 3641 8abd
0.032370742 -0.05613974 0.059678882 -0.049306348 -0.04983284 -0.036065884 0.1011485 -0.06750719

static_variable_selection.single_variable_grns.location.mask f4 [8]
00000000: 304a 053e 5199 c4be aa09 80bd ab2e 84bd
00000010: 2c09 e23d 4cb0 a33e 3b6f 07be b179 7a3e
0.13016582 -0.3839822 -0.06251843 -0.06454214 0.11036906 0.3197044 -0.13226025 0.24460484

static_variable_selection.single_variable_grns.location.norm.weight f4 [8]
00000000: 2755 8b3f ee79 7f3f 6d47 833f 6961 3b3f
00000010: a57e 963f 1e50 933f bf2f 6a3f e2c4 8b3f
1.0885361 0.99795425 1.0256172 0.7319551 1.1757399 1.1508825 0.91479105 1.0919459

static_variable_selection.single_variable_grns.location.norm.bias f4 [8]
00000000: 522a c13a ba6a 823d d866 e4bc a676 40bd
00000010: f8c6 1c3e d5f6 53bd 5620 853d a7ef a7bd
0.0014737344 0.06368013 -0.027881071 -0.046988152 0.15310276 -0.05174907 0.06500308 -0.08200007

static_variable_selection.single_variable_grns.application_type.mask f4 [8]
00000000: 5348 873d 41c9 5c3d 56e6 363d a35b bebd
00000010: 3bf8 2bbd fd08 7dbd 9e82 86bd 015c 3d3d
0.066055916 0.05390287 0.04465326 -0.09294822 -0.041984778 -0.06177615 -0.06567882 0.04623032

static_variable_selection.single_variable_grns.application_type.norm.weight f4 [8]
00000000: 8ce7 813f 5e8e 653f c0f2 6c3f 10bb 733f
00000010: 0a61 733f fad5 813f ba22 873f 51c0 603f
1.0148787 0.8967036 0.9255791 0.9520731 0.95069945 1.0143425 1.0557473 0.8779345

static_variable_selection.single_variable_grns.application_type.norm.bias f4 [8]
00000000: ec94 0ebd 3826 05bd c8af 05bd 777d 27bd
00000010: 287b 4a3d a384 c2bc f870 8b3d eaf5 00bc
-0.03480999 -0.03250715 -0.03263834 -0.040891137 0.049433857 -0.023744887 0.068086565 -0.0078711305

static_variable_selection.single_variable_grns.encoder_length.resample_norm.mask f4 [8]
00000000: 7ff8 df3d d636 02be cf82 6e3c 838f 893e
00000010: 5804 12bd f509 193d 12a2 903d 66a6 55bd
0.10936069 -0.12716231 0.014557554 0.26867303 -0.035648674 0.03736301 0.070621625 -0.052160643

static_variable_selection.single_variable_grns.encoder_length.resample_norm.norm.weight f4 [8]
00000000: 6326 913f c71b 7f3f 672e 813f 99ab 873f
00000010: 7160 753f 3ec0 703f 75a1 893f ea92 3e3f
1.133984 0.9965176 1.0092286 1.0599242 0.9585028 0.9404334 1.0752398 0.74442923

static_variable_selection.single_variable_grns.encoder_length.resample_norm.norm.bias f4 [8]
00000000: ab3f a4bd c8e9 78b8 b731 36bc 8dc0 7bbd
00000010: a93f 313d af5c 37bd 6e48 993d 1c70 86be
-0.08019956 -5.9345533e-05 -0.011120251 -0.061462928 0.0432736 -0.044766124 0.07484518 -0.26257408

static_variable_selection.single_variable_grns.encoder_length.fc1.weight f4 [4, 4]
00000000: 2f6f 8fbf e0e5 8abe 03a0 1d3d d5e0 b23d
00000010: 3bb3 da3e cffb fb3e 9e30 1dbf 6739 81be
00000020: 4be7 973f 0aae b8bf e596 37be 33cb 253f
00000030: de21 a2bf 8336 1f3e c034 66bf c745 8fbe
-1.1205806 -0.27128506 0.038482677 0.087342896 0.42714867 0.49215552 -0.6140231 -0.25239107
1.186746 -1.4428113 -0.17928655 0.6476318 -1.2666585 0.15548138 -0.8992424 -0.27982923

static_variable_selection.single_variable_grns.encoder_length.fc1.bias f4 [4]
00000000: c587 673d 611a 2bbc 32bf 14bd eb76 233e
0.056525964 -0.010443301 -0.03631515 0.15963332

static_variable_selection.single_variable_grns.encoder_length.fc2.weight f4 [4, 4]
00000000: b6b4 eebe 26d7 683e c0b4 b9be d5fa 013d
00000010: 77c4 013f 00a5 203f 2b31 96bf 5036 4c3f
00000020: c5d7 243e 5af9 d63e 1c82 223f 9999 42be
00000030: 7dd9 503f f07b e53e 22ee 92bd 2f4e 753f
-0.46622247 0.22738323 -0.36270714 0.031733353 0.50690407 0.6275177 -1.1733755 0.79770374
0.16097935 0.41987115 0.6347978 -0.19003905 0.8158186 0.4482112 -0.071743265 0.95822424

static_variable_selection.single_variable_grns.encoder_length.fc2.bias f4 [4]
00000000: 2238 65bd 5b1e 333d 5f72 363d 7a04 863d
-0.055961736 0.04373012 0.044542667 0.065438226

static_variable_selection.single_variable_grns.encoder_length.gate_norm.glu.fc.weight f4 [16, 4]
00000000: 9f69 a03e c04e 773e 82bf df3e d89f 003c
00000010: aadd d7be 4617 f13d 9d69 8cbe 614c 7bbe
00000020: 8488 1c3e 5fd7 87be 40dc 12bf ac0b babe
00000030: 35d2 04be cf6b e3be 3b2e 1c3e 217c 8d3e
00000040: 95fc 69be a4a2 623e 6db9 cf3e 76f1 53be
00000050: d6b4 66be ca70 a63d 8a23 d63c 361b 393e
00000060: 52fd f03d 542e 41be 325c f9bd 56bc 0ebd
00000070: 1a35 bd3e 51b1 103e a00d b6be 9b8d 0cbf
00000080: 0db4 343f 1071 5bbd 133d 1abe 815b 17bf
00000090: cee5 92bd bde2 1f3e 2af2 edbe b49f e6be
000000a0: adf6 d43e 7a9b 21be 7b2c e1be 90b7 91be
000000b0: 9ac0 803e 06ba 5abe 4b3d 0ebf dbdc 31be
000000c0: 0fc6 1ebe af01 e03e d917 2fbf d34d 9fbe
000000d0: bd8c bd3e bd86 a7be ec08 29bf 56b6 b83e
000000e0: 2779 763e dcb3 e73e 88ed 36bf 958e 6dbe
000000f0: 1ace d1be 9c7d 45bf 5472 003f 0f4e a83e
0.31330582 0.24151134 0.43700796 0.00785061 -0.42161304 0.11772017 -0.27424327 -0.24540855
0.15286452 -0.26531503 -0.57367325 -0.3633703 -0.12970813 -0.4441819 0.1525201 0.27633765
-0.22850259 0.22132355 0.40571156 -0.20697579 -0.22529921 0.081269816 0.026139993 0.18076786
0.11767067 -0.18865329 -0.12175788 -0.03484758 0.36954576 0.14130141 -0.3555727 -0.5490357
0.70587236 -0.05357462 -0.1506236 -0.59124 -0.07172738 0.15613838 -0.4647382 -0.4504372
0.4159445 -0.15781966 -0.43979248 -0.2846036 0.25146943 -0.21360025 -0.55562276 -0.17369406
-0.15505241 0.43751284 -0.68395764 -0.31114063 0.37021437 -0.32719985 -0.6602924 0.3607661
0.24069653 0.4525441 -0.71456194 -0.23198922 -0.40977556 -0.7714479 0.5017445 0.32872054

static_variable_selection.single_variable_grns.encoder_length.gate_norm.glu.fc.bias f4 [16]
00000000: 0523 a2bd c48e 843d b31e 8fbd 3f1b 68bd
00000010: 9eee 8cbd 72c5 7b3d 7637 91be fc30 83be
00000020: 185d 2bbf 8268 dfbd 8cf9 9cbd 112e 3ebd
00000030: ac90 97be f936 04be 643c 41be 6b1f 243e
-0.07916836 0.06472543 -0.06988277 -0.05666661 -0.0688145 0.061467595 -0.28362626 -0.2562331
-0.66938925 -0.10908605 -0.07664785 -0.04643065 -0.29602563 -0.12911595 -0.18870693 0.1602761

static_variable_selection.single_variable_grns.encoder_length.gate_norm.add_norm.norm.weight f4 [8]
00000000: f194 663f 8e72 883f 8bdd 833f 38ee 733f
00000010: 14cb 513f 2adc 803f b6f4 8b3f c8ee 6d3f
0.90071017 1.0659959 1.0301985 0.9528537 0.819505 1.0067189 1.0934055 0.92942476

static_variable_selection.single_variable_grns.encoder_length.gate_norm.add_norm.norm.bias f4 [8]
00000000: a238 57bd fc0f f8bc b9c6 88bc 637a 5dbd
00000010: 0876 913d 00bd e0bd 099a 943d 3665 6fbd
-0.052544244 -0.03028106 -0.01669632 -0.054071795 0.07102591 -0.10973549 0.072559424 -0.05844613

static_variable_selection.single_variable_grns.bandwidth_mbps_scaled_center.resample_norm.mask f4 [8]
00000000: 324a 903d 2efe dbbd d9a5 e3bd db3f d43d
00000010: 72ef 39bd 5c89 953d 6829 503d 8654 a73e
0.07045402 -0.1074184 -0.11115617 0.10363742 -0.04539437 0.0730159 0.050820738 0.32681674

static_variable_selection.single_variable_grns.bandwidth_mbps_scaled_center.resample_norm.norm.weight f4 [8]
00000000: 407e 813f 1f7d 3b3f d6af 6a3f 4e52 913f
00000010: 94ff 713f 77aa 4d3f ba5f 873f 1fc4 773f
1.0116653 0.73237795 0.91674554 1.1353242 0.94530606 0.80338234 1.0576088 0.9678363

static_variable_selection.single_variable_grns.bandwidth_mbps_scaled_center.resample_norm.norm.bias f4 [8]
00000000: bc7f b9bc 7666 073d 57d4 aebd 61ed 793c
00000010: 1c56 563d 9387 463e dfd2 6a3d 49d9 01bd
-0.022643916 0.0330567 -0.08536594 0.015254349 0.052328214 0.19387655 0.05733001 -0.03170136

static_variable_selection.single_variable_grns.bandwidth_mbps_scaled_center.fc1.weight f4 [4, 4]
00000000: a65d fc3e 236c e33e 1aa3 013f e736 3b3e
00000010: 08d6 ffbe 2677 bbbd 0e30 e53f 3ad4 ebbf
00000020: 726c 053f 9607 9ebf a3ab b43e f6e0 38bf
00000030: d752 223f 66e2 2abf 99a2 443f d708 ba3e
0.49290198 0.4441844 0.506395 0.18282662 -0.4996798 -0.09153585 1.790529 -1.8424141
0.521186 -1.2346065 0.35287198 -0.72218263 0.63407654 -0.66751707 0.76810604 0.3633487

static_variable_selection.single_variable_grns.bandwidth_mbps_scaled_center.fc1.bias f4 [4]
00000000: 63ee 89bd 87b0 1dbd f292 2abd a641 96bd
-0.06734922 -0.038498428 -0.041644044 -0.0733674

static_variable_selection.single_variable_grns.bandwidth_mbps_scaled_center.fc2.weight f4 [4, 4]
00000000: 8bd8 cbbe 43f0 883e c88f 87be 9dea ddbe
00000010: d068 41be 3ec8 4e3e fdcb 063f 340b 013d
00000020: 71a5 01be 8296 7f3e 640c b0bf f171 7dbe
00000030: 6dfe 87bd 047c 95be fed9 97bf 4cb8 46bf
-0.39813647 0.26745805 -0.26476884 -0.43343058 -0.18887639 0.20193574 0.5265501 0.031504825
-0.12660767 0.24959758 -1.3753781 -0.24750496 -0.06640325 -0.2919618 -1.1863401 -0.77624965

static_variable_selection.single_variable_grns.bandwidth_mbps_scaled_center.fc2.bias f4 [4]
00000000: 6279 713d 0bcb 8cbd 5f6e f23d 63d8 b33d
0.05895365 -0.06874665 0.11837458 0.08781507

static_variable_selection.single_variable_grns.bandwidth_mbps_scaled_center.gate_norm.glu.fc.weight f4 [16, 4]
00000000: c7c7 923e 4865 c0be 6414 193f 9a00 d2be
00000010: 88fe 4ebe 7002 1bbe 7774 73be 7485 c33d
00000020: 97f4 8ebd 3a68 a23e b359 76be 50c5 27bf
00000030: 2a78 bf3e bc19 2e3e ee84 77be bc86 d23c
00000040: 33af 01be e73e 2d3e 6ecb 293e a5ac fe3e
00000050: 1b76 04be 4143 e03e 6f00 3e3d 7c22 9dbe
00000060: d47f 8e3e 750e 09bf 7145 153e 920d a8bd
00000070: 0a53 1c3f 46d0 bdbe f64c 0f3d 311b 863c
00000080: fac5 13bf 89b8 1bbe 41ed a83d 50e3 983e
00000090: debc 06be 40c2 dabd 1e4a 943d ac89 be3d
000000a0: e876 183e 7264 9abe aa52 083f f312 25bc
000000b0: 4526 a33d 9cb2 bb3e a8d3 bfbe d0d7 15be
000000c0: 9c7d 023f 5ce6 9abd 961a f83e b3c1 a33e
000000d0: 3bd5 e13e 1139 e2bd 1ef2 61bf 3d02 56bf
000000e0: d491 dbbe 736b 5c3e 6514 7bbe e8e9 973e
000000f0: 4a11 66be 97f5 823c 2321 bc3e 882c ec3e
0.28668043 -0.3757727 0.5979674 -0.41016084 -0.20214283 -0.15137649 -0.23774897 0.095469385
-0.069802456 0.31720144 -0.24057655 -0.6553545 0.37396365 0.17002004 -0.24171802 0.025699012
-0.1266449 0.16918527 0.16581509 0.49741092 -0.12935679 0.4380131 0.046387132 -0.30690372
0.278319 -0.53537685 0.14577271 -0.08205713 0.6106421 -0.37072963 0.034985505 0.016370388
-0.57723963 -0.15207113 0.082483776 0.29860926 -0.13157985 -0.106815815 0.07240699 0.093036026
0.14889109 -0.3015476 0.53251135 -0.010075319 0.07966284 0.36659706 -0.37466168 -0.14633107
0.50972915 -0.07563469 0.48457783 0.31983718 0.44107994 -0.11046041 -0.88260067 -0.83597165
-0.42884696 0.21525364 -0.24519499 0.29670644 -0.22467533 0.015986247 0.3674403 0.46127725

static_variable_selection.single_variable_grns.bandwidth_mbps_scaled_center.gate_norm.glu.fc.bias f4 [16]
00000000: 0eb2 71bc 9fb4 0d3d b452 cdbd 43ba b13c
00000010: cc89 673d 21a2 dc3d 0113 6c3d b457 16bd
00000020: e634 c03d a87d 67be 91a7 fd3d cb14 00bc
00000030: ead8 803d 5fca 56be 6078 82bc 876b afbb
-0.014751924 0.03459608 -0.1002554 0.021695262 0.056527898 0.10773111 0.05763531 -0.036704734
0.093850896 -0.22606528 0.123854764 -0.007817457 0.06291373 -0.20975636 -0.01592654 -0.0053533944

static_variable_selection.single_variable_grns.bandwidth_mbps_scaled_center.gate_norm.add_norm.norm.weight f4 [8]
00000000: 5155 823f 44b3 f73e 37b8 983f 694b 823f
00000010: 289b 6e3f 4329 723f 76d1 843f df8c 6b3f
1.0182287 0.48378956 1.1931218 1.0179263 0.932055 0.9459421 1.0376422 0.9201183

static_variable_selection.single_variable_grns.bandwidth_mbps_scaled_center.gate_norm.add_norm.norm.bias f4 [8]
00000000: 7193 c8bc 2799 2d3d cf76 91bd 46e7 09bd
00000010: 7841 f43d a9cc ec3c 147c 543d d546 42bd
-0.024484368 0.042382386 -0.07102739 -0.033667825 0.1192655 0.028906183 0.051876143 -0.047430832

static_variable_selection.single_variable_grns.bandwidth_mbps_scaled_scale.resample_norm.mask f4 [8]
00000000: 751f 2c3e 5ba1 573d 0cf3 abbd 2e0b ef3d
00000010: 79a8 57be b1cf 82be d120 843d be48 573d
0.16808875 0.052644115 -0.08395967 0.11672054 -0.21060361 -0.2554908 0.06451572 0.052559607

static_variable_selection.single_variable_grns.bandwidth_mbps_scaled_scale.resample_norm.norm.weight f4 [8]
00000000: be5a 883f 4b44 6a3f bc0d 623f 32d9 8c3f
00000010: 09ef db3e 5d4c 183f d180 823f 460a 803f
1.0652692 0.91510457 0.88302207 1.1003783 0.42955807 0.5949152 1.0195562 1.0003135

static_variable_selection.single_variable_grns.bandwidth_mbps_scaled_scale.resample_norm.norm.bias f4 [8]
00000000: 4329 afbd 7fd5 043e 1f1d 943d 9c4d 03be
00000010: 27af 12be cd08 d3be dd15 bc3c 5e55 933d
-0.08552792 0.12972067 0.07232117 -0.12822574 -0.14324628 -0.41217652 0.022959644 0.07194017

static_variable_selection.single_variable_grns.bandwidth_mbps_scaled_scale.fc1.weight f4 [4, 4]
00000000: 20b4 923e 6d1a 8bbf 7c5a 1e3f 0305 2fbf
00000010: b0f0 c63d 84e5 43bf 7ef5 6bbe 7aa3 2a3f
00000020: cc73 17bf e7ea a13e 92d0 debf 0030 34bf
00000030: 6fbc 8fbe 4fd1 45bf eee4 bd3f 28b6 e9bf
0.2865305 -1.086744 0.6185682 -0.6836702 0.09713876 -0.7652209 -0.23042867 0.66655695
-0.59161067 0.3162453 -1.7407401 -0.7038574 -0.2807345 -0.77272505 1.4835489 -1.8258715

static_variable_selection.single_variable_grns.bandwidth_mbps_scaled_scale.fc1.bias f4 [4]
00000000: 30e5 57bc 8bcd 6ebd 4e24 c73d 8e75 6f3e
-0.013177201 -0.05830149 0.097237214 0.23384687

static_variable_selection.single_variable_grns.bandwidth_mbps_scaled_scale.fc2.weight f4 [4, 4]
00000000: 13c5 a63f 2323 4e3e 3ece 54bf 254e 34bf
00000010: 9838 b8bf f65c 3f3e 1c7d 3cbf 0870 7cbf
00000020: 922f 813f 1693 61be 4e20 c03e ec23 4b3f
00000030: a1b6 08c0 5b70 673e 847d 2c3f d324 c2bf
1.3028892 0.20130591 -0.831272 -0.7043174 -1.4392271 0.18687806 -0.736284 -0.98608446
1.0092642 -0.22028765 0.37524647 0.7935169 -2.1361468 0.22601454 0.6737902 -1.5167488

static_variable_selection.single_variable_grns.bandwidth_mbps_scaled_scale.fc2.bias f4 [4]
00000000: 34e3 8f3c 7ad4 4dbe c363 41be 54e8 803c
0.017564394 -0.20100585 -0.18885712 0.015735783

static_variable_selection.single_variable_grns.bandwidth_mbps_scaled_scale.gate_norm.glu.fc.weight f4 [16, 4]
00000000: ce5c 5cbd 822d 88be b8ab 733d d828 4ebf
00000010: 36ee fabd 6940 6f3f 8ca8 8dbf 0c6d f03f
00000020: 8184 b83e 7e6c 5dbe 4c85 e5bd 904a babe
00000030: 14d1 14bf ce65 09bf 706b 353d 2758 21bf
00000040: 04aa 7ebd 8aff 833d 16b3 9bbd 3ec1 c73e
00000050: f5d6 913e 82af 9abe 1162 b13e 8f93 5a3e
00000060: 08de c83e 0fb2 e13e 89ae 46be d27e c3be
00000070: 8bc6 d13e d6d3 04bf 16d7 ef3e 9254 563d
00000080: 6b39 60be 5c27 ce3c b0c5 bb3e 055a 97bf
00000090: 906c 8b3f 1199 b63e 65ff 17be a592 c8be
000000a0: 07e4 8c3e 5a8a e3be 2b3e 18bd 6002 19be
000000b0: 69af e6be f7e0 e93e 2126 c9be 7b83 5e3f
000000c0: e271 9e3e 17a6 88bd ecfd b03e 5b93 8fbf
000000d0: ac4f bebb 5abb 943e 8203 113d a4e5 653f
000000e0: d68a 8ebe 67cc 003d 7b82 8e3d 9209 e33e
000000f0: 1c18 c33e 7560 ddbe 7c1c 6b3e 7e95 593f
-0.053799443 -0.2659722 0.059489936 -0.8053107 -0.122524664 0.9345766 -1.1067061 1.8783278
0.36038592 -0.21623418 -0.11207065 -0.36385012 -0.5813153 -0.53670967 0.044291914 -0.63025135
-0.06217386 0.064452246 -0.07602517 0.3901462 0.28484312 -0.30212027 0.3464513 0.21345352
0.39231896 0.4408116 -0.19402517 -0.38182694 0.4097179 -0.51885736 0.46843785 0.052326746
-0.21896903 0.025165252 0.3667426 -1.1824347 1.0892506 0.35663655 -0.14843519 -0.3917438
0.2751772 -0.4444149 -0.037168663 -0.14942312 -0.45055702 0.45679447 -0.39286903 0.86919373
0.3094626 -0.06672304 0.34568727 -1.1216844 -0.0058078375 0.29049188 0.035403736 0.8980353
-0.27840298 0.031444933 0.06958481 0.4434324 0.38104331 -0.43237653 0.22960085 0.8499373

static_variable_selection.single_variable_grns.bandwidth_mbps_scaled_scale.gate_norm.glu.fc.bias f4 [16]
00000000: 4d67 323e 1762 fc3d 54d9 ac3c 8de3 05be
00000010: 4d37 ddbd 9650 b9be 3b0b 9cbc bb77 af3c
00000020: a0ef 16be bbb6 c73f 10b3 883c 8318 153d
00000030: d864 43bc 7b7e 34be 3e6a ec3b 94d9 d5bd
0.17422219 0.12323397 0.021099724 -0.13075085 -0.108015634 -0.36194295 -0.019048324 0.021419397
-0.14739847 1.560264 0.016686946 0.03640033 -0.0119258985 -0.17626373 0.0072148135 -0.1044189

static_variable_selection.single_variable_grns.bandwidth_mbps_scaled_scale.gate_norm.add_norm.norm.weight f4 [8]
00000000: b75e 803f 2280 ce3f 6f0e 3f3f b019 8b3f
00000010: 674c f23e a8d2 653f c83d 883f d17a 793f
1.0028905 1.6132853 0.746314 1.0867214 0.47323915 0.8977456 1.0643854 0.9745303

static_variable_selection.single_variable_grns.bandwidth_mbps_scaled_scale.gate_norm.add_norm.norm.bias f4 [8]
00000000: 052e 443e d4e0 3bbe 1f89 f93d 4a97 ffbd
00000010: ec01 4abd 8b93 dc3d 8c45 0a3e 3a5d 083e
0.1915818 -0.18347484 0.12184357 -0.12480028 -0.04931824 0.10770329 0.13503093 0.13316813

static_variable_selection.prescalers.encoder_length.weight f4 [4, 1]
00000000: 4bf6 2fbe fc97 23bf c981 33be 6b36 593f
-0.17183797 -0.63903785 -0.17529978 0.8484866

static_variable_selection.prescalers.encoder_length.bias f4 [4]
00000000: fccc 74bf 20a8 4dbf 70b8 74bf e0f5 143f
-0.9562528 -0.80334663 -0.9559393 0.58187675

static_variable_selection.prescalers.bandwidth_mbps_scaled_center.weight f4 [4, 1]
00000000: 91d0 ff3d 4b6e 403f f686 24bf 8d3b 933f
0.12490953 0.75168294 -0.64268434 1.1502548

static_variable_selection.prescalers.bandwidth_mbps_scaled_center.bias f4 [4]
00000000: fc5a b4be 5248 5abf 22c8 8f3e 2ef9 af3e
-0.35225666 -0.852666 0.28082377 0.34369797

static_variable_selection.prescalers.bandwidth_mbps_scaled_scale.weight f4 [4, 1]
00000000: 52dc 61be 9656 193f f041 31bf 5421 8a3f
-0.22056702 0.59897745 -0.6924124 1.0791421

static_variable_selection.prescalers.bandwidth_mbps_scaled_scale.bias f4 [4]
00000000: 4049 93be 2aab bbbe a0ca c43e 47c1 473f
-0.28766823 -0.36654025 0.3843584 0.7802929

encoder_variable_selection.flattened_grn.resample_norm.mask f4 [3]
00000000: a124 5abf 81fe 9abd 4e2a 493f
-0.8521214 -0.07568074 0.78580177

encoder_variable_selection.flattened_grn.resample_norm.norm.weight f4 [3]
00000000: 6d0a 4e3f 5344 8f3f 0703 c93f
0.8048466 1.1192726 1.5704049

encoder_variable_selection.flattened_grn.resample_norm.norm.bias f4 [3]
00000000: 369e aebe 652c 563e 92bd 6f3e
-0.3410508 0.20915373 0.23412159

encoder_variable_selection.flattened_grn.fc1.weight f4 [3, 12]
00000000: f1b9 243e 92b6 82be df1e 733e 0e89 8e3e
00000010: 5a49 cebd ccee 703f b9ba dd3e 7a30 4b3f
00000020: e377 ed3e 8c87 1a3f 86ee 7a3f ab2e 3d3f
00000030: 7a1b 5d3f 3ed2 dabe e816 213f b40c 0d3f
00000040: 86bb 6e3e 9429 7d3e 865e 193e 375a a93e
00000050: 6e24 bfbd ed83 76be 540f 0abf 9599 1bbf
00000060: 7087 10bf 18ea a03e 1447 3b3f 54a5 25bd
00000070: 279f 9f3e a4d2 253c 6d00 8bbf 6255 07bf
00000080: c86d 6dbe a49d 3b3e f092 133f efeb eb3e
0.16086556 -0.25529915 0.23742245 0.2783894 -0.100725845 0.94114375 0.4330652 0.79370844
0.4638053 0.6036308 0.9802021 0.73899335 0.8637005 -0.42738527 0.6292558 0.5509751
0.23313722 0.24722892 0.14977464 0.3307664 -0.0933312 -0.24073763 -0.5392964 -0.6078122
-0.5645666 0.314286 0.7315533 -0.040440872 0.3117611 0.010121021 -1.0859505 -0.5286466
-0.2318641 0.18321854 0.57646084 0.4607844

encoder_variable_selection.flattened_grn.fc1.bias f4 [3]
00000000: dd77 423d 8493 d3bd 05e1 113e
0.04747759 -0.10330871 0.14245994

encoder_variable_selection.flattened_grn.context.weight f4 [3, 8]
00000000: cf1b 92bd 0389 7ebf 9db0 cc3e 47a5 913e
00000010: 9275 e33e 905b c23e 1607 f43e 8252 2b3e
00000020: 292e cd3d 5270 eb3e c9a3 e1be ab3f 8e3e
00000030: 90ef b83e 2281 1ebf 72cb 20be 8ec8 2e3e
00000040: 3187 5e3d 8ecf 9f3e 6e19 aebf 3373 8d3e
00000050: c189 5d3f bc52 153f 26e8 0bbf e7c3 61bf
-0.0713421 -0.99427813 0.39978495 0.2844641 0.44425637 0.37960482 0.47661656 0.16730693
0.1001857 0.4598413 -0.4407027 0.2778295 0.36120272 -0.6191579 -0.15702608 0.17068693
0.054328147 0.3121304 -1.360151 0.27626953 0.8653832 0.5832937 -0.54651105 -0.8818955

encoder_variable_selection.flattened_grn.fc2.weight f4 [3, 3]
00000000: 49ca e2be dd17 52bf 30fb 5d3f 4546 dc3f
00000010: 670e 4dbd 1e6b 853d 75ec 023f 3237 15bf
00000020: 07a9 8c3e
-0.44294956 -0.8206766 0.86711407 1.7208945 -0.050062563 0.065145716 0.51142055 -0.58287346
0.27472708

encoder_variable_selection.flattened_grn.fc2.bias f4 [3]
00000000: 9acb 053e 9473 9c3c 2eac 3a3d
0.13065949 0.01909808 0.04557436

encoder_variable_selection.flattened_grn.gate_norm.glu.fc.weight f4 [6, 3]
00000000: 1440 d23e f6ec 42bf 8c78 40bf 74b0 5bbe
00000010: 8be1 e7be 47cb 01bf 60ce 0cbe b5cd 813e
00000020: 9185 2f3e 61b3 13be 1f3f 403e b9e3 4b3f
00000030: f776 323e 2fbc 443e dbec 253e e361 05be
00000040: bab7 f3be 7567 7a3f
0.41064513 -0.76142824 -0.7518394 -0.2145403 -0.45289263 -0.507008 -0.13750601 0.25352255
0.17140795 -0.14423896 0.18774079 0.7964435 0.17428194 0.19212411 0.16203634 -0.13025622
-0.4760111 0.9781411

encoder_variable_selection.flattened_grn.gate_norm.glu.fc.bias f4 [6]
00000000: 9f6d 57be fdca 013e a36d a03d 9d3e 7abe
00000010: 1512 863e c1b8 1dbe
-0.21037911 0.1267509 0.078334115 -0.24437948 0.2618567 -0.1540251

encoder_variable_selection.flattened_grn.gate_norm.add_norm.norm.weight f4 [3]
00000000: 356b e13e bde3 4b3f 6e41 a03f
0.44027105 0.79644376 1.2519968

encoder_variable_selection.flattened_grn.gate_norm.add_norm.norm.bias f4 [3]
00000000: 216f 0bbf a084 b53a 3e2a 763e
-0.54466444 0.001384873 0.24039552

encoder_variable_selection.single_variable_grns.time_idx.resample_norm.mask f4 [8]
00000000: b88a 273d eace b1be df8f cb3e 4dd4 bcbd
00000010: 7e2c 853e 49b7 553d 87d7 913c a7c4 b6bd
0.040903777 -0.34728175 0.39758202 -0.09220181 0.26010507 0.052176747 0.017802967 -0.08924227

encoder_variable_selection.single_variable_grns.time_idx.resample_norm.norm.weight f4 [8]
00000000: 3d93 873f b1b3 453f 3701 b43f e722 383f
00000010: cc4e b03f 03bb 053f 6044 8c3f 4228 453f
1.0591809 0.7722731 1.4062871 0.71928257 1.3774047 0.5223848 1.0958366 0.77014554

encoder_variable_selection.single_variable_grns.time_idx.resample_norm.norm.bias f4 [8]
00000000: 6d10 c93e b294 c1bd 49e4 04bf 2f46 873e
00000010: a8f1 c0be 1c5f 9e3e 20a5 4d3e 8930 35be
0.39270344 -0.094521895 -0.51910836 0.26420733 -0.3768437 0.30931938 0.20082521 -0.17694296

encoder_variable_selection.single_variable_grns.time_idx.fc1.weight f4 [4, 4]
00000000: a2b7 2e3d 6a7d 8ebf 2230 3fbf eaac 6f3e
00000010: 953b 85bd e996 1ebd 2cd0 55bf 33a8 68bd
00000020: 1caf 173e 55cb 10bf e819 84be 8d85 923f
00000030: fb6c a13e 8713 c73f d86c a43e 80c3 11bf
0.042655595 -1.1132023 -0.7468282 0.23405805 -0.06505505 -0.038718138 -0.8352077 -0.056801032
0.14812893 -0.5656026 -0.25801015 1.1447006 0.31528458 1.5552834 0.3211429 -0.56938934

encoder_variable_selection.single_variable_grns.time_idx.fc1.bias f4 [4]
00000000: 2088 d53d 3679 263d 11dc bd3e 8e2c babe
0.104263544 0.04064294 0.3708196 -0.36362118

encoder_variable_selection.single_variable_grns.time_idx.fc2.weight f4 [4, 4]
00000000: b343 553f faa6 423f d920 203e 19b5 b9be
00000010: 64ce 943f 2db4 883f 5090 a83e fcab 303e
00000020: f4a3 b43f a794 003f 2c62 ac3f de35 a0bf
00000030: 5829 e73e e637 773e b91d a8bd 1af7 7abe
0.83306426 0.76036036 0.1563753 -0.3627098 1.1625485 1.0679985 0.32922602 0.17253107
1.4112535 0.50226825 1.346746 -1.2516439 0.4514873 0.24142417 -0.08208794 -0.24508324

encoder_variable_selection.single_variable_grns.time_idx.fc2.bias f4 [4]
00000000: 62db 803d 0cdd 44be 2597 f13e 3507 20be
0.06291844 -0.19224948 0.47185627 -0.1562775

encoder_variable_selection.single_variable_grns.time_idx.gate_norm.glu.fc.weight f4 [16, 4]
00000000: a71b 25bf d9f0 1fbe 15b3 5d3e 1516 1bbf
00000010: 5edd e0be bf11 11be 1ee7 5a3e 144c 3e3e
00000020: 1317 e7be 982b e4bd 14f7 66bf b5f0 60be
00000030: e132 223d 9a24 8bbe 4186 043f a306 87be
00000040: c06b 4cbf d8bc 3bbf a0b3 44bf efa5 fdbd
00000050: 08a0 173e 1bd1 d03e 665c 8ebd 1b29 ea3d
00000060: 77e0 333f 5411 b23e fc00 883e 447f d4bd
00000070: 41c6 9e3d c3b1 c5bd b00d 28bf f064 773e
00000080: b48a 0bbf 631a 7bbf cbd5 d9be 140f 8fbe
00000090: 78ea c0be d73e 3fbf 0153 1bbf 7ac5 ccbd
000000a0: ea19 583f 773e 5a3f 34c0 513f c8e0 94bd
000000b0: cf2c ba3d 2295 5c3e b54f 29bf 3d78 b13e
000000c0: 0656 453f 4341 1a3f c039 ca3e d8fe 173e
000000d0: 3688 1d3e d877 a6be 8f4b 59bf e800 dabe
000000e0: 382a 263d 192b 993d 142a eb3e 1388 b8be
000000f0: d8ac f63c 9db0 8cbe 92e4 183f 2740 b53e
-0.6449532 -0.1561922 0.21650346 -0.6058057 -0.4391889 -0.14166926 0.21377227 0.18583709
-0.45134792 -0.11141127 -0.9022076 -0.21966822 0.039599303 -0.27176362 0.51767355 -0.2637225
-0.79851913 -0.7333503 -0.76836586 -0.12385165 0.14807141 0.40784535 -0.06951217 0.114336215
0.7026438 0.34778845 0.2656325 -0.103758365 0.07752658 -0.09653046 -0.65645885 0.24159598
-0.5450852 -0.9808714 -0.42545924 -0.2794119 -0.37678885 -0.7470526 -0.6067353 -0.09998603
0.8441454 0.85251564 0.81933904 -0.07269436 0.09090578 0.21541265 -0.6613725 0.34662047
0.77084386 0.6025583 0.39497185 0.14843309 0.15383992 -0.3251331 -0.8488092 -0.42578816
0.040567607 0.07478923 0.4593054 -0.36041316 0.030111715 -0.27478495 0.5972377 0.35400507

encoder_variable_selection.single_variable_grns.time_idx.gate_norm.glu.fc.bias f4 [16]
00000000: e53e a73d ba24 03be 7755 1abf 0223 c33e
00000010: 748d 0dbf 9005 863e 550e 383e dd5c 0cbe
00000020: a20f 15be ff3b d9be 4cdf c53e a9f5 edbd
00000030: e9f2 f23e b54f 81be 9d12 09be 9162 ed3d
0.08166293 -0.12806979 -0.6028666 0.38112646 -0.55293965 0.2617612 0.17974217 -0.137073
-0.14556745 -0.42428586 0.38646924 -0.116191216 0.4745095 -0.25256124 -0.13386007 0.11591066

encoder_variable_selection.single_variable_grns.time_idx.gate_norm.add_norm.norm.weight f4 [8]
00000000: 3c24 6a3f 4d8c 383f 7aab 9e3f 9d8b e93e
00000010: f8f2 a93f 2fd6 143f dfaf 943f e5b2 a63e
0.9146154 0.7208908 1.239608 0.4561433 1.3277273 0.5813932 1.1616172 0.3255836

encoder_variable_selection.single_variable_grns.time_idx.gate_norm.add_norm.norm.bias f4 [8]
00000000: 0a54 1d3e 7a5c 27be 189e 90be 60f9 313e
00000010: fc1a b6be 438f 073e aaa5 8f3e e345 7dbe
0.1536409 -0.16343871 -0.28245616 0.17380285 -0.35567462 0.13238244 0.2805608 -0.24733691

encoder_variable_selection.single_variable_grns.relative_time_idx.resample_norm.mask f4 [8]
00000000: 76d7 2a3f f3af 68be e193 503e f657 ed3e
00000010: 06e1 f83d 9c4d 2bbf 670a f1be 26b2 e9be
0.6673502 -0.2272337 0.20368911 0.4635617 0.12152295 -0.669153 -0.4707825 -0.4564373

encoder_variable_selection.single_variable_grns.relative_time_idx.resample_norm.norm.weight f4 [8]
00000000: 42cf ba3f 3d60 923f d259 913f 6400 bc3f
00000010: 1368 983f f1d8 943e 1e3a b33e 20ab 213f
1.45945 1.143562 1.1355536 1.4687619 1.1906761 0.29071763 0.35005277 0.6315174

encoder_variable_selection.single_variable_grns.relative_time_idx.resample_norm.norm.bias f4 [8]
00000000: 739c b63e 0c17 89bc 5f17 f3be 96c4 aa3e
00000010: 20fa 0bbf 89f9 c03d 2e93 883e 9d31 b33d
0.35666236 -0.016734622 -0.47478768 0.33353108 -0.54678535 0.09422595 0.2667479 0.08749697

encoder_variable_selection.single_variable_grns.relative_time_idx.fc1.weight f4 [4, 4]
00000000: c406 5b3d ac64 013f c53c c8be b768 f6be
00000010: 77d9 8d3e 48f8 b1be 79c2 40bd 00fb a3bf
00000020: c326 563f 58ab 9fbf 12b0 c5bd a40c 77bf
00000030: 15b1 113f 278f 113f ca49 dcbe 5c43 203d
0.05347325 0.5054424 -0.39108863 -0.48126766 0.27704975 -0.34759736 -0.047060464 -1.2810974
0.83652896 -1.2474165 -0.09652723 -0.96503663 0.5691083 0.5685906 -0.43025047 0.03912674

encoder_variable_selection.single_variable_grns.relative_time_idx.fc1.bias f4 [4]
00000000: 7e84 9e3d 6074 753e e6eb ae3e 858b 47be
0.07740115 0.23970175 0.3416435 -0.19486816

encoder_variable_selection.single_variable_grns.relative_time_idx.fc2.weight f4 [4, 4]
00000000: 1515 b73d 460f f73e d2c3 323f 66dc 393e
00000010: 2ee3 45bf ff1b 0c3f c73a 083f 70b1 a8bf
00000020: 66fa 16be 09e2 0f3e 2fd5 833e 93e1 a5be
00000030: 35c0 dc3e 13b4 353f f985 213f b0c8 123f
0.08939568 0.4825384 0.6983005 0.18150482 -0.77299774 0.5473022 0.5321469 -1.317915
-0.14743957 0.1405107 0.25748584 -0.32398662 0.43115392 0.70977896 0.6309505 0.57337475

encoder_variable_selection.single_variable_grns.relative_time_idx.fc2.bias f4 [4]
00000000: a03e 8f3e cc37 233d 662e 173d 7b72 153e
0.27977467 0.039848134 0.036909483 0.14594452

encoder_variable_selection.single_variable_grns.relative_time_idx.gate_norm.glu.fc.weight f4 [16, 4]
00000000: 686c 213f 9261 f73d 5e0d 29bc 420c 213d
00000010: 6772 9f3d 874c 56be ec85 443e 0d79 423e
00000020: 8a74 3bbf 9b6b c43c 27f1 d4bb 6570 29bf
00000030: d437 733e 5483 19be 9bab 85be c781 23be
00000040: c63e 34bf 1192 1dbf bd95 18bf 5714 29bf
00000050: 374c 013f 6062 cfbd cc4b 353e a082 063d
00000060: 3b52 173e bd08 d93e 499f 7abc 63bb 4e3f
00000070: f9b5 fa3d 7dd0 4c3e a1ea 283e f56c b13e
00000080: c92e 50bc 93f1 c5bc 84a2 f63e 8070 f2be
00000090: 785a 7cbe f98c 28bd 5d3f 523e e0c3 e9be
000000a0: 4673 2a3f 25bc 3a3f 0555 233f d36e 453f
000000b0: eb26 e33d 9997 b53d 4a16 52be 3c86 dc3d
000000c0: acb1 ab3e b685 533f f935 293f 6555 993f
000000d0: bcce ecbe 140c 55be be83 da3e 5d48 bcbe
000000e0: 0085 c13e c1b5 a9be 5e7d dabc f1e3 a63e
000000f0: 7491 7f3e dc8c 663d 535c fcbe 1a14 81bd
0.6305604 0.12079157 -0.010318128 0.03931833 0.077854924 -0.2092763 0.19191712 0.1899149
-0.732247 0.023977092 -0.006498474 -0.66187125 0.23751765 -0.14991504 -0.26107487 -0.15967475
-0.70408285 -0.61551005 -0.5960348 -0.6604666 0.5050692 -0.101261854 0.17704695 0.032839417
0.14777462 0.4238948 -0.015296766 0.8075468 0.1224174 0.20001407 0.16495754 0.3465344
-0.012706467 -0.024163043 0.48170865 -0.47351456 -0.24643886 -0.041150067 0.20531984 -0.45657253
0.66582143 0.72943336 0.63801605 0.7712223 0.110914074 0.088668056 -0.20516315 0.10767791
0.3353399 0.826259 0.6609798 1.1979185 -0.46251476 -0.20805389 0.42678636 -0.3677396
0.37796783 -0.3314648 -0.026671108 0.3259578 0.2495783 0.056286678 -0.49289188 -0.06302662

encoder_variable_selection.single_variable_grns.relative_time_idx.gate_norm.glu.fc.bias f4 [16]
00000000: 4955 473e a641 38bd f7a2 05bf 9998 6a3e
00000010: d42a f9be 4ad0 ab3c de0f 6e3e d98f 8d3d
00000020: 6bd0 233b 58ef f1be 892b b93e d5a6 96be
00000030: f8b1 833e 1c01 7ebe c918 873e 8ffd f0bd
0.19466127 -0.044984482 -0.5220179 0.22909774 -0.48665488 0.020973343 0.2324824 0.069122024
0.0024996053 -0.47252917 0.36166027 -0.29424158 0.25721717 -0.2480511 0.26386097 -0.117671125

encoder_variable_selection.single_variable_grns.relative_time_idx.gate_norm.add_norm.norm.weight f4 [8]
00000000: e612 a83f 437a 933f af77 863f 53de 943f
00000010: 2f3a 983f 9f4e 9b3d ad2f 313e f95b 133f
1.3130767 1.1521686 1.0505275 1.1630348 1.1892756 0.07583355 0.17303343 0.57562214

encoder_variable_selection.single_variable_grns.relative_time_idx.gate_norm.add_norm.norm.bias f4 [8]
00000000: 48bc cd3e 9567 813e 48ea 93be ce79 793e
00000010: 196b d8be 66cd 1dbe a47f 993d 9d30 75be
0.4018271 0.2527434 -0.2888968 0.24362871 -0.4226921 -0.15410385 0.07495049 -0.23944326

encoder_variable_selection.single_variable_grns.bandwidth_mbps_scaled.resample_norm.mask f4 [8]
00000000: 0cbb 243d 38e1 4bbe 56e2 2a3e 8e37 71bf
00000010: 5986 633f 057e 24bd d656 a23e a62e 91be
0.040217444 -0.19910133 0.16687903 -0.94225395 0.88876873 -0.040159244 0.31706876 -0.28355902

encoder_variable_selection.single_variable_grns.bandwidth_mbps_scaled.resample_norm.norm.weight f4 [8]
00000000: dae8 803f 9275 6c3f 6aaa 943f 2f0f 663f
00000010: 2e84 9a3f 2db9 c53f 6e00 873f ca38 323f
1.0071061 0.923669 1.1614506 0.8986692 1.2071588 1.5447136 1.0547006 0.69617903

encoder_variable_selection.single_variable_grns.bandwidth_mbps_scaled.resample_norm.norm.bias f4 [8]
00000000: c9d3 683c fcf0 c73d e040 fabd 048a 7c3c
00000010: 7f60 8a3d d545 e13e 241b a23d e3e6 8ebe
0.01421065 0.09762761 -0.12219405 0.015413765 0.067566864 0.4399859 0.07915333 -0.27910528

encoder_variable_selection.single_variable_grns.bandwidth_mbps_scaled.fc1.weight f4 [4, 4]
00000000: e562 e23e f4fc 96bf 2f4f a53d caa3 8b3f
00000010: 7a6f cbbd 056e 4d3f b40c 6abc 1d5f 8a3e
00000020: 7c53 2b3f af58 0a3f f33d b1bd 6443 3ebe
00000030: f040 163f 3961 0f40 db36 603f 256b a53e
0.44216076 -1.1795945 0.08071744 1.090936 -0.09933372 0.80246 -0.014285255 0.2702569
0.6692426 0.5404157 -0.08654394 -0.18580395 0.58692837 2.240309 0.875837 0.32308307

encoder_variable_selection.single_variable_grns.bandwidth_mbps_scaled.fc1.bias f4 [4]
00000000: e840 c23c 56ec b9be b247 8cbd 3946 acbe
0.02371259 -0.36313123 -0.06849612 -0.33647326

encoder_variable_selection.single_variable_grns.bandwidth_mbps_scaled.fc2.weight f4 [4, 4]
00000000: c727 963f 2829 353e 3575 47bf df9b d1bf
00000010: 0926 9f3e 5f30 9cbf 4ca4 643e df14 89bf
00000020: b5ed 8d3e 76ae c23f ad1d 343f bd3a 873f
00000030: 2401 dbbe 3a74 a0bf 93e9 793f 3946 1d3e
1.1730889 0.17691481 -0.7791322 -1.6375693 0.31083706 -1.2202262 0.223283 -1.0709494
0.2772042 1.5209491 0.7035778 1.05648 -0.42774308 -1.253547 0.9762203 0.15358819

encoder_variable_selection.single_variable_grns.bandwidth_mbps_scaled.fc2.bias f4 [4]
00000000: be0f b63d 829d e73e 6e62 d5bd e132 45bd
0.08889721 0.45237356 -0.104191646 -0.048144225

encoder_variable_selection.single_variable_grns.bandwidth_mbps_scaled.gate_norm.glu.fc.weight f4 [16, 4]
00000000: 1359 62bd 5f91 87be 68fa 713b edf8 dbbe
00000010: 1eb8 473d 5bd5 b13e 6d0d 873e 8d89 85be
00000020: fdae 51be 518a cebd 8f95 fcbe d64c cfbc
00000030: 9d97 033f 049d 583f c867 76bf 4a56 a43e
00000040: 08c1 1c3e 69e3 babd e59a fe3e c301 cebd
00000050: 6db1 153f 4e79 c83e fe1c 623c bd0a 0bbf
00000060: c922 b1be 9da0 20be 3be4 483e 0198 663e
00000070: 1f49 fbbe 97de 333d 9ba0 b1be f2cc f73c
00000080: d19e bbbe 2aa3 22bf d2ae c43e 0863 8bbe
00000090: f35f f8be d5ad d93e 53a0 b63c 8c6c 4b3f
000000a0: 5544 e0be 6d13 03bd 6103 51bf bd8f 063e
000000b0: a06c 33bf 4e34 cabe 4f2b c73e 6325 643e
000000c0: 7898 1bbe 695d 60bd 6266 b4be 48cc d33e
000000d0: 5baf 413f 9228 243f 6067 efbe 3fa0 b13d
000000e0: e223 7ebd fdff b4bd c10b 12bf 1b60 b93e
000000f0: 28c9 26be 051e f1be 91d3 4abc 18b5 3abe
-0.05526073 -0.26478097 0.0036922935 -0.42963353 0.048759572 0.3473309 0.2637743 -0.26081505
-0.20476909 -0.100849755 -0.49332854 -0.025305193 0.5140322 0.84614587 -0.9625211 0.32097083
0.1530801 -0.09125406 0.4972755 -0.1005893 0.58473855 0.39155048 0.013800858 -0.5431326
-0.3459685 -0.15686269 0.19618313 0.22518922 -0.49079224 0.04391345 -0.34692845 0.030249093
-0.36644605 -0.6353022 0.38414627 -0.27223992 -0.48510703 0.42515436 0.022293245 0.79462504
-0.43802133 -0.032000948 -0.8164578 0.1314077 -0.70087624 -0.3949303 0.3890023 0.22279887
-0.15194881 -0.054776583 -0.35234362 0.41366792 0.75658196 0.64124405 -0.46758556 0.08673143
-0.06204594 -0.088378884 -0.57049185 0.36206135 -0.16287673 -0.47093216 -0.012379543 -0.18233144

encoder_variable_selection.single_variable_grns.bandwidth_mbps_scaled.gate_norm.glu.fc.bias f4 [16]
00000000: e592 a63e c2a2 f63d 7a53 03be d145 77be
00000010: dab9 08be 0f32 4a3f 89dd 3d3e 8f7b 58be
00000020: 28cb 273e f7ab edbe b642 b9be afee 18bf
00000030: 9b96 81be 78ed 963d 4d30 2fbe 7729 9c3d
0.32533947 0.12042762 -0.12824813 -0.24147727 -0.13352147 0.78982633 0.1854154 -0.21140884
0.16386092 -0.4642026 -0.3618371 -0.597392 -0.25310215 0.07369512 -0.17108269 0.07625096

encoder_variable_selection.single_variable_grns.bandwidth_mbps_scaled.gate_norm.add_norm.norm.weight f4 [8]
00000000: 78b6 493f 408c 283f 39b8 703f da87 983f
00000010: 1326 1f3f 3104 873f c5d9 613f 33a1 463f
0.7879405 0.65839005 0.940311 1.1916459 0.6216747 1.0548154 0.88222915 0.7758972

encoder_variable_selection.single_variable_grns.bandwidth_mbps_scaled.gate_norm.add_norm.norm.bias f4 [8]
00000000: 0af2 333d 22a7 853e 6820 2e3d 3e58 9e3c
00000010: b509 b93d b8f0 c73d 4978 ee3d c0ea 873d
0.043932 0.26104075 0.042511374 0.019329187 0.090350546 0.0976271 0.11644036 0.06636572

encoder_variable_selection.prescalers.time_idx.weight f4 [4, 1]
00000000: 9b12 eabe 5883 d6be b2ea f2be dc7f ebbe
-0.4571732 -0.41897082 -0.47444683 -0.45995986

encoder_variable_selection.prescalers.time_idx.bias f4 [4]
00000000: 865f 14bf 02ca 0ebf 47d1 5bbf 1b14 243f
-0.5795826 -0.5577699 -0.85866207 0.6409318

encoder_variable_selection.prescalers.relative_time_idx.weight f4 [4, 1]
00000000: 1dff 2b3f d723 8cbf 5b7a 8abf 581a 03bf
0.67186147 -1.0948437 -1.081859 -0.5121207

encoder_variable_selection.prescalers.relative_time_idx.bias f4 [4]
00000000: 9ca1 523f df7f efbe 4fe3 f3be 88dc e3bb
0.82277846 -0.46777245 -0.4763436 -0.0069537796

encoder_variable_selection.prescalers.bandwidth_mbps_scaled.weight f4 [4, 1]
00000000: 3c92 9cbe 2d4f 99bf ced2 7abf ac86 bbbf
-0.30580318 -1.1977288 -0.9797791 -1.4650474

encoder_variable_selection.prescalers.bandwidth_mbps_scaled.bias f4 [4]
00000000: 5160 41bf a959 29bf e481 8a3e 8fcf c03e
-0.7553759 -0.66152436 0.27052224 0.37658355

decoder_variable_selection.flattened_grn.resample_norm.mask f4 [2]
00000000: baaf 1d3f c9ef 21bf
0.6159626 -0.6325651

decoder_variable_selection.flattened_grn.resample_norm.norm.weight f4 [2]
00000000: 693c 803f 5f3c 803f
1.0018436 1.0018424

decoder_variable_selection.flattened_grn.resample_norm.norm.bias f4 [2]
00000000: 7463 15be 8d63 153e
-0.1458872 0.14588757

decoder_variable_selection.flattened_grn.fc1.weight f4 [2, 8]
00000000: e587 b7be 45f8 633f a3fb 473f bccb 34be
00000010: fe93 773f 450c 1d3f 8cff 9cbe 89e7 1dbe
00000020: a5f7 2b3f a071 87bf 0748 ae3d 4077 33bf
00000030: fa5e 5a3e 98c2 653f 3bff 9e3e bcd1 e1be
-0.35845867 0.89050704 0.7811834 -0.17655843 0.96710193 0.61346847 -0.30663717 -0.15420355
0.6717475 -1.0581551 0.08509832 -0.70103836 0.21325293 0.8975005 0.310541 -0.44105327

decoder_variable_selection.flattened_grn.fc1.bias f4 [2]
00000000: 8c88 6fbd d875 05be
-0.05847983 -0.13033235

decoder_variable_selection.flattened_grn.context.weight f4 [2, 8]
00000000: 82f9 c53e ead3 c73e 89f4 313f c81e 983d
00000010: 251b 36be eb4e 9abe cbdd 43bf f6a8 8dbe
00000020: 47a3 bb3d da2d 5cbe 1539 3abf aa62 f6bd
00000030: fbac 903e d88e 54be 0713 01bf e1e8 25bf
0.38666922 0.39028865 0.69513756 0.07427746 -0.17783792 -0.30138335 -0.76510304 -0.2766797
0.09162002 -0.21501866 -0.7274335 -0.120305374 0.28256974 -0.20757616 -0.5041966 -0.6480847

decoder_variable_selection.flattened_grn.fc2.weight f4 [2, 2]
00000000: a4ba 7bbe 33ac 5fbf 43d6 20c0 1f7a 84be
-0.24582916 -0.8737213 -2.5130775 -0.2587442

decoder_variable_selection.flattened_grn.fc2.bias f4 [2]
00000000: afad babe 985a 263e
-0.36460635 0.16245496

decoder_variable_selection.flattened_grn.gate_norm.glu.fc.weight f4 [4, 2]
00000000: 9755 e4be 8a35 423f 4a3d 933d 6ac7 7f3f
00000010: 72da 8cbe d660 1bbe 5533 2dbf 036e 1f3f
-0.4459655 0.75862944 0.07189424 0.99913657 -0.2751041 -0.15173659 -0.6765645 0.6227724

decoder_variable_selection.flattened_grn.gate_norm.glu.fc.bias f4 [4]
00000000: 7013 c8bd 2e0f a73e 492f 2bbe 1d1e 903e
-0.097693324 0.3262877 -0.16717257 0.28147975

decoder_variable_selection.flattened_grn.gate_norm.add_norm.norm.weight f4 [2]
00000000: ddd9 c03d b7d9 c03d
0.09416554 0.09416526

decoder_variable_selection.flattened_grn.gate_norm.add_norm.norm.bias f4 [2]
00000000: bda6 4dbe bfa6 4d3e
-0.20083137 0.2008314

decoder_variable_selection.single_variable_grns.time_idx.resample_norm.mask f4 [8]
00000000: 6e96 a8be 896c f6bd ac40 c8bd 49ea 423e
00000010: a267 2c3e f23d d3bd 18d9 8c3e 52f5 4c3e
-0.3292727 -0.1203242 -0.0977796 0.19034685 0.16836408 -0.103145495 0.2750938 0.20015457

decoder_variable_selection.single_variable_grns.time_idx.resample_norm.norm.weight f4 [8]
00000000: 58e5 3f3f 7644 173f 7362 6f3f 33db 733f
00000010: 995a ae3f 2411 8b3f 2674 8c3f 673b ab3f
0.74959326 0.5908884 0.93509597 0.95256346 1.3621398 1.0864606 1.0972946 1.3377503

decoder_variable_selection.single_variable_grns.time_idx.resample_norm.norm.bias f4 [8]
00000000: 7d97 103d 3c83 d03c 2a40 e93c 1505 0dbd
00000010: 8af4 e3be 091f 2fbe 9efd 093e 98cf b23e
0.03530072 0.025453202 0.028472979 -0.034428675 -0.44522506 -0.17101683 0.13475654 0.34924006

decoder_variable_selection.single_variable_grns.time_idx.fc1.weight f4 [4, 4]
00000000: 017b 41be 2ebc b53e 767f cc3e b185 313f
00000010: bf82 3ebf 6e0c b73e a1f2 af3f ea4f 97bf
00000020: c0fb 89bf 888e 583f e5c7 0d3e 1b51 83be
00000030: bff5 8cbf 0898 d43d aaf1 243f c641 83bf
-0.18894579 0.35495132 0.39940995 0.6934462 -0.7441825 0.3575167 1.374592 -1.1821263
-1.0779953 0.84592485 0.13845785 -0.25647816 -1.1012496 0.1038056 0.6443125 -1.0254447

decoder_variable_selection.single_variable_grns.time_idx.fc1.bias f4 [4]
00000000: af26 31be c3da eebc c454 b8bd e6f6 0ebe
-0.17299913 -0.029157048 -0.09000543 -0.13961372

decoder_variable_selection.single_variable_grns.time_idx.fc2.weight f4 [4, 4]
00000000: a93b 32bf 1106 e63e 2870 a4be 08c0 b13e
00000010: bc82 fb3c cb85 efbe f437 d5bd 8ad6 dc3d
00000020: 5668 1d3f 59e9 06bf 2656 4a3f 2966 b93e
00000030: 9127 2b3f 5efa 8fbe dddd de3e b408 833e
-0.69622284 0.44926503 -0.32116818 0.3471682 0.030701987 -0.46781763 -0.10411063 0.107831076
0.6148733 -0.5269981 0.790377 0.36210755 0.6685725 -0.28120703 0.43528643 0.25592577

decoder_variable_selection.single_variable_grns.time_idx.fc2.bias f4 [4]
00000000: ccb8 09bc 886f c23c 40ed 0c3c 8047 b2bd
-0.008405875 0.023734823 0.008601487 -0.08705044

decoder_variable_selection.single_variable_grns.time_idx.gate_norm.glu.fc.weight f4 [16, 4]
00000000: 41d7 a63e d8d9 90be d408 adbe d7e0 aa3d
00000010: 263d 4cbe 92d6 1a3d b2c4 84be 976f d23d
00000020: eae3 e43d 12bc 89bc 9602 203e 97c7 ed3e
00000030: 73f1 653e f545 7ebd 01a6 fcbe 96b2 b03e
00000040: bad3 2c3f 884e e8be deb0 91be 65b1 623d
00000050: cf54 eb3e a0a4 963c 8ad7 babe 442c 08be
00000060: 8035 9ebe 0f3f a33e 959e bc3e 7a4e b6be
00000070: 1eb3 1fbe 103f 203e f1c7 8e3c b178 a7bd
00000080: 7794 373e f889 34bf e580 64bd ab86 4ebd
00000090: aada 583e e258 73bf 582f 37bf 42b9 10be
000000a0: a35c 3f3f 68bb 133e cd88 e0bd 926a c43e
000000b0: 4058 823e cd3c bf3e b794 3abe 0f60 323e
000000c0: 29fc fabe 418a f23e 928d 713d ef57 eb3e
000000d0: a70a 933e f398 a23e 4d35 c7be 71f0 c23e
000000e0: fd68 ccbe 0bcc 0cbf dafd 1cbf 2e14 033f
000000f0: f711 36bb 85bf febe 8e08 b53e 30c8 37bf
0.325861 -0.28291202 -0.33795798 0.08343666 -0.19945201 0.037802286 -0.25931317 0.1027519
0.11176284 -0.016813312 0.15625986 0.46441337 0.22455387 -0.062078435 -0.493454 0.3451125
0.6751057 -0.45372415 -0.2845525 0.055344958 0.4596314 0.018389046 -0.36492568 -0.13298136
-0.30900192 0.31884047 0.36839738 -0.35606748 -0.15595672 0.15649056 0.017429324 -0.08177317
0.17927729 -0.70523024 -0.055786986 -0.050421398 0.21177164 -0.950575 -0.71556616 -0.1413317
0.7475073 0.14426959 -0.10963593 0.38362557 0.25457954 0.37351075 -0.18220793 0.17419456
-0.49020508 0.47371104 0.058972903 0.45965526 0.28719065 0.31757316 -0.38907853 0.38074067
-0.3992385 -0.54998845 -0.61324847 0.51202667 -0.0027781704 -0.49755493 0.3535809 -0.71789837

decoder_variable_selection.single_variable_grns.time_idx.gate_norm.glu.fc.bias f4 [16]
00000000: 8a43 5b3d bf96 f93c f572 2d3b d712 b4bc
00000010: c20e cfbe 219b 08be 41c8 c43d 5713 9c3e
00000020: 3533 6abe 6448 96be cb6c 7abe 284d 09be
00000030: 7587 963e cf86 c9bd f360 acbd 3430 b3be
0.053531207 0.03046739 0.0026466225 -0.02198164 -0.40440947 -0.13340427 0.09608508 0.30483505
-0.22871096 -0.29352105 -0.24455564 -0.13408339 0.2940022 -0.09840166 -0.08416929 -0.34997714

decoder_variable_selection.single_variable_grns.time_idx.gate_norm.add_norm.norm.weight f4 [8]
00000000: 1dc0 153f 85b2 a23e 29e6 5b3f 9e0f 3c3f
00000010: c153 4b3f 0415 5c3f 4a20 603f 8d0c 253f
0.58496267 0.31776825 0.8589807 0.7346133 0.79424673 0.8596957 0.8754927 0.64472276

decoder_variable_selection.single_variable_grns.time_idx.gate_norm.add_norm.norm.bias f4 [8]
00000000: e3ef 17bd cb00 5dbd 829a 003e fa9d fe3d
00000010: a978 ca3d 06f7 06bb 612c 453d 5553 c9be
-0.03709401 -0.053955834 0.1255894 0.124324754 0.09886295 -0.0020594015 0.048138026 -0.3932139

decoder_variable_selection.single_variable_grns.relative_time_idx.resample_norm.mask f4 [8]
00000000: f028 c33d 70d0 6739 d5a8 cf3d a7e9 19be
00000010: 2018 9e3e 140e 653c 8c24 8bbe 8eed 043e
0.095292926 0.00022107526 0.10139624 -0.15030538 0.3087778 0.013980407 -0.2717632 0.12981245

decoder_variable_selection.single_variable_grns.relative_time_idx.resample_norm.norm.weight f4 [8]
00000000: debe 9d3f 8f0b 8d3f 7873 643f bc6d 5b3f
00000010: ecac b33f a156 883f 933e 473f 1704 8c3f
1.2323873 1.1019152 0.8923869 0.85714316 1.4037147 1.0651437 0.77829856 1.0938748

decoder_variable_selection.single_variable_grns.relative_time_idx.resample_norm.norm.bias f4 [8]
00000000: 9b52 6e3e aa95 f13d 6ba9 b0bd fe78 b83d
00000010: 1772 c7be 6d66 efbd 0db3 803e f7b2 75be
0.23273699 0.11796124 -0.08626064 0.090074524 -0.3895423 -0.11689458 0.25136605 -0.23994051

decoder_variable_selection.single_variable_grns.relative_time_idx.fc1.weight f4 [4, 4]
00000000: 5874 ecbe 493d 4bbf 0390 63bf 6464 38be
00000010: 95e1 f23e 6a85 aabe 9c31 dfbb 7395 21be
00000020: d764 16be 5df8 aebd 81bf 3bbf 9e44 933f
00000030: c4b2 1b3e da06 ae3e 9c88 7d3e 3e1d ce3e
-0.46182513 -0.7939039 -0.8889162 -0.18007046 0.4743773 -0.33304912 -0.006811334 -0.15779667
-0.14686905 -0.08543465 -0.73339087 1.1505315 0.15204912 0.33989602 0.24759144 0.40256685

decoder_variable_selection.single_variable_grns.relative_time_idx.fc1.bias f4 [4]
00000000: 84dc 7cbe 88bd 38be 8e58 5ebe cde7 083d
-0.24693495 -0.1804105 -0.21713468 0.033424187

decoder_variable_selection.single_variable_grns.relative_time_idx.fc2.weight f4 [4, 4]
00000000: 8f14 4a3e 9f72 d7be d6ed 5d3e d66a 743f
00000010: b797 193f aa94 133f 751f 0d3f 8b85 37be
00000020: e896 893f 7f13 12bf a2e8 91be bfca db3d
00000030: 22e2 31bd bd89 a5be 7f11 443e 6314 663e
0.19734405 -0.42079636 0.21672758 0.9547552 0.59997123 0.5764872 0.55126125 -0.17922036
1.0749178 -0.57061 -0.28497797 0.1073203 -0.043428548 -0.32331648 0.19147299 0.22468714

decoder_variable_selection.single_variable_grns.relative_time_idx.fc2.bias f4 [4]
00000000: f679 703d c3e2 79be c178 0c3d 245b dc3c
0.05871006 -0.24402909 0.034294847 0.026898928

decoder_variable_selection.single_variable_grns.relative_time_idx.gate_norm.glu.fc.weight f4 [16, 4]
00000000: 00a0 58be 934a 9cbe b48b ea3e e8df f0be
00000010: 0da9 aabe 853b 8dbd bce8 a63e 31d0 a3be
00000020: ccbc 8cbe 42d1 823e 8b61 15be fac8 4cbe
00000030: 826b a03e 2ae7 8fbe 2795 57bc e6c1 00bf
00000040: 03ef 113f 20ea 87be 6df1 b93c 71d2 933e
00000050: 786d f2bd fa76 ce3e 81f1 273e 152a edbd
00000060: a35c f8be 52b3 103f 4c2d 823e ca97 cebe
00000070: 4021 5e3e ee17 0dbf 04f3 8b3d ce80 16be
00000080: b754 9dbe 0a7c 94be ff18 373e 374e 95be
00000090: bd42 e2be 86ad 4c3d 5191 1d3d 1571 9d3e
000000a0: 4e00 8dbe 3ace 953e 788e 183e 2d27 2e3e
000000b0: a379 91be a829 21bf 3576 6cbd 1480 30be
000000c0: bf5b dd3e e39b 823e fded 1dbf 78da 2bbe
000000d0: 8187 afbc 7910 d1be 8d4c 50be 60cb 82be
000000e0: e29c 8bbe 5c5e 3c3d f590 03be 87b9 ac3d
000000f0: 4687 cebd cbf3 f0bc 68d3 ba3e c6b0 133e
-0.21154785 -0.30525646 0.4580971 -0.47045827 -0.333321 -0.06896118 0.32599437 -0.31994775
-0.2748779 0.25550276 -0.14587991 -0.19998541 0.31332022 -0.28106052 -0.013158119 -0.50295866
0.5700533 -0.2654581 0.022698129 0.28871492 -0.11837286 0.40325147 0.1640072 -0.11580292
-0.48508176 0.5652362 0.25425184 -0.4035018 0.21692371 -0.5511464 0.06833461 -0.14697573
-0.30728695 -0.29000884 0.17880629 -0.29161236 -0.44191542 0.049970172 0.038468663 0.30750337
-0.27539295 0.292589 0.14898098 0.17007132 -0.28413114 -0.6295419 -0.05772992 -0.17236358
0.4323406 0.25509557 -0.61691266 -0.16782558 -0.021426918 -0.4083288 -0.20341702 -0.25545788
-0.2726813 0.045988426 -0.12848265 0.08433824 -0.10084395 -0.029413125 0.36489415 0.14422902

decoder_variable_selection.single_variable_grns.relative_time_idx.gate_norm.glu.fc.bias f4 [16]
00000000: d36d 723e c4d7 b83d d978 f0bd 13cb 203e
00000010: d5e0 b1be 660a 0fbe b800 623e 9f6a 48be
00000020: 3924 cfbd 986d 3abe 1383 4ebe 6437 32be
00000030: 9bb2 d13d b475 66be f2b2 ab3d eba0 2c3c
0.23674707 0.09025529 -0.117418 0.15702467 -0.34741846 -0.1396881 0.22070587 -0.19571923
-0.10114331 -0.18205869 -0.20167188 -0.17403942 0.102391444 -0.22505838 0.083837405 0.010536413

decoder_variable_selection.single_variable_grns.relative_time_idx.gate_norm.add_norm.norm.weight f4 [8]
00000000: 3e59 3d3f bf9f 3a3f f2c3 2e3f 317e 1c3f
00000010: 94b3 2b3f 0d9a 2f3f 56e0 043f 3b92 523f
0.739643 0.72900003 0.6826774 0.6113005 0.6707089 0.6859444 0.5190481 0.8225438

decoder_variable_selection.single_variable_grns.relative_time_idx.gate_norm.add_norm.norm.bias f4 [8]
00000000: 0f6c 5cbe c909 4ebe 20af bebd 41c7 413e
00000010: 3b09 2d3e 126b 843d 8be3 803e c341 1dbc
-0.21525596 -0.2012092 -0.09310746 0.18923666 0.16898052 0.064657345 0.25173602 -0.009598198

decoder_variable_selection.prescalers.time_idx.weight f4 [4, 1]
00000000: 9b12 eabe 5883 d6be b2ea f2be dc7f ebbe
-0.4571732 -0.41897082 -0.47444683 -0.45995986

decoder_variable_selection.prescalers.time_idx.bias f4 [4]
00000000: 865f 14bf 02ca 0ebf 47d1 5bbf 1b14 243f
-0.5795826 -0.5577699 -0.85866207 0.6409318

decoder_variable_selection.prescalers.relative_time_idx.weight f4 [4, 1]
00000000: 1dff 2b3f d723 8cbf 5b7a 8abf 581a 03bf
0.67186147 -1.0948437 -1.081859 -0.5121207

decoder_variable_selection.prescalers.relative_time_idx.bias f4 [4]
00000000: 9ca1 523f df7f efbe 4fe3 f3be 88dc e3bb
0.82277846 -0.46777245 -0.4763436 -0.0069537796

static_context_variable_selection.fc1.weight f4 [8, 8]
00000000: 9ac7 19be 70d8 63bf a243 01bf d863 34bf
00000010: 8137 cdbe bb6d 073f efe2 04bf e9d3 d3be
00000020: a1e3 76bd 0251 2e3f aceb 9abf 4881 d3bd
00000030: 89bb f5bb bfa8 1c3f 1eb9 a83e e3d7 043f
00000040: c278 1d3f 437b 3f3e c886 ef3e ca1a a13c
00000050: 747f 5e3c cb31 acbe 0a3a 8fbf 9ca5 573e
00000060: 049a a83c 3197 20bf 47c3 ba3e 0dd0 7c3e
00000070: ca45 72be 9e03 fd3f 8c7e 8cbe f67d 8b3f
00000080: 66d5 2ebd 282f c5be 960d f3be 0551 803d
00000090: 92bb 2abe f0a7 6dbe b63f e4be aaa7 06bf
000000a0: 06f5 0abf d071 513e 295c 99be 8527 213e
000000b0: c664 b83d a002 34bf 8fa9 353f cce2 19bf
000000c0: cbec 2e3f 8292 4ebe fea0 1dbd eb04 a13d
000000d0: 843e babd 4089 e9be d227 68bd fb80 acbc
000000e0: 3d0d 13be d5f1 07bf 80c6 ad3b 5ab6 1a3f
000000f0: 62e9 c73e 0479 d23e f4b7 b93e f6da 97be
-0.15017548 -0.8900213 -0.50493824 -0.7046485 -0.4008141 0.5290181 -0.51908773 -0.41372612
-0.060275678 0.6809236 -1.2103171 -0.10327393 -0.0074991626 0.61194986 0.32953733 0.51891917
0.61512387 0.18699364 0.46782517 0.019666094 0.013580192 -0.3363174 -1.1189587 0.21059269
0.020581253 -0.627307 0.3647711 0.2468874 -0.23659435 1.9766729 -0.27440298 1.0897815
-0.04268398 -0.3851254 -0.47471303 0.06265453 -0.16673115 -0.23208594 -0.44579858 -0.52599585
-0.54280126 0.20453572 -0.29953125 0.15737732 0.09003596 -0.70316505 0.7096185 -0.6011169
0.6833007 -0.20173076 -0.038483612 0.07862266 -0.09093955 -0.45612526 -0.0566786 -0.021057596
-0.14360519 -0.5310338 0.005303204 0.60434496 0.39045244 0.41107953 0.36273158 -0.2965924

static_context_variable_selection.fc1.bias f4 [8]
00000000: ce61 acbb 01b8 a9bd 26a7 4838 28f9 f3bc
00000010: 0f06 b23c 498a e83c 711b 6e3d 6f29 8ebd
-0.0052606827 -0.08287049 4.7839385e-05 -0.029781893 0.021731405 0.028386252 0.05813164 -0.069414966
