checkpoints/epoch=0-step=836.ckpt (torch, 528777 bytes, 689 tensors)

input_embeddings.embeddings.router_id.weight f4 [5, 4]
000000 98 e9 08 c0 bb bb ec bf c7 be 22 3f 96 c5 2f 3e
       -2.1392574 -1.8494791 0.63572353 0.17165217
000010 a8 41 8b 3f f9 92 2a bf f7 a3 13 3f db 13 f5 3e
       1.0879412 -0.6663051 0.57672065 0.4786671
000020 60 e0 ab 3f 11 29 82 3f 73 f2 da 3e f0 3f 1e bd
       1.3427849 1.0168782 0.427631 -0.038635194
000030 16 85 93 bf 51 3f 4f be 90 66 0e bf ce 04 bf 3d
       -1.152499 -0.20238997 -0.5562525 0.09327088
000040 9e 02 8a 3f f2 2f 9c 3e 07 eb bd bf 02 5c c9 be
       1.0782049 0.3050533 -1.483735 -0.3932801

input_embeddings.embeddings.location.weight f4 [5, 4]
000000 96 b0 52 3f 5d 3b 9d be 01 eb be be 17 e6 84 3f
       0.823007 -0.30709353 -0.3728867 1.0382718
000010 a2 d3 04 bf 8d ff fa 3f 09 0d 5c 3f 80 ba ab bd
       -0.51885426 1.9609238 0.8595739 -0.083851814
000020 c7 b2 07 bf 76 03 fc 3f 19 8c e4 bc d7 83 48 be
       -0.5300717 1.9688556 -0.027898835 -0.19581543
000030 b1 f2 a8 be df e0 83 be 4f 7a ad 3f de 43 0e 40
       -0.3299766 -0.257575 1.3552951 2.2228923
000040 09 7e 26 bf 66 5c 1a 3e 6e fd e2 bf 48 76 4a bf
       -0.65036064 0.1507431 -1.7733591 -0.7908673

prescalers.encoder_length.weight f4 [8, 1]
000000 a7 72 1c be 55 a6 d6 3e b6 77 8f 3f 73 e5 24 bf
       -0.15278111 0.41923776 1.1208408 -0.6441261
000010 b3 67 96 bf a7 d0 2c 3f c8 ab 63 3f f1 68 f5 be
       -1.1750396 0.6750588 0.8893399 -0.47931626

prescalers.encoder_length.bias f4 [8]
000000 c2 e7 fd be 23 53 bc bd 6e 4b ee bd 4c 4f bb be
       -0.4959088 -0.091955446 -0.11635481 -0.36583936
000010 63 64 01 3e 4b c4 a6 be 60 af bc be d0 5c de be
       0.1263595 -0.32571635 -0.3685255 -0.43430185

prescalers.bandwidth_mbps_scaled_center.weight f4 [8, 1]
000000 8f c9 1f 3f 13 10 5d bf 87 8b f6 3e 13 2b a7 3e
       0.6241693 -0.8635265 0.48153326 0.3265005
000010 32 25 04 3f 35 9b 0a 3f ed 21 b4 3d 93 9e 62 bf
       0.51619256 0.5414308 0.08795533 -0.88523215

prescalers.bandwidth_mbps_scaled_center.bias f4 [8]
000000 66 aa d1 be 3e bf 80 bf af e8 e3 be 84 eb 2c 3f
       -0.40950316 -1.0058362 -0.4451346 0.6754687
000010 91 6f bc 3e 76 27 85 3e ca f6 43 3f dd 01 6e 3f
       0.36803868 0.2600667 0.76548445 0.92971593

prescalers.bandwidth_mbps_scaled_scale.weight f4 [8, 1]
000000 ab 15 5d bc 3f 9b 9a 3f df 71 f6 be c5 ed fb 3c
       -0.013493936 1.2078627 -0.48133752 0.030753026
000010 e7 98 4b be 83 7d c9 be ee b8 11 3f fc 3e 4b bf
       -0.19882546 -0.3935357 0.56922805 -0.7939298

prescalers.bandwidth_mbps_scaled_scale.bias f4 [8]
000000 11 27 93 3e b3 88 92 3e 31 d3 0c bf 96 3f 80 be
       0.28740743 0.28619918 -0.5500975 -0.25048512
000010 b5 f8 16 bf ab 46 f4 3e 88 5e bb bc 85 e0 84 3f
       -0.58973247 0.47710165 -0.022872224 1.0381018

prescalers.time_idx.weight f4 [8, 1]
000000 96 e6 20 3f 73 02 cc be de 10 a2 3d 48 65 82 3e
       0.62851846 -0.3984562 0.079133734 0.25467896
000010 eb 5b 88 3e 80 e9 61 be f3 ca c8 3e 54 e0 00 3f
       0.26632628 -0.2206173 0.39217338 0.503423

prescalers.time_idx.bias f4 [8]
000000 8f 4b 25 be 36 74 8d bf 72 2f 4d bd 55 26 d1 be
       -0.16142105 -1.105109 -0.050094076 -0.40849558
000010 b8 cc d8 3f 4f f2 a0 3f 27 41 16 bf cf 36 c3 3e
       1.6937475 1.2573947 -0.58693165 0.38127753

prescalers.relative_time_idx.weight f4 [8, 1]
000000 c5 04 c4 3f 4f 1d ef bf f7 b6 4e bf ac ea 6d 3f
       1.5313956 -1.8680819 -0.8074793 0.92936206
000010 eb ff 14 3f 8d c4 83 3f 5d a4 64 bf e4 fc e4 3e
       0.58203 1.0294358 -0.893133 0.4472419

prescalers.relative_time_idx.bias f4 [8]
000000 bf 64 5a 3f bf 17 47 bf 87 62 bb be 4c 7d 2d bf
       0.85309976 -0.7777061 -0.36598608 -0.6776931
000010 f2 73 00 bf 7e ed 03 be 6e 88 a6 be d3 33 77 bf
       -0.5017692 -0.12883565 -0.32525963 -0.9656345

prescalers.bandwidth_mbps_scaled.weight f4 [8, 1]
000000 43 f3 1a be 8d 39 a7 3f 2b a1 90 be c9 66 b7 bd
       -0.1513186 1.3064438 -0.2824796 -0.089551516
000010 db ec 6f bf 99 0c 79 be 56 6e 28 bf 16 1d 8e bf
       -0.9372079 -0.24321212 -0.6579336 -1.1102626

prescalers.bandwidth_mbps_scaled.bias f4 [8]
000000 5c 12 bb bd 15 fc 8f 3e 44 eb f1 3e 3f 36 b0 3f
       -0.09134361 0.2812201 0.47249806 1.3766555
000010 f8 eb c1 3e 60 e6 35 3f c6 2b b0 bf 3c bf 90 be
       0.37875342 0.7105465 -1.3763359 -0.282709

static_variable_selection.flattened_grn.resample_norm.mask f4 [6]
000000 11 c6 2e be 99 46 1c be 30 33 34 3e be 72 23 be
       -0.17067744 -0.15261306 0.17597651 -0.1596174
000010 32 9d 12 3e 28 69 16 3e
       0.14317778 0.14688551

static_variable_selection.flattened_grn.resample_norm.norm.weight f4 [6]
000000 14 53 54 3f 38 7a 55 3f 1b e8 93 3f 54 cf 64 3f
       0.8293927 0.83389616 1.1555208 0.8937886
000010 ec 85 94 3f f9 71 8f 3f
       1.160337 1.1206657

static_variable_selection.flattened_grn.resample_norm.norm.bias f4 [6]
000000 a5 32 2e be a8 c8 27 be fb 10 20 be 3f 8c 86 3e
       -0.17011507 -0.16385138 -0.15631478 0.26278874
000010 ae 3d 15 3e 1d ce ee 3d
       0.1457431 0.11660407

static_variable_selection.flattened_grn.fc1.weight f4 [6, 33]
000000 7d a4 b2 3e 73 bc 53 bf ec 41 7e be 75 9e 88 3e
       0.3489112 -0.82709426 -0.24829835 0.26683393
000010 b7 01 3f 3e 49 ae f9 be 04 a2 dd 3d fd 0f 1a 3d
       0.18652998 -0.48765782 0.10821918 0.037612904
000020 1a 6a b2 3e fe 6d 00 3f c3 c4 58 bf a4 5a 68 bd
       0.34846574 0.50167835 -0.84675235 -0.056727067
000030 51 8b 95 3e 16 92 ec 3e 80 97 fb 3d ac d9 06 bf
       0.29207852 0.46205205 0.12284756 -0.5267589
000040 b9 2a 82 3e f5 e5 90 3e 79 ab 7a 3e b1 f8 48 be
       0.2542322 0.28300443 0.24479474 -0.19626118
000050 70 cf 90 be 61 9c 75 3e 5e 74 e0 3d a3 12 95 be
       -0.28283262 0.23985435 0.10959695 -0.2911578
000060 b6 7a 91 bd 53 91 19 bf c8 29 d6 3e d9 ea 84 3e
       -0.071034834 -0.5998737 0.41828752 0.25960425
000070 d4 cb bd bc 45 1b 89 3e 1c 77 fc bd 4e 77 b5 be
       -0.023168482 0.26778618 -0.12327406 -0.35442585
000080 e3 27 b4 be 7a bc 40 3e eb db de be b8 0a 7e 3e
       -0.3518668 0.18821898 -0.4352716 0.24808776
000090 26 dd ef 3e fb e2 a2 3e 42 a8 47 be de 56 9c be
       0.4684841 0.31813797 -0.19497779 -0.30535024
0000a0 38 cd 6e 3e d6 a1 a7 3e 93 f6 11 3d ee c9 c6 3d
       0.23320472 0.3274066 0.035635542 0.09706484
0000b0 bb 3c 05 3e ea 1d 59 3e b8 91 ed be 4c d2 65 3e
       0.13011448 0.21202818 -0.46400237 0.22443503
0000c0 de 9d 16 ba 2f 8d 5a 3e f9 3a 1c be 2b 20 d7 be
       -0.000574557 0.2134292 -0.15256871 -0.4201673
0000d0 d0 30 94 3e 4b b4 e8 3d 97 93 bb 3d ae 6d aa be
       0.2894349 0.11362513 0.0915901 -0.33286804
0000e0 a5 55 42 3e 9c fb 38 be 34 6e 91 be f1 e2 21 be
       0.18977983 -0.18064731 -0.2840439 -0.15809228
0000f0 86 ea 9b 3d 52 d1 75 3e a1 89 06 bf 56 3a d3 3c
       0.07613091 0.2400563 -0.52553755 0.025784653
000100 ab 7c ca be 63 51 88 be 7b 1c 5e 3e 21 a3 5a bd
       -0.3954824 -0.26624593 0.21690552 -0.053378228
000110 b0 63 fe bc 5f d5 bb 3e eb 15 ac be 7f a6 d1 3e
       -0.031053394 0.36686227 -0.33610472 0.4094734
000120 1a 35 bb 3d 70 e2 83 bd f8 1e 53 3e b0 05 99 3d
       0.09140988 -0.06439674 0.20617282 0.07471788
000130 ae 7a d7 be 98 a6 34 bf 11 b8 3d be aa ea 32 be
       -0.42085785 -0.705667 -0.18527247 -0.1747233
000140 2f 9b c1 be 5a d7 38 3d 50 f2 c2 3e 3c 7d 4c 3e
       -0.37813708 0.04512725 0.38075495 0.19969648
000150 30 22 12 be 27 0c 4d 3e 91 c6 1e be 95 f8 51 3d
       -0.14270854 0.20024167 -0.15505435 0.051262457
000160 45 17 ee bd 67 da da bd 92 62 c2 be 8c 1e 4f 3c
       -0.11625532 -0.10686188 -0.37965828 0.01264156
000170 e1 d3 20 be 77 e1 76 be 65 b8 aa 3e 2b 5e 93 ba
       -0.15705825 -0.24109446 0.33343807 -0.0011243274
000180 35 8c ab be f3 79 63 be cf 54 e6 be b3 ce e6 3c
       -0.33505407 -0.22214489 -0.4498658 0.028174734
000190 c4 4e 28 bf 16 a8 15 3d 3b 38 a1 3d 6c c2 63 3e
       -0.65745187 0.036537252 0.07872053 0.22242135
0001a0 a4 b0 e5 3d 0e 30 77 bd 16 82 d6 3e b9 88 57 be
       0.11215332 -0.060348563 0.41896123 -0.2104825
0001b0 30 19 9a bd 7b 6a 21 3e 95 33 5f 3f 6e 06 99 bd
       -0.075243354 0.15763275 0.8718808 -0.074719295
0001c0 05 f8 9a be 5e 19 e7 3d 88 42 0d 3e 1b 47 04 3f
       -0.3026735 0.11284135 0.13794911 0.51671
0001d0 ec 8f 14 bf 8b 4f c6 3c 63 d3 26 3d bc 59 8f 3b
       -0.5803211 0.02420785 0.040728938 0.004374711
0001e0 a8 d7 3f bb fc 43 ea be 2f bf 05 bd f2 98 0b 3e
       -0.0029272828 -0.45754993 -0.03265303 0.13632563
0001f0 48 4f af 3e 11 39 f1 3e b1 e1 f1 bc 98 eb 24 be
       0.34240174 0.4711385 -0.029526563 -0.16105497
000200 99 8c b9 be 97 c8 15 3b 28 d7 82 3d 60 fb 66 3d
       -0.3624008 0.0022855157 0.06388694 0.056392074
000210 0b 75 a6 3e db c2 fb 3e 6b cc 42 3f ec ed 97 3c
       0.32511172 0.491721 0.7609317 0.018546067
000220 d1 43 07 3e 09 fb 45 3e f4 09 d6 3d 92 88 2c bd
       0.13209464 0.19334044 0.10451117 -0.04212243
000230 42 82 ef be 91 48 e9 bd 67 ad 0e 3f ef 70 83 bd
       -0.46779066 -0.11390794 0.5573334 -0.06418025
000240 ca aa de be e4 72 a6 bd 8c d0 67 3d b4 84 73 bd
       -0.43489677 -0.081273824 0.05659537 -0.059452727
000250 00 6d 8a 3c 4a b8 ba bc ea 52 c4 3e 36 88 d5 3e
       0.016897678 -0.022792954 0.38344508 0.41705483
000260 9d af f5 bd 6d da 09 3e 97 81 85 bd e8 24 5e 3e
       -0.11996386 0.13462229 -0.06518858 0.21693766
000270 aa 76 35 3d 0a 79 f3 3e b0 5d 70 bc 3d d7 34 3e
       0.04430262 0.47553283 -0.014670774 0.17660232
000280 aa 80 16 bf f8 8b 72 bd 3d 28 1a bf 5e 5d 3f 3e
       -0.58790076 -0.059215516 -0.6021765 0.1868796
000290 dd fe fb 3b f2 e9 35 3f 01 38 82 3e 0a 35 55 3d
       0.007690294 0.710601 0.25433353 0.052052535
0002a0 c8 80 69 3c 37 36 a9 be 4f 41 04 be a6 b8 48 be
       0.014251895 -0.33049175 -0.12915538 -0.19601688
0002b0 4f 60 0e bd 27 44 c5 be 17 56 0a bf 1f d9 e4 3e
       -0.034759816 -0.3852856 -0.5403761 0.446969
0002c0 67 60 9c 3e 9e 89 df be 06 db 01 bf 4c c6 a3 3e
       0.305423 -0.4365968 -0.5072483 0.31987226
0002d0 a0 cd c9 3e 87 05 9b be 47 23 ff bd a0 30 2d 3d
       0.39414692 -0.30277655 -0.124579005 0.0422827
0002e0 8f cf 7d bd f0 34 5c 3d cc c8 fd bc 70 4b 80 be
       -0.06196552 0.053761423 -0.030979536 -0.25057554
0002f0 18 07 17 3e b5 3d 27 3e db 01 6d be dd 9e 81 3e
       0.147488 0.16332133 -0.23145239 0.25316516
000300 86 6e 7e be 75 90 d9 be 39 46 fc be 17 9e 1a bc
       -0.24846849 -0.42493024 -0.49272326 -0.009437106
000310 77 2f 41 3e ec 8d 88 be
       0.18865763 -0.26670778

static_variable_selection.flattened_grn.fc1.bias f4 [6]
000000 af cf 85 be 77 17 01 be 5d a8 2d bd 30 fb 24 3e
       -0.26135013 -0.12606607 -0.04239689 0.16111445
000010 02 90 3b 3e 5c c4 90 3e
       0.18316653 0.2827481

static_variable_selection.flattened_grn.fc2.weight f4 [6, 6]
000000 44 d5 33 bf ec d4 13 bf f7 bb 81 bf eb 1b 11 bf
       -0.7024729 -0.5774677 -1.0135487 -0.56683224
000010 ea 8b fb 3e 83 87 c8 3d bb 32 a4 be c8 65 06 3f
       0.49130183 0.09791472 -0.32069954 0.52499056
000020 b5 9f c2 3d a6 f9 5c 3f 9d 9f bb 3a de 05 6e 3d
       0.09503118 0.86318433 0.0014314536 0.058111064
000030 b1 67 86 3f f4 9d 07 3d d1 c5 f9 be e3 bb 67 3e
       1.0500394 0.03310962 -0.48783734 0.22630267
000040 c7 58 18 bf 4c c3 5e bd 9a cc 92 3b b2 c8 99 be
       -0.59510463 -0.05438547 0.004479957 -0.3003593
000050 56 cd 81 be 19 e3 9a be 4b 09 d0 be 8d a9 d3 bf
       -0.2535197 -0.30251387 -0.4063209 -1.6536118
000060 71 b1 47 bf f8 1b c6 be 8a 70 64 bd 6a d4 47 be
       -0.7800513 -0.38693213 -0.055771388 -0.19514623
000070 d3 4f 12 be 72 55 af 3d 50 3b 1c 3f c9 58 4d bf
       -0.14288263 0.08561219 0.61028004 -0.802136
000080 22 c2 3a bf 0a 59 e5 bc 27 cf 16 3f 88 2a 09 3f
       -0.72952473 -0.027996559 0.5890984 0.5358052

static_variable_selection.flattened_grn.fc2.bias f4 [6]
000000 55 a8 1e 3e 69 f6 35 3e be 52 64 be 7b 43 65 be
       0.15493901 0.1776978 -0.22297189 -0.22389023
000010 61 72 cb 3d f1 fd 13 be
       0.099339254 -0.1445234

static_variable_selection.flattened_grn.gate_norm.glu.fc.weight f4 [12, 6]
000000 18 84 96 3e 94 c2 b1 3e 12 c2 5a 3d b2 60 2d 3f
       0.29397655 0.34718764 0.053407736 0.6772567
000010 b7 eb ec bd de e6 9c be f0 f6 ff 3e 98 df 34 be
       -0.115683965 -0.30644888 0.49993086 -0.17663419
000020 4c 76 ee bd b1 d1 9e 3e 0e 72 3f bf d0 74 f1 3e
       -0.11643657 0.31019357 -0.7478341 0.47159433
000030 a0 fc a0 be 73 74 34 be 55 c2 9c bd 30 04 35 3e
       -0.31442738 -0.17622547 -0.076542534 0.17677379
000040 90 38 7c be 68 67 1f 3e f3 de 20 3e de 25 d8 3e
       -0.24630952 0.1556679 0.15710048 0.4221639
000050 8f 13 44 be a6 bf 03 bf 2d a6 ba bc 43 0b e4 3d
       -0.19148086 -0.5146431 -0.022784317 0.111349605
000060 07 15 0a 3f 91 ce 2a be b5 c7 35 3e 95 5c 20 be
       0.53938335 -0.16680361 0.17751963 -0.15660317
000070 e5 8c 0f be 19 66 b5 bd 42 87 d7 3e 00 63 98 3e
       -0.14018591 -0.08857364 0.4209538 0.2976303
000080 4f 7c 33 be 09 5f c1 be 14 c7 a2 3d da 0b d4 3e
       -0.17527889 -0.3776782 0.079481274 0.41415292
000090 34 d8 ae 3e 6d bb 35 bf 9a 3a 96 be 27 80 77 3e
       0.34149325 -0.70989114 -0.29341584 0.2416998
0000a0 f8 91 a9 3e 35 10 28 be 0e 42 8f be 35 f8 ba 3e
       0.33119178 -0.16412432 -0.27980083 0.36517492
0000b0 d9 90 59 be 00 73 03 3f 29 6a be be 9d a6 2e 3e
       -0.21246661 0.5134735 -0.3719037 0.17055745
0000c0 fb 5d a0 3d 37 82 21 bf be b9 ad 3b 2e 8d 05 3f
       0.07830425 -0.6308932 0.005301683 0.5216855
0000d0 73 1c cc 3d fe f9 ec be 52 34 13 bd 46 50 ad 3e
       0.09966364 -0.4628448 -0.03593857 0.33850306
0000e0 71 6f 03 3f e3 29 3b bf 74 46 9e 3c 38 81 1a 3f
       0.5134192 -0.7311079 0.019320704 0.6035342
0000f0 7c a3 ad be 8d 1e 4d be a2 70 18 be fc 81 1c 3f
       -0.3391379 -0.20031185 -0.14886716 0.6113584
000100 c8 d8 e2 3e 42 0d 02 bf 18 72 27 3f 32 02 90 be
       0.44306016 -0.5080148 0.6540847 -0.28126675
000110 ad 46 ae 3e 19 39 98 3e a3 d7 61 3e ac ac 0c bf
       0.34038296 0.29731062 0.22054915 -0.54950976

static_variable_selection.flattened_grn.gate_norm.glu.fc.bias f4 [12]
000000 8a 2e 2d 3e 34 c3 2b be e1 43 34 be 41 5b 83 3e
       0.16912284 -0.16773683 -0.17604019 0.2565556
000010 50 f7 78 bd 21 db 19 3e ba 1b 47 be e4 7c fd 3d
       -0.06078273 0.15024997 -0.1944417 0.123773366
000020 0e d6 42 be 07 e2 e7 3c 6f dd c9 3b 33 c7 29 be
       -0.19026968 0.02830602 0.00616043 -0.16579895

static_variable_selection.flattened_grn.gate_norm.add_norm.norm.weight f4 [6]
000000 d0 aa 45 3f 1f 40 38 3f 31 b4 54 3f 70 00 4c 3f
       0.77213764 0.7197284 0.8308745 0.7968817
000010 0d 82 83 3f e6 91 69 3f
       1.0274063 0.9123825

static_variable_selection.flattened_grn.gate_norm.add_norm.norm.bias f4 [6]
000000 72 3e 2a be 31 db dc bd 26 2a aa 3e e2 9f 25 3e
       -0.16625383 -0.10783995 0.33235282 0.16174272
000010 8c 63 03 3e d2 28 97 3d
       0.12830943 0.07380833

static_variable_selection.single_variable_grns.router_id.mask f4 [16]
000000 e1 33 8d be 36 32 2b 3e 4c 60 33 3e 3d 65 78 be
       -0.27578643 0.16718373 0.17517203 -0.2425737
000010 13 b8 d0 bd 14 b1 2f be 7d 7e 2c 3e ac 17 46 3e
       -0.10191359 -0.17157394 0.16845126 0.19344968
000020 ae ca 42 be b1 55 49 3e 14 fc 3b be e9 23 48 3e
       -0.19022629 0.19661595 -0.18357879 0.19544949
000030 f0 62 5e 3e 00 46 4d be fc e0 28 3e 8e e5 45 bd
       0.21717429 -0.20046234 0.16492075 -0.048314624

static_variable_selection.single_variable_grns.router_id.norm.weight f4 [16]
000000 14 7b 3b 3f 71 24 95 3f 7c a2 a9 3f 9e 02 51 3f
       0.7323468 1.1651746 1.3252711 0.8164462
000010 dc 58 86 3f 71 84 51 3f bb 07 88 3f 12 08 a0 3f
       1.0495868 0.81842715 1.0627359 1.2502463
000020 64 aa 49 3f a3 99 5d 3f c4 6e 55 3f ce 72 23 3f
       0.7877562 0.86562556 0.8337214 0.63847053
000030 b1 2c 58 3f 78 75 9e 3f 33 18 55 3f 6a 4f 58 3f
       0.84443194 1.2379599 0.8324005 0.84496176

static_variable_selection.single_variable_grns.router_id.norm.bias f4 [16]
000000 9f af 57 be b8 1e 33 3e c4 06 38 be be 83 43 be
       -0.21063088 0.17492187 -0.17971331 -0.19093224
000010 39 7a 69 bd 07 13 3f be c2 aa 9b 3e cd 93 4c 3e
       -0.057001326 -0.18659602 0.30403715 0.19978257
000020 3c 14 48 be d8 26 5e 3e 82 14 5c be 0b 66 27 3e
       -0.19538969 0.21694505 -0.21492198 0.1634752
000030 90 7d 28 3e ad 5f 57 be 79 0b 37 3e a9 b1 3a 3e
       0.16454148 -0.21032591 0.1787547 0.18231834

static_variable_selection.single_variable_grns.location.mask f4 [16]
000000 6e 39 15 3d 2f 5a f1 3d 5b fe 4c be c8 93 22 be
       0.036431722 0.11784779 -0.20018904 -0.15876687
000010 d0 dd 9e bd 21 03 57 be 45 66 db 3d 49 66 78 3e
       -0.07757151 -0.20997287 0.10712866 0.24257769
000020 f8 88 37 be 65 a2 8d 3e 09 df 96 be 04 93 25 3e
       -0.17923343 0.2766296 -0.29467037 0.16169363
000030 e4 d2 b2 3d 92 be 21 be e6 66 4a 3e 3b 04 a8 3e
       0.087316304 -0.15795353 0.19765815 0.32815728

static_variable_selection.single_variable_grns.location.norm.weight f4 [16]
000000 5a 35 c0 3f ad c0 47 3f fa b8 9f 3f 8f 3e 28 3f
       1.5016282 0.78028375 1.2478325 0.65720457
000010 d4 f3 5e 3f 8c 58 5a 3f 12 2c 81 3f e0 b0 a5 3f
       0.870908 0.8529136 1.0091574 1.2944603
000020 96 f7 49 3f 0d eb 57 3f 94 33 97 3f 85 67 42 3f
       0.7889341 0.84343034 1.1812615 0.7593921
000030 72 4b 4c 3f 81 e1 9c 3f 28 f5 5a 3f 61 d0 90 3f
       0.7980262 1.2256318 0.8553033 1.1313592

static_variable_selection.single_variable_grns.location.norm.bias f4 [16]
000000 73 ff 2e be e1 2c 39 3e 7f 45 60 be a6 df e8 bc
       -0.17089634 0.18083526 -0.2190151 -0.028426956
000010 e9 65 bd bd 85 7f 3c be e7 a9 75 3e 86 d0 7b 3e
       -0.092479534 -0.1840802 0.23990594 0.24591264
000020 55 13 29 be eb b0 5d 3e 95 1a 69 be 78 d7 15 3e
       -0.16511281 0.2164952 -0.22764046 0.14632976
000030 08 62 08 3e b1 19 44 be 3e 13 3d 3e 79 40 52 3e
       0.13318646 -0.19150425 0.18464372 0.20532407

static_variable_selection.single_variable_grns.application_type.mask f4 [16]
000000 0d 0d 29 3e 2c f5 38 be ca a4 2e 3e 37 87 f0 bd
       0.16508885 -0.18062276 0.1705505 -0.1174454
000010 17 cb d3 3d d1 2a 32 3e 37 13 5f be c4 04 39 be
       0.10341471 0.17399146 -0.21784674 -0.18068224
000020 eb 76 36 3e 78 ae 51 be 3f 78 4d 3e 89 34 2e be
       0.17818801 -0.20476711 0.20065401 -0.17012228
000030 a4 9d 26 be 23 c8 42 3e 72 a4 33 be 9c a2 32 be
       -0.16271073 0.19021659 -0.175432 -0.17444843

static_variable_selection.single_variable_grns.application_type.norm.weight f4 [16]
000000 1d 7f 72 3f ef 34 84 3f c7 cc 88 3f 06 2b 36 3f
       0.9472521 1.0328654 1.0687493 0.711594
000010 5b a0 9d 3e 4e cb 9d 3f e9 05 a4 3f 3d 53 96 3f
       0.30786404 1.2327669 1.2814304 1.1744152
000020 63 61 98 3f 8b 3a b3 3f 67 d7 ba 3f 00 d4 0f 3f
       1.190472 1.4002241 1.4596986 0.5618286
000030 05 0a 53 3f b6 5c af 3f d0 f5 75 3f 4e 91 6c 3f
       0.82437164 1.3700168 0.96078205 0.9240922

static_variable_selection.single_variable_grns.application_type.norm.bias f4 [16]
000000 e4 f0 19 be 04 0e 47 3e a1 d8 4d be b1 14 f5 bd
       -0.15033299 0.1943894 -0.20102169 -0.11966837
000010 f3 40 d5 3e b6 c8 ae be 77 f5 c1 3e 04 fd b7 3e
       0.41651115 -0.34137505 0.37882587 0.35935223
000020 8d 10 67 be 55 38 b9 3e 9c e0 d1 be 4d 61 21 bd
       -0.22564907 0.3617579 -0.40991676 -0.039399434
000030 34 c2 9a ba 93 35 99 be 5f ce 37 3e 6b 42 5f 3e
       -0.0011807145 -0.29923686 0.17949818 0.2180268

static_variable_selection.single_variable_grns.encoder_length.resample_norm.mask f4 [16]
000000 0d 6a bc 3d 14 a3 32 3e a6 93 4b be 0f c0 d5 3d
       0.09199915 0.17445022 -0.19880542 0.10437023
000010 44 95 d6 3c b3 ae 30 bd dd cd 76 be 68 2f 3f be
       0.026194222 -0.043135356 -0.24101968 -0.18670428
000020 4c 64 41 3e 5b d0 6b be 86 c1 93 be 2c 32 0c 3e
       0.18885916 -0.230287 -0.28858584 0.13691014
000030 8d 71 31 3e 5c 38 38 be 89 1c 1d be 4a 78 32 be
       0.17328472 -0.1799025 -0.15342917 -0.17428699

static_variable_selection.single_variable_grns.encoder_length.resample_norm.norm.weight f4 [16]
000000 9c af 83 3f 76 9a 81 3f 62 f2 4c 3f f7 b1 89 3f
       1.0287967 1.0125263 0.80057347 1.0757436
000010 d5 28 74 3f a0 a6 6b 3f 06 ba 2e 3f fe 06 45 3f
       0.95374805 0.92051125 0.682526 0.76963794
000020 5c 81 95 3f 73 a6 35 3f a8 55 77 3f 50 a9 8f 3f
       1.1680102 0.70957106 0.96615076 1.1223545
000030 39 a7 92 3f 90 39 4f 3f b8 60 56 3f ce 12 50 3f
       1.1457282 0.8094721 0.8374133 0.81278694

static_variable_selection.single_variable_grns.encoder_length.resample_norm.norm.bias f4 [16]
000000 1c 36 e8 bc 45 2d 37 3e 49 3e 52 be f6 bb 8e 3d
       -0.028346114 0.17888363 -0.20531572 0.069694445
000010 f3 d5 2b bd 9b 0a a0 bd f1 9d 9b 3e 92 44 63 3e
       -0.041952085 -0.07814523 0.30393937 0.22194126
000020 ff 8a 2d be 7b 9d 92 3e 88 fb 7d be b3 71 01 3e
       -0.16947554 0.28635773 -0.24802983 0.12641029
000030 c9 1a 17 3e 13 f0 41 be 2a d5 2c 3e 98 3f 48 3e
       0.14756311 -0.18939237 0.1687819 0.19555509

static_variable_selection.single_variable_grns.encoder_length.fc1.weight f4 [8, 8]
000000 16 fe 23 3e 6a 07 32 bf 7d d3 f1 be 17 a7 0a 3f
       0.16014895 -0.6954256 -0.47231665 0.5416121
000010 f7 73 5a 3e db 9b 15 bf ab 2d 37 bf bf 7c 0f bf
       0.213333 -0.5844094 -0.7155406 -0.5604972
000020 0e 67 5d 3f 0e e3 8f be cd 68 19 bd f0 5e c8 3f
       0.86485374 -0.28102916 -0.03745346 1.5653973
000030 2e cc f5 3e b4 c5 c7 3e 66 15 cb be 23 54 cf bd
       0.4800734 0.39018023 -0.39664763 -0.1012347
000040 ca 10 af 3e e1 61 80 be de bd 48 bf f5 90 2f 3e
       0.34192497 -0.25074676 -0.78414714 0.1714514
000050 a8 14 39 3e dd 58 9a be b4 cb 95 bf 7e 34 58 b9
       0.18074286 -0.30145922 -1.170279 -0.0002061892
000060 01 09 c3 bd 8e 91 aa be 45 62 32 bf 43 84 5e 3e
       -0.09523202 -0.33314174 -0.696812 0.21730141
000070 27 c5 51 3f 0c 7d bb 3e 8c aa 5b 3f de ef f1 3e
       0.81941456 0.3661884 0.8580711 0.47253317
000080 93 26 55 3f 89 b2 f3 3d a7 aa a3 3e 8e 73 d9 3e
       0.83261985 0.11899287 0.31966135 0.42470974
000090 6b d4 5e 3f a1 38 39 3e 31 3a 13 bf ee e4 52 3c
       0.87042874 0.18088008 -0.5751067 0.012871964
0000a0 43 fb 20 3f bf a4 3f 3d e7 84 83 3e d8 2b a3 bf
       0.62883395 0.046787973 0.25687334 -1.2747755
0000b0 b6 8e ce be 08 64 13 3f 20 c3 2d 3f a6 fb 5f be
       -0.40343255 0.5757451 0.6787586 -0.2187334
0000c0 71 62 58 bf b1 5d 9e 3e 08 fc 62 3e b9 6f 1a 3c
       -0.8452521 0.30930856 0.22166455 0.009426051
0000d0 26 47 74 3e d4 61 97 3c 68 42 63 bf d1 05 47 3e
       0.23855266 0.018479265 -0.887732 0.19435813
0000e0 2a b9 72 3f c7 ba fc bc 4c 58 33 bf fe 3b 5c 3f
       0.9481379 -0.030850781 -0.70056605 0.8602904
0000f0 5b 1c a4 3c e4 d9 2c bf 8e 0a 99 3a 62 4b 3e bd
       0.020033052 -0.67519975 0.0011676119 -0.04645861

static_variable_selection.single_variable_grns.encoder_length.fc1.bias f4 [8]
000000 3a 14 8b bb 0d d4 58 bd 41 47 66 ba c6 4e a5 bd
       -0.0042443546 -0.052936602 -0.00087844214 -0.080716655
000010 a8 50 f6 3b 92 22 41 3e fb 9e 66 bc b2 80 8f 3a
       0.007516939 0.18860844 -0.01407599 0.0010948388

static_variable_selection.single_variable_grns.encoder_length.fc2.weight f4 [8, 8]
000000 09 52 f9 3e 0a 05 35 bf c5 96 4b be 00 0d 09 3f
       0.486954 -0.70710814 -0.19881733 0.5353546
000010 67 12 60 3d 0a bf 15 bf 5b dd c4 3d af f0 f0 bd
       0.05470505 -0.5849463 0.09612533 -0.11764657
000020 c5 cd 2d 3f a3 96 80 3f ce 0c 14 3f 04 66 b5 3b
       0.67892104 1.0045971 0.5783204 0.005535843
000030 3e 83 57 bf b2 47 56 bf d1 47 12 3f 7c 41 b4 be
       -0.84184635 -0.8370315 0.57140833 -0.3520621
000040 35 44 39 3d f4 46 60 bf 3f 99 70 3f 01 75 0e 3e
       0.045231063 -0.87608266 0.93983835 0.13911821
000050 16 f1 29 3e aa 29 a2 be 82 c9 3b bf 17 ea b9 3d
       0.16595873 -0.31672412 -0.7335435 0.09077852
000060 a5 f6 95 be f9 fc ce 3e 05 7c 13 bf 5e 78 44 3e
       -0.29289737 0.40427378 -0.57611114 0.19186541
000070 93 84 b4 39 90 40 34 3f 6a de a6 bd 6f 10 cc be
       0.0003443105 0.70411015 -0.08147891 -0.39856288
000080 0e 2c cd 3d 38 1e 35 3f e0 72 21 bf e8 bb ad b9
       0.100181684 0.70749235 -0.6306591 -0.00033137132
000090 5b 11 c1 3e e8 68 75 3e e2 47 db be d9 40 91 3e
       0.37708554 0.239658 -0.4282828 0.28369787
0000a0 0d 5a a9 be 95 b1 2c bf b9 2a 9d bd f0 1d a4 bd
       -0.33076516 -0.6745847 -0.07674164 -0.080135226
0000b0 28 3f 30 bf 3c 51 93 3e be cb 44 bf 24 b5 e1 be
       -0.6884637 0.28772914 -0.76873386 -0.44083512
0000c0 63 2a 81 3e 05 d1 08 3e 96 7e 59 3f 92 23 a5 3e
       0.2522765 0.13360985 0.8495878 0.322537
0000d0 73 f7 96 be cf a1 ec 3e 8e 1f 1c ba 1f b4 5f 3d
       -0.29485664 0.462172 -0.000595563 0.054615136
0000e0 d7 5a a7 be f7 66 2c bf b9 eb 51 bf 05 03 cb 3e
       -0.32686493 -0.6734461 -0.8200031 0.3965074
0000f0 c0 1b dd 3d 5f 54 84 be b0 13 b4 3d 23 41 86 3f
       0.107963085 -0.2584562 0.087928176 1.0488628

static_variable_selection.single_variable_grns.encoder_length.fc2.bias f4 [8]
000000 b7 45 0d be ec fe 44 be 9c 8d 33 be 34 2b 49 be
       -0.13796125 -0.1923787 -0.17534488 -0.19645387
000010 3f ae e1 bd a6 9d 6c 3e d0 ed 11 be 4b 55 38 3e
       -0.11019563 0.23107013 -0.14250875 0.18001287

static_variable_selection.single_variable_grns.encoder_length.gate_norm.glu.fc.weight f4 [32, 8]
000000 0c b9 31 bc 49 f4 4f bd 45 24 84 be 2a f0 07 3e
       -0.010847341 -0.050770078 -0.2580892 0.13275209
000010 ee 36 4f 3d 32 c0 7c 3d ed 59 86 bd 33 4d 7d 3e
       0.050589494 0.06170673 -0.06560121 0.2473648
000020 4f 9f 33 3d 8c 7f fc be 51 1c 78 be 1c 2b f6 bd
       0.0438531 -0.4931606 -0.24229552 -0.12019941
000030 ae 93 43 3e 4d 75 eb 3e ed ba 52 3e ba e8 5a bd
       0.19099304 0.4598793 0.20579119 -0.0534446
000040 27 65 02 3f 9e 97 0f 3f 66 de 01 bd e8 d5 e8 3d
       0.50935596 0.56090724 -0.031706236 0.113689244
000050 b1 3e 41 3c 2a 08 ad be c3 40 d0 bd f7 4d 32 be
       0.011794732 -0.3379529 -0.10168602 -0.17412554
000060 7f 08 9b bd 97 b1 38 be b6 e2 a2 3d 30 ac 90 3e
       -0.0756998 -0.18036495 0.07953398 0.2825637
000070 f8 db cf bd 86 9b 23 bd d1 5c ba be 6c 80 94 3e
       -0.101493776 -0.03994324 -0.36398938 0.29004228
000080 b6 8d 09 3e 4b 99 2c be 92 02 9a 3c 79 a9 fa be
       0.13432965 -0.16855352 0.018800054 -0.48957422
000090 cc 49 64 3d e7 e8 68 3e b6 15 7d bd 68 f8 08 3f
       0.05573444 0.22745095 -0.061788283 0.5350404
0000a0 9a 42 2e bd 08 ae cf bd 4c a4 9b 3e eb 65 15 3e
       -0.042543985 -0.10140616 0.30398786 0.1458966
0000b0 6b ce 6f 3d 7a 19 d3 3d e4 f8 ca 3d 8c b5 f3 3e
       0.058546465 0.10307594 0.09910753 0.47599447
0000c0 7e 6a 3b bd 5d f1 f3 be 4b 0e 06 bf 3a de 11 3f
       -0.045755856 -0.47645083 -0.5236556 0.56979716
0000d0 bb ed 9f 3e b3 04 8d 3e 6e 58 8c 3e aa 74 15 bf
       0.3123606 0.27542648 0.27411216 -0.5838114
0000e0 b9 30 90 be c4 f5 d8 3c 62 1a ab bd b6 13 1c 3e
       -0.28162172 0.026484378 -0.083546415 0.15241894
0000f0 aa aa 50 bd 4e ad 59 bd cc a7 34 be b9 d3 0a be
       -0.050944008 -0.05314379 -0.17642134 -0.13557328
000100 8e 76 18 bf ea c7 6a 3d 43 1b 5d bd 1a 41 13 be
       -0.595559 0.05731956 -0.053981077 -0.14380303
000110 7e b8 e4 3d 3c 9b df 3e 37 05 ab 3e 59 f6 09 3e
       0.111680016 0.43673122 0.33402416 0.1347288
000120 04 d0 1b 3c 09 bb c3 be 70 13 b2 be fc 2d c5 3e
       0.009510044 -0.38228634 -0.34780455 0.38511646
000130 92 4f 01 3f 84 ad 1d 3f d0 47 d7 3e 9c fd 13 bf
       0.5051204 0.6159289 0.42046976 -0.5780885
000140 a2 eb a3 3e 49 4a 45 bb 18 9d a0 3e b9 e6 d5 bd
       0.3201571 -0.0030104092 0.31369853 -0.104443975
000150 d2 f4 15 bd 11 4d 99 be 29 35 59 bd 88 77 65 3e
       -0.036610432 -0.2994161 -0.053029213 0.22408879
000160 82 0b 4d be a5 2c 6e bd f9 07 00 bf a4 93 80 3d
       -0.20023921 -0.058148045 -0.50012165 0.0627816
000170 4a e7 9a bd a9 0c a2 3e 6d 50 1f be f6 fa 0c bf
       -0.07563646 0.31650284 -0.15558024 -0.55070436
000180 e4 ff f1 bd 03 1b 10 bf 6f 61 8c be eb f7 8d 3e
       -0.118163854 -0.56291217 -0.27418086 0.2772821
000190 79 b6 6c 3d 91 f4 99 3e 81 cc 49 be 6a 98 23 3e
       0.057791207 0.30069402 -0.19706918 0.1597611
0001a0 47 42 78 3e c7 74 19 3f 84 1c 93 3e e7 44 c3 be
       0.24244033 0.59943813 0.28732693 -0.38138506
0001b0 04 8a 05 bf 74 09 25 bf 0d f6 ea be c1 89 80 3c
       -0.5216372 -0.6446755 -0.45890847 0.015690686
0001c0 2b 3e c8 be 68 b6 ce be 62 8e 7f 3e f1 be 3b be
       -0.3910993 -0.4037354 0.24956658 -0.18334557
0001d0 d5 af 32 3c b6 fa 32 3e 24 94 80 3e 38 11 cd be
       0.010906179 0.17478451 0.25113022 -0.400522
0001e0 9c c4 ff be c9 17 85 3d 93 4f a2 be 85 f4 ed 3e
       -0.4995469 0.06498677 -0.31701335 0.46475616
0001f0 e0 42 0c 3e 98 9b b7 3e 88 17 1e be 4a 0c 4d 3e
       0.13697386 0.35860896 -0.15438664 0.20024219
000200 a5 b3 e4 be 3b 10 89 be 01 40 c6 be 71 3e 36 3e
       -0.44668308 -0.26770195 -0.38720706 0.17797257
000210 7d a0 e0 3e e5 08 9d 3e 48 28 07 3f 2d 6b f1 bd
       0.43872443 0.30670848 0.5279584 -0.1178802
000220 e6 ad 93 be 33 44 0d bf 1c e1 b2 be e8 66 8b 3e
       -0.2884361 -0.5518219 -0.3493737 0.2722695
000230 1a af dc 3d aa 47 01 3f 90 11 50 3e a6 65 03 3e
       0.107755855 0.50499976 0.203192 0.12831745
000240 ff 4e 75 3e 24 e1 65 3e 57 26 ba 3d 1e 2f 70 bd
       0.23955916 0.22449166 0.09089344 -0.058638684
000250 e6 9c 57 be 04 fd 09 bf 66 3e 89 bd 80 56 a8 3e
       -0.21055946 -0.53901696 -0.06701355 0.32878494
000260 8a ae ed 3e f3 88 8d bd ca f3 0a 3f 37 f7 5e be
       0.46422225 -0.069108866 0.5427824 -0.21773992
000270 f3 8a c3 be 5a d3 e3 be 42 ee c2 be a4 b2 f9 3d
       -0.38191947 -0.44497186 -0.380724 0.12192276
000280 34 9e f8 bc bd 09 d7 3e fc 8f 53 3e ec 4a 82 be
       -0.030348875 0.41999617 0.20660394 -0.25447786
000290 6f 8f 6b bf eb a1 62 bf bb 6d 54 bf 71 c6 a9 3e
       -0.9201574 -0.8852832 -0.82979935 0.3315921
0002a0 1a 08 7d 3e 9c 21 85 3b ac 03 4f 3e 73 5b e8 bd
       0.24710122 0.0040628444 0.20216244 -0.113455676
0002b0 65 01 44 3e a2 87 23 3e 56 94 8d 3d f6 05 db 3e
       0.19141157 0.15969709 0.069130585 0.42777985
0002c0 1e 2b 79 be d6 cc 82 be ae f1 c5 be d7 74 e5 3b
       -0.24332854 -0.25546902 -0.3866095 0.007002454
0002d0 1f 22 c5 be 6b 43 ee 3e 51 88 83 3d d3 3d 84 3d
       -0.38502595 0.4653581 0.06422485 0.064571045
0002e0 b2 9c f4 3e 07 9d 86 3e 71 72 f9 3e 2d 47 02 bf
       0.477758 0.26291677 0.48720124 -0.50889856
0002f0 10 2e 3c be 6a 67 8d bd 17 b5 c9 3d da 49 39 bd
       -0.18376946 -0.0690449 0.09848993 -0.045236446
000300 6d c2 58 bd 42 40 cf bd 6e 97 d7 bd 5e be d6 be
       -0.052919794 -0.10119678 -0.1052693 -0.41942114
000310 f1 2e c8 bd af fb e8 be 0d 6f 21 be d3 30 fd 3e
       -0.09774578 -0.4550452 -0.15765019 0.49451312
000320 26 c6 c9 be 22 c7 01 bf 94 14 6e 3e 17 87 9c 3e
       -0.39408988 -0.5069448 0.23250037 0.30571815
000330 4a 09 d0 3e b4 d3 0a bd 9c e2 24 be 95 d5 ed bd
       0.40632087 -0.033893302 -0.1610207 -0.11613003
000340 33 0c 70 3d 60 7a 98 3e bb c1 0a 3f 45 d3 e2 bb
       0.058605384 0.29780865 0.5420186 -0.006922158
000350 18 1c 9a 3c 85 fb 4e bb 92 80 f6 be 86 2f a3 3d
       0.018812224 -0.0031583023 -0.48144966 0.07968049
000360 7d 55 a1 3d 23 b3 0a 3c 40 f0 ad 3e 5e 4d d0 be
       0.07877634 0.008465561 0.3397236 -0.40684026
000370 28 23 a0 be 08 87 fe be 86 90 45 3d 65 af 9b 3e
       -0.31276822 -0.49712396 0.04823353 0.30407253
000380 95 89 cb 3d c8 a7 9c 3e 39 3d 7b 3d 63 f3 3a be
       0.09938351 0.30596757 0.061337683 -0.18256907
000390 f1 a7 97 be 5f fd a0 be d8 1e 78 be 0a 8e a4 3e
       -0.29620317 -0.31443307 -0.24230516 0.32139617
0003a0 dd 68 02 bf 47 8a d6 be 37 41 d5 be 15 fa 48 bd
       -0.5094126 -0.41902372 -0.41651317 -0.04906662
0003b0 67 02 31 3e ad 9e 92 3e 26 a8 b7 3e b1 e0 08 bf
       0.17286073 0.28636685 0.35870475 -0.5346785
0003c0 a7 e2 b9 bc 7d 73 12 3d ac fa 8d 3e ca c1 ce be
       -0.022691084 0.03575467 0.2773031 -0.40382224
0003d0 3f 39 66 3e 51 78 a6 be 9d bc 55 bb 54 5a 26 bd
       0.22482775 -0.3251367 -0.0032613643 -0.040613487
0003e0 3b da ed 3e c0 d2 4e 3e 77 2f 58 3e e4 f3 bc bd
       0.4645556 0.20197582 0.21111856 -0.09226206
0003f0 5c 61 a6 3d 89 c1 c4 be f9 29 2f be ce c8 a4 bc
       0.081240386 -0.38428906 -0.17105855 -0.020115282

static_variable_selection.single_variable_grns.encoder_length.gate_norm.glu.fc.bias f4 [32]
000000 26 fe d2 bc 87 24 37 3e 31 4e 42 be 85 d2 36 be
       -0.025755953 0.17885028 -0.1897514 -0.17853744
000010 3f b6 0c be f0 8c 26 be de 9e 80 3e 1e ec 35 3e
       -0.13741396 -0.16264701 0.25121206 0.17765853
000020 6f 1f 4e 3e e2 cd 96 3e 0f b6 3f be 47 61 2e 3e
       0.20129178 0.2945395 -0.18721794 0.17029296
000030 2f 0e 33 3e e9 45 42 be 75 38 14 3e 1b 05 2e 3e
       0.1748588 -0.18971981 0.14474662 0.16994135
000040 93 93 38 3e cd c6 3d 3e d6 7b 47 be 06 c6 35 be
       0.18025045 0.18532868 -0.19480833 -0.17751321
000050 e8 d4 5a bf d1 0f ff bd 81 4c 6a 3d 22 08 36 be
       -0.8548112 -0.124541886 0.057201866 -0.1777654
000060 16 cb 97 bd 45 12 33 3e 34 28 39 be b6 d0 3f be
       -0.074117824 0.17487438 -0.18081743 -0.1873196
000070 c6 3b 43 be 8d 18 39 3e 07 72 be 3d a7 91 3d be
       -0.1906577 0.18075772 0.09299093 -0.18512593

static_variable_selection.single_variable_grns.encoder_length.gate_norm.add_norm.norm.weight f4 [16]
000000 bf 90 00 3f 59 84 41 3f 2d 69 59 3f 8e 92 8e 3f
       0.50220865 0.7559257 0.8492611 1.1138475
000010 d9 f5 82 3f 2a b8 6f 3f 61 69 a1 3f 02 af 29 3f
       1.0231277 0.9364039 1.2610284 0.66282666
000020 82 b3 85 3f df fb 82 3f 84 df 66 3f aa d4 92 3f
       1.0445406 1.0233115 0.9018481 1.147115
000030 9e 00 9a 3f 39 31 a7 3f 34 3e 80 3f 46 2b 43 3f
       1.2031438 1.3061897 1.0018983 0.76237905

static_variable_selection.single_variable_grns.encoder_length.gate_norm.add_norm.norm.bias f4 [16]
000000 bc 99 ae bd ba 2c 3b 3e 28 b7 ae be 67 a8 e2 bd
       -0.08525416 0.1827878 -0.34124112 -0.110672764
000010 db 63 56 3e c7 6f 8a be f9 b2 79 3e 58 a0 0e 3f
       0.2093653 -0.27038404 0.24384679 0.55713415
000020 77 72 07 be 53 12 8b 3e 9b 5d f5 be 04 2e 4c 3c
       -0.13227259 0.27162418 -0.47922978 0.012462143
000030 e0 17 64 3d 2b 00 91 be 5d 59 5d 3e 21 d0 9c 3e
       0.05568683 -0.2832044 0.2161612 0.3062754

static_variable_selection.single_variable_grns.bandwidth_mbps_scaled_center.resample_norm.mask f4 [16]
000000 ac 1d 50 3e 4d e7 36 be 74 a3 15 3e 91 10 c1 bd
       0.20323819 -0.17861672 0.14613134 -0.09426988
000010 96 ad 50 3e fc 32 02 3e dc ae c1 3d 03 b9 16 be
       0.20378718 0.12714761 0.0945718 -0.14719014
000020 c8 d1 55 be 9f 12 25 be f4 07 c5 3d 79 b1 d2 bd
       -0.20880806 -0.16120385 0.096206576 -0.102877565
000030 98 5b 46 3e 02 87 48 be d4 6e 7b 3e 1f bc 33 3e
       0.19370878 -0.19582751 0.24553996 0.17552231

static_variable_selection.single_variable_grns.bandwidth_mbps_scaled_center.resample_norm.norm.weight f4 [16]
000000 86 80 9c 3f 80 66 52 3f 9b 4d 94 3f da 19 67 3f
       1.2226722 0.8218765 1.1586183 0.9027382
000010 d6 f8 92 3f e2 0a 90 3f 9d a6 8b 3f be 30 7c 3f
       1.1482189 1.1253321 1.0910221 0.98511875
000020 29 98 4d 3f 75 7c 57 3f 01 93 8d 3f 42 cf 69 3f
       0.803103 0.8417428 1.1060487 0.91331875
000030 c8 31 97 3f 3e aa 4f 3f 2b d0 9f 3f e9 29 97 3f
       1.1812067 0.81119144 1.2485403 1.1809665

static_variable_selection.single_variable_grns.bandwidth_mbps_scaled_center.resample_norm.norm.bias f4 [16]
000000 56 38 63 be 7a 70 34 3e fb 39 35 be 0f d4 fd bc
       -0.22189459 0.17621031 -0.17697899 -0.030984906
000010 a9 ff 9b bd b4 74 08 be 7b cf 8c 3e 39 13 21 3e
       -0.07617123 -0.13325769 0.27502045 0.15729989
000020 6b df 47 be f8 fc 69 3e b2 c4 47 be d0 55 3d 3e
       -0.19518821 0.22850406 -0.19508627 0.18489766
000030 51 9f 37 3e 28 99 4f be a3 23 2b 3e 4f b3 24 3e
       0.17931868 -0.20273268 0.16712813 0.16084026

static_variable_selection.single_variable_grns.bandwidth_mbps_scaled_center.fc1.weight f4 [8, 8]
000000 95 b1 c5 3e ef ff ad 3e 3d 98 be 3e 87 e5 72 bd
       0.38612047 0.33984324 0.37225524 -0.059300926
000010 8e cc 46 3f 91 b8 eb 3e 93 f1 3f 3e e4 d6 1e bf
       0.77655876 0.4603925 0.18744497 -0.6204665
000020 cf 93 3d 3f dd 89 97 be d6 ae 6a be a8 c8 de 3d
       0.74053663 -0.2959737 -0.22918257 0.10878116
000030 b3 d5 89 bf 7c e5 9d 3f 87 24 21 be 13 0e c8 be
       -1.0768341 1.2335658 -0.1573659 -0.39073238
000040 7c 7f d8 be 66 81 8a 3f 32 c5 f9 3d db 4e 19 3f
       -0.42284763 1.0820739 0.12195815 0.5988595
000050 7f 5d 28 bf 6d 27 01 bf 6a 22 e8 3e db 1e ad be
       -0.65767664 -0.50450784 0.45338756 -0.33812603
000060 4d 34 0e 3e c1 29 a1 bc 89 af ff 3e 2f 27 5d bf
       0.13887139 -0.01967323 0.4993861 -0.86387914
000070 08 89 ec 3d 40 cc 88 bf e7 97 ff 3d ee 56 6c 3e
       0.11549574 -1.0687332 0.12480145 0.23080036
000080 ec b1 b5 bc a9 e2 d6 3e 44 b2 f2 be 0a 27 75 3e
       -0.022179566 0.41969803 -0.4740163 0.23940673
000090 8d c0 24 3f ab 85 c3 be c4 72 d3 be fa ca 33 3f
       0.6435631 -0.38187918 -0.41298497 0.7023159
0000a0 33 71 3d bf 4b 15 4a 3e 48 bb 1c be 91 4d 43 3f
       -0.74000853 0.19734685 -0.15305817 0.7629023
0000b0 5d 24 80 bf a3 2a a1 3e bb a1 05 3e 44 86 2c 3f
       -1.0011097 0.31477842 0.13049977 0.67392373
0000c0 40 f9 c0 be 2f 32 8f 3c 33 83 73 3e e6 89 a0 be
       -0.37690163 0.017479984 0.23780517 -0.31355208
0000d0 ef ca ad be 5a d2 d4 be 8b bd 74 bf b9 5e 7d 3f
       -0.3394389 -0.41566736 -0.9560172 0.9897266
0000e0 50 4c 8c be 5a 63 02 3e a8 51 d7 3e 2b 35 bd bd
       -0.27401972 0.12733212 0.42054486 -0.092386566
0000f0 60 2b 3f 3f 7e ca 71 bd 85 c0 88 bc 65 ff 36 3f
       0.7467556 -0.059031002 -0.016693363 0.7148345

static_variable_selection.single_variable_grns.bandwidth_mbps_scaled_center.fc1.bias f4 [8]
000000 4d 66 f6 3d 3f dc eb bd fd 0c 43 be 6d a2 3a be
       0.12031231 -0.11516618 -0.19047923 -0.18226023
000010 a2 6f d5 3d da 0f 65 3e 81 f3 31 3e 88 27 23 3e
       0.10421683 0.22369328 0.17378046 0.15933049

static_variable_selection.single_variable_grns.bandwidth_mbps_scaled_center.fc2.weight f4 [8, 8]
000000 fa 99 9e 3f 87 23 97 3f f3 d3 fe be ec b7 aa bf
       1.239074 1.1807717 -0.4977108 -1.3337379
000010 bb 57 a8 be 6a 3e b6 bf dc b2 17 3e 2e fa c5 3e
       -0.32879433 -1.4237797 0.14814323 0.38667434
000020 24 88 7a 3f b2 d9 ef 3e 22 60 6d bf 7c 53 dc be
       0.97863984 0.46845776 -0.9272481 -0.43032444
000030 1b 56 05 be bb a4 5c be 87 67 ea bd 3b dd 4c be
       -0.13021128 -0.21547215 -0.114455275 -0.20006268
000040 df 6f 9f 3e b5 05 67 3f 1b bd 4e bd b1 d8 be bd
       0.31140038 0.90243083 -0.050473314 -0.09318674
000050 e6 b4 45 3e 59 c7 49 bf fc d6 24 3e e9 bb bf 3e
       0.19307289 -0.78819805 0.16097635 0.37448052
000060 be 3d b9 3d 8b 0b 20 3e 39 3d ee 3e 87 70 c3 be
       0.090449795 0.15629403 0.46531084 -0.3817179
000070 ae cc 46 3e 82 5f 81 bd e2 b3 1d be cb 8f ed be
       0.19414017 -0.06317045 -0.15400651 -0.46398768
000080 94 62 20 3f 69 d1 65 3e b0 e1 20 3d 37 b3 69 be
       0.6265042 0.22443165 0.039277732 -0.22822271
000090 5f a4 b7 bf c4 06 ef 3d fd af 78 be f1 00 da bd
       -1.4347037 0.11671212 -0.24285884 -0.10644711
0000a0 16 4e 48 3f 89 96 08 3f 6d 39 1d bf af 41 ab bd
       0.7824415 0.533547 -0.6141575 -0.083621375
0000b0 41 02 36 be 08 93 9e 3e e0 32 f0 3f 11 d4 0e 3e
       -0.17774297 0.3097155 1.8765526 0.13948084
0000c0 09 13 1a be 28 6f 1c 3f ed 1f 7c 3f bd bc c8 3e
       -0.15046324 0.6110711 0.98486215 0.39206496
0000d0 f7 14 6e be fd 57 cb 3e 45 92 c2 bd f3 c0 11 3e
       -0.23250185 0.39715567 -0.09500555 0.1423376
0000e0 44 e8 25 3f a1 17 cb 3d c3 ba 70 bd 01 de 7e 3e
       0.64807534 0.09916616 -0.05877186 0.24889375
0000f0 7d f3 9f be 4a db 35 bd c8 5c c7 3e 17 bd 73 be
       -0.31240454 -0.044398583 0.38937974 -0.23802601

static_variable_selection.single_variable_grns.bandwidth_mbps_scaled_center.fc2.bias f4 [8]
000000 37 6b 0b be ba ed 77 3e 7d 5d 6b be 2b 6c 26 be
       -0.13615118 0.24211779 -0.22984882 -0.162522
000010 53 fd 20 be cd c4 69 3e db a2 38 be f9 f4 25 be
       -0.15721636 0.2282898 -0.18030874 -0.16206731

static_variable_selection.single_variable_grns.bandwidth_mbps_scaled_center.gate_norm.glu.fc.weight f4 [32, 8]
000000 19 33 cf 3e 0e 94 70 3e b1 f8 1b 3d b2 84 d7 bd
       0.40468672 0.23493978 0.038078967 -0.105233565
000010 2a ff 40 3d c2 96 14 bf 6f 8a 83 3e 9f 6c bb be
       0.047118343 -0.5804254 0.25691554 -0.3660631
000020 d5 ac 09 bd a3 59 08 be 57 58 e7 be d1 19 2b bd
       -0.03361209 -0.13315444 -0.45184585 -0.041772667
000030 50 77 65 be 33 af 89 be d8 07 1d be c2 11 81 be
       -0.22408795 -0.2689148 -0.15335023 -0.2520886
000040 9c cc a8 3e 26 a9 97 3e 2b ba 22 3f eb a7 da 3d
       0.32968605 0.29621238 0.6356532 0.10676559
000050 c4 36 47 3e 2d f1 a7 3c cf 30 e0 bc 83 88 fc 3e
       0.19454485 0.020500744 -0.027367024 0.493229
000060 35 e6 71 be a5 69 d5 be de 95 94 3e e1 85 d6 bd
       -0.23622973 -0.41682163 0.2902059 -0.10474754
000070 fb 12 cd ba 07 2e 12 be d1 a7 4d 3e 9d c7 ee bd
       -0.0015645915 -0.1427537 0.20083548 -0.11659167
000080 ae 5b c8 bd 05 5b 6f 3e 8f 70 f3 3d 01 14 ae bd
       -0.097831115 0.23374565 0.11886703 -0.08499909
000090 0e 9b b0 3e dd 7d bb 3e 60 7b 18 bf f4 8c af 3d
       0.34493297 0.36619464 -0.59563255 0.085718066
0000a0 3b 47 c5 bd 14 6a 15 bf 23 5f c3 3e 80 c1 36 be
       -0.09632727 -0.5836499 0.3815852 -0.17847252
0000b0 66 2f 8d be 2c 94 91 be ad b0 88 be 8c e0 e8 be
       -0.27575225 -0.2843336 -0.26697293 -0.45483816
0000c0 26 5a 0f 3f 4a 82 d4 3e ad bb 5d bd cc 71 35 be
       0.5599693 0.41505653 -0.05413406 -0.17719191
0000d0 11 cd 81 be a9 13 c8 bd 37 89 e0 be f0 40 c4 bd
       -0.25351766 -0.09769375 -0.43854687 -0.09582698
0000e0 9c 84 1b bf dd 2d 71 be df 97 15 3b 5a 30 8c be
       -0.6074922 -0.23552652 0.0022826118 -0.2738064
0000f0 36 0e 12 bf 37 5e c2 3d 5b 60 0d 3e fb 91 e5 3e
       -0.57052934 0.09490626 0.13806288 0.44837937
000100 cf 78 08 3f 8b a2 48 bd ab 2d a9 3e 0a 9a 3c 3e
       0.5330934 -0.048983138 0.33042654 0.18418136
000110 65 9c 22 be c5 6d ba bd 09 0e d6 bd 2f 7c ac 3e
       -0.15879972 -0.09102968 -0.10451896 0.33688495
000120 a1 15 ed bd df 17 92 be d8 df 26 be bd 7d 86 be
       -0.11576391 -0.28533837 -0.16296327 -0.26267806
000130 99 c9 74 be 0d c0 74 3e eb 85 17 3d 02 36 8b bd
       -0.23905028 0.23901387 0.03699295 -0.067974105
000140 09 ed 22 be 66 eb f9 bd 46 ac f3 bd 27 1c 13 be
       -0.15910734 -0.12203102 -0.11898093 -0.14366208
000150 ee 4e f4 3e 18 f8 b4 3e da 9a 54 be 61 b6 83 3e
       0.4771647 0.3534553 -0.20762196 0.25725082
000160 f4 8e af be 34 ca 73 3d 96 d1 9c be c0 07 8f be
       -0.34288752 0.059519008 -0.3062865 -0.279356
000170 09 7d 60 bd d3 0b 2a 3d 95 b2 b6 3b c4 be f3 3d
       -0.054806743 0.041515183 0.005575488 0.1190162
000180 39 6f e0 3d 96 f4 2b 3e c8 d2 fa be 41 13 61 be
       0.10958714 0.16792521 -0.48988938 -0.21980001
000190 99 dd 56 3e 3c 7f af bd 0b 72 0e 3e a9 02 b0 3b
       0.2098297 -0.0856919 0.13910691 0.005371411
0001a0 63 7f 91 3e 9d 44 88 3d c4 af a3 3d 13 1f c6 3e
       0.284175 0.06653712 0.07992509 0.38695583
0001b0 77 cc af 3c 95 50 9b be 30 d6 51 bd d3 23 86 bd
       0.021459801 -0.30334917 -0.051229656 -0.06549802
0001c0 98 31 12 bf fc 9a 89 be 54 61 e1 be 26 d3 49 be
       -0.57106924 -0.26876056 -0.44019568 -0.19709453
0001d0 73 98 1c be 97 41 58 be 54 4e 0f 3f 56 ba b8 be
       -0.1529253 -0.2111877 0.55978894 -0.36079663
0001e0 b2 5a 06 3c 01 86 9f 3e 94 f4 46 3e 19 66 09 be
       0.008200334 0.31156924 0.19429237 -0.13417853
0001f0 74 bc 15 3f 4a 9f 62 3e 93 0b 29 3e 31 28 d0 3e
       0.5849068 0.22131076 0.16508321 0.40655664
000200 d7 b4 c9 be b3 c7 99 bd f5 7d b1 bd 16 7c bd bd
       -0.39395782 -0.07508793 -0.086666025 -0.09252183
000210 04 c2 0a be 4f 13 e3 3e c5 c6 08 be db d8 0d 3e
       -0.13550574 0.4435067 -0.13357075 0.13852255
000220 55 ab fd 3e 4d 43 15 3f 1a d2 b9 3c 62 10 bf be
       0.49544778 0.5830582 0.022683192 -0.37317187
000230 34 4d 31 3d dc f1 28 3e 93 c7 22 3e 36 f5 7c bd
       0.043286517 0.16498512 0.15896444 -0.06175729
000240 b3 d7 0b bf b3 95 9a be a3 89 f8 bd 08 4c 1c be
       -0.54626006 -0.30192336 -0.12135627 -0.15263379
000250 e0 16 80 3e 71 6f 15 be 18 e4 48 3d 50 11 ea 3e
       0.25017452 -0.14593293 0.049045652 0.45716333
000260 66 e8 68 3e 31 a5 6a 3e 15 7a f6 3e 54 09 49 3d
       0.22744903 0.22914578 0.48140016 0.04908116
000270 71 b1 6b 3e 6d 3f 1e 3d 49 39 ca 3d 38 6a c0 3d
       0.23016907 0.038634706 0.098742075 0.093952596
000280 e2 63 f1 bd 98 c4 12 3f 38 11 fe 3d 4c 71 8e 3e
       -0.11786629 0.5733123 0.12405628 0.27820814
000290 14 ff 02 3e 30 01 12 3e c2 bf 7a be 23 86 bd 3e
       0.12792617 0.14258265 -0.24487212 0.370164
0002a0 e3 c8 c2 3e fa c3 09 3f 27 61 83 3e 8c 4d 95 3d
       0.3804389 0.5381466 0.2566006 0.072901815
0002b0 e0 6f 1e 3f c9 78 bf 3d ec d1 c9 bd 3f e0 59 3e
       0.6188946 0.0934921 -0.098544925 0.2127695
0002c0 0d d6 48 3f b0 1f ab bc e4 41 17 3f 6b 19 0f 3f
       0.78451616 -0.020889133 0.59084916 0.5589816
0002d0 75 7c f9 bd ef 1f 10 bd 55 5c f7 be bc 48 24 3d
       -0.121819414 -0.035186704 -0.4831263 0.040108427
0002e0 06 53 9a bd d5 db 28 bf 04 d5 c4 be a3 a6 57 3e
       -0.07535367 -0.6596044 -0.38443768 0.2105966
0002f0 d1 31 cd be e2 51 0b be da df b8 3d 3e a0 24 bf
       -0.4007707 -0.13605455 0.09027071 -0.6430701
000300 b8 f2 31 bf d2 98 90 bd c6 a8 7f be a2 0a 0e bf
       -0.69510984 -0.07060398 -0.24966726 -0.55484974
000310 6a 65 5c be 3d d3 12 be 5d 96 ab be 78 3a 8b 3e
       -0.21523061 -0.14338394 -0.33513156 0.27193046
000320 45 38 f1 3d 83 2e 81 3c 94 0b e3 bc 26 05 ea 3e
       0.11778311 0.015769249 -0.027715482 0.45707053
000330 25 b4 a7 3e 4c 8f 9e bd 84 ce 58 bc cc 54 dd 3c
       0.32754627 -0.077421755 -0.013232831 0.027017973
000340 f0 75 60 bd 75 a9 60 3e d4 42 a1 3d 7c d0 b9 bd
       -0.054799974 0.21939643 0.078740746 -0.09072968
000350 c3 e6 ef be 72 ca 09 bf b9 87 3d bd fb 92 08 bd
       -0.46855745 -0.5382453 -0.046272013 -0.033343296
000360 24 0c cd be 37 9e 6b 3c e5 c1 81 bc ce 7c 90 3d
       -0.40048325 0.014380983 -0.015839526 0.070550546
000370 22 9e e9 be 93 7a d3 3d 33 63 93 3e 80 ec 4d be
       -0.45628458 0.103261136 0.2878662 -0.20109749
000380 33 45 01 be d9 85 a0 3e f5 23 f2 be 97 f9 5a 3e
       -0.12624054 0.31352118 -0.47293058 0.21384273
000390 43 54 8a be e7 c5 13 be 00 6b b5 be 37 c9 67 3d
       -0.27017412 -0.14430963 -0.35433197 0.056588378
0003a0 fb 00 71 be 39 cc ce bc 53 de 08 bf 8e 43 b8 be
       -0.2353553 -0.025243865 -0.5346424 -0.3598904
0003b0 fd a9 0b 3f 46 83 73 3e 54 aa 6d 3e aa a5 f1 bd
       0.54556257 0.23780546 0.23209506 -0.11799176
0003c0 02 34 22 bf d0 86 3f be e4 4c 43 be d2 26 56 3c
       -0.6336061 -0.1870377 -0.190723 0.013070779
0003d0 c7 62 0e bf 05 f9 ee be 70 cf c2 3e d9 f1 4e bd
       -0.5561947 -0.46674362 0.38048887 -0.050523613
0003e0 e2 b2 04 3d b1 61 8d 3e 83 0e 05 3f 40 f7 e6 3e
       0.03239716 0.27613595 0.5197527 0.45110512
0003f0 48 4e 4c 3f b8 9a 8f 3e df 29 5e be 55 51 b6 be
       0.7980695 0.2804773 -0.2169566 -0.35608926

static_variable_selection.single_variable_grns.bandwidth_mbps_scaled_center.gate_norm.glu.fc.bias f4 [32]
000000 bf 4d 86 be 05 9e 32 3e 9a 58 2f be 83 ba 53 bd
       -0.2623119 0.17443092 -0.17123643 -0.051691543
000010 5e 1f 9e bd 00 f6 6a be ad 71 98 3e 65 68 03 3e
       -0.077208266 -0.22945404 0.29774228 0.12832792
000020 2e 47 49 be 0f e2 73 3e 2b 7d 3f be 52 d2 37 3e
       -0.19656059 0.23816703 -0.18700092 0.17951325
000030 41 d4 37 3e 3f e8 43 be 91 7d 31 3e 17 15 34 3e
       0.17952062 -0.19131564 0.17333056 0.1758617
000040 07 1a f6 3d 88 65 3a be 11 e8 8c 3d 5e ce f2 bd
       0.12016683 -0.18202794 0.06880201 -0.11855768
000050 85 66 4b be c0 b5 da 3d 7e ad 94 3c c1 c9 c2 3d
       -0.19863327 0.10679197 0.018149134 0.09511138
000060 62 ef 5d 3e 2f f9 24 be d4 b1 21 be 73 42 26 3e
       0.21673349 -0.16110681 -0.15790492 0.16236286
000070 bd e2 6e be 48 e4 65 be d6 ca 68 3e e6 4c 4a be
       -0.23328681 -0.22450364 0.22733626 -0.19755897

static_variable_selection.single_variable_grns.bandwidth_mbps_scaled_center.gate_norm.add_norm.norm.weight f4 [16]
000000 76 1c 9c 3f 88 47 52 3f 75 fa 90 3f 89 06 62 3f
       1.2196186 0.821404 1.1326433 0.8829122
000010 ff d3 8d 3f 0f e4 8d 3f 59 15 94 3f 08 04 8e 3f
       1.1080321 1.1085223 1.1569015 1.109498
000020 4e ef 49 3f 1d fd 56 3f 99 53 4a 3f 12 4c 44 3f
       0.78880775 0.8397997 0.7903381 0.76678574
000030 6c 00 93 3f 4a 82 4f 3f af ea 9a 3f b0 40 95 3f
       1.1484504 0.8105818 1.210287 1.1660366

static_variable_selection.single_variable_grns.bandwidth_mbps_scaled_center.gate_norm.add_norm.norm.bias f4 [16]
000000 51 31 66 be 43 ae 38 3e 5e 9a 39 be fc 8f a5 bd
       -0.2247975 0.18035226 -0.18125293 -0.080841035
000010 76 38 73 bd 47 2f 3a be e1 4d 77 3e ca 9b 46 3e
       -0.059380017 -0.18182097 0.24150802 0.19395366
000020 c0 4d 48 be 20 52 75 3e 4f 6e 65 be 37 b4 1e 3e
       -0.1956091 0.2395711 -0.2240536 0.15498434
000030 cc 50 15 3e 5d 20 60 be 72 4b 38 3e ae 2f 3e 3e
       0.14581603 -0.21887346 0.1799753 0.18572876

static_variable_selection.single_variable_grns.bandwidth_mbps_scaled_scale.resample_norm.mask f4 [16]
000000 07 c2 39 be 26 05 30 3e d9 38 00 be a3 40 51 be
       -0.18140422 0.17189464 -0.12521686 -0.20434813
000010 b9 38 83 3d 4a 4f 29 3e f6 85 75 be d9 15 26 be
       0.06407303 0.16534153 -0.23976883 -0.16219272
000020 5c 7e 6d 3e 04 2c 4a be 8b 6a 59 3c 5c e0 17 3e
       0.23192734 -0.19743353 0.013270031 0.1483168
000030 1e b6 3a 3e 43 1e 50 be 9e 7f 6a 3e fb b6 73 3e
       0.18233535 -0.20324044 0.22900245 0.2380027

static_variable_selection.single_variable_grns.bandwidth_mbps_scaled_scale.resample_norm.norm.weight f4 [16]
000000 dd 8a 4f 3f 11 5b 95 3f 69 88 62 3f f0 8e 4c 3f
       0.81071264 1.1668416 0.88489395 0.79905605
000010 c7 cb 88 3f 26 d1 93 3f 3d df 3b 3f e4 6a 55 3f
       1.0687188 1.1548202 0.7338751 0.8336623
000020 9f bb 9b 3f 53 b7 4a 3f 73 20 8a 3f 7c fd 92 3f
       1.2166632 0.7918598 1.0791153 1.1483607
000030 84 dc 96 3f 0a f3 4a 3f 32 2b 9a 3f 86 52 98 3f
       1.1786046 0.792771 1.2044432 1.1900184

static_variable_selection.single_variable_grns.bandwidth_mbps_scaled_scale.resample_norm.norm.bias f4 [16]
000000 fc 41 3b be 2a 24 2e 3e d2 54 29 be 9a 78 04 be
       -0.1828689 0.17005983 -0.16536263 -0.12936631
000010 80 5c cb bd 37 55 1b be 42 d3 8c 3e ab 3a 2c 3e
       -0.09929752 -0.15169226 0.27504927 0.16819255
000020 a9 42 60 be 56 85 65 3e 1c bf 4a be e7 1a 2e 3e
       -0.21900429 0.22414145 -0.19799465 0.1700245
000030 e6 cf 2f 3e a3 93 4c be 93 ea 4c 3e 5c 3f 44 3e
       0.1716915 -0.19978194 0.20011358 0.19164795

static_variable_selection.single_variable_grns.bandwidth_mbps_scaled_scale.fc1.weight f4 [8, 8]
000000 b5 41 a3 3e d3 6c a0 3f b3 7d c3 bd 07 86 a1 3e
       0.31886068 1.253321 -0.095454596 0.31547567
000010 e0 98 29 bf 97 b9 33 3f ed e8 2e 3f 75 3e 3e 3f
       -0.66248894 0.7020506 0.68324167 0.7431405
000020 18 f8 70 bf 9e 85 92 3d b2 b2 9d 3e 9f 55 d4 3e
       -0.9412856 0.07154392 0.30800396 0.41471574
000030 cc 15 4e be ca 09 68 be be 48 fc be e9 7b 1d 3f
       -0.20125502 -0.22659984 -0.49274248 0.61517197
000040 fb b1 44 bd 66 93 86 be 56 eb 62 bf 26 60 4c 3d
       -0.048021298 -0.2628433 -0.88640344 0.04989638
000050 e4 64 09 be 1c ed b0 3e 33 4e da be 56 c5 d9 3d
       -0.13417393 0.345559 -0.42637786 0.10633342
000060 f6 f2 bb be d1 97 67 3f 3f c0 18 3f 88 08 cc be
       -0.36708802 0.9046603 0.59668344 -0.3985026
000070 aa 77 47 3f 34 35 67 3e 46 ee 8f be 1f 12 4d be
       0.7791697 0.22578889 -0.28111476 -0.20026444
000080 c8 3d 3c 39 9f c6 30 bf bc cb c9 3e 1a 0d 24 3e
       0.00017952092 -0.6905307 0.3941325 0.16020623
000090 d0 e8 0c be 57 16 fc 3d 93 a3 15 bf 4a 59 49 be
       -0.13760686 0.123089485 -0.5845272 -0.19662967
0000a0 43 e2 02 bf 1c 23 74 3e 57 a3 06 3f b9 e3 f9 3e
       -0.511265 0.23841518 0.52592987 0.4880655
0000b0 45 31 6f 3f 00 34 1f bf 2a 9e 8c bf 11 5f 05 3f
       0.93434554 -0.6218872 -1.0985768 0.52098185
0000c0 78 af 21 bf 79 f3 12 3e 8d 22 dd 3e 0d 4e 9b be
       -0.6315837 0.1435069 0.43190423 -0.30332986
0000d0 4d 53 05 bf 83 f3 e3 3e e0 ab 54 3f 02 4c 53 3d
       -0.5208023 0.44521722 0.8307476 0.05158616
0000e0 65 70 64 3f 1d b9 0e 3f c7 a7 3a 3e a4 e3 90 bd
       0.89234 0.5575121 0.18228064 -0.07074669
0000f0 af a2 54 bf 36 30 1f bf 4c fe d1 be 00 04 03 3f
       -0.83060735 -0.6218294 -0.41014326 0.5117798

static_variable_selection.single_variable_grns.bandwidth_mbps_scaled_scale.fc1.bias f4 [8]
000000 be a4 85 3e 9a 88 2b be a4 87 12 be 5b ac 88 3d
       0.2610225 -0.16751328 -0.14309555 0.06673499
000010 8b 66 22 be b3 a6 18 bf ac 94 34 3e cd 35 1a be
       -0.1585943 -0.5962936 0.17634839 -0.15059586

static_variable_selection.single_variable_grns.bandwidth_mbps_scaled_scale.fc2.weight f4 [8, 8]
000000 bc d1 4e be 94 09 35 bf 56 5d 36 bc cf c6 7f bd
       -0.20197195 -0.7071774 -0.011130651 -0.062445458
000010 fd 64 c1 bd 35 1a b6 3e 69 da 1a 3e 1c fd 94 be
       -0.0944309 0.3556687 0.1512238 -0.29099357
000020 7b da a9 bf d8 a4 0a bf 3b 99 32 bf 78 12 13 3e
       -1.32698 -0.5415778 -0.6976506 0.14362514
000030 3c 67 38 bf d6 eb 04 3f d9 d5 3b 3e 4d 76 cd be
       -0.72032523 0.5192236 0.18343295 -0.4012932
000040 9a d2 98 3d ac cf 87 bd 09 8c 2e 3f 1b 54 c6 3e
       0.07462044 -0.06631407 0.68182427 0.38736042
000050 4f 0a 9f be ca 29 2e 3f 21 bd a2 bf 0f 9a 8f be
       -0.31062552 0.68032515 -1.2713968 -0.28047225
000060 de dd a7 bf fd b7 bc 3e 21 fb b1 bf 61 55 74 3e
       -1.3114583 0.36859122 -1.3904763 0.23860694
000070 09 ea e0 3e d4 e5 31 3f e0 25 3f bc f5 f1 ff be
       0.43928555 0.69491315 -0.011666745 -0.49989286
000080 1b 68 0a 3f 79 f4 a2 be e1 a3 69 bf 84 f6 17 be
       0.540651 -0.31827143 -0.91265684 -0.14840132
000090 ef 0f 24 bf 7d 4d 21 be 1b 3b d2 3e 7d 7a af bd
       -0.6408681 -0.15752216 0.4106072 -0.08568285
0000a0 b2 88 01 3e 17 6a 5b bd fb a2 ea be 93 66 4b 3f
       0.12649801 -0.053567972 -0.4582747 0.7945339
0000b0 06 8f 0a 3f c9 b7 07 3f 8e f4 d8 3d de 41 9a bd
       0.54124486 0.5301481 0.1059352 -0.075320944
0000c0 f9 3b 0a 3e bc 97 1e bd 7d f1 c5 be 66 91 0a be
       0.1349944 -0.038718924 -0.38660803 -0.13532028
0000d0 ff 20 39 be ce c0 0f 3f ec 5b 2d be 19 43 3f bf
       -0.18078993 0.5615357 -0.16929597 -0.7471176
0000e0 3d 90 b0 3c 32 d6 29 bf 9d 6e 17 3f 56 72 61 bd
       0.021553153 -0.6634246 0.5915316 -0.05504068
0000f0 42 b5 44 bf 72 4b 48 bd 35 97 ab bc 6b 26 8a bd
       -0.7683908 -0.048900075 -0.020946125 -0.06745609

static_variable_selection.single_variable_grns.bandwidth_mbps_scaled_scale.fc2.bias f4 [8]
000000 c5 ac 34 be 9f 32 7d be c6 12 37 3e be 1d b5 be
       -0.17644031 -0.24726342 0.17878255 -0.35374254
000010 4d af 41 3e d0 37 53 be 21 d5 19 3e 5d 80 04 3e
       0.18914528 -0.2062676 0.15022708 0.12939592
